wandb/run-20251114_054447-6eztkjlv/files/models/DQNAgent/Acrobot-v1.pth (torch, 276537 bytes, 6 tensors)

net.0.weight f4 [256, 6]
000000 a4 d3 06 3f aa 80 3c 3e 17 6b 00 be 49 73 d1 3e
       0.5266669 0.18408456 -0.12540852 0.40908268
000010 b4 89 8c bd 8d 6c a1 3d 96 e7 a6 be 91 f0 17 be
       -0.06862202 0.078820325 -0.3259856 -0.14837863
000020 90 7f 1f 3f 80 7f 1b 3b 9d ef aa 3e 19 37 91 3d
       0.6230402 0.002372712 0.33385935 0.07090587
000030 68 b9 2d 3e 16 7f f4 bd a5 20 35 3f 4b 31 1a 3e
       0.16965258 -0.11938302 0.70752937 0.15057866
000040 02 e8 b3 3e 45 19 dc 3d 69 f9 9d be c8 41 55 3e
       0.35137945 0.10747007 -0.30854347 0.20825875
000050 be 70 5b be ad 08 da bc 7d af e9 bd 23 b4 60 3e
       -0.21429726 -0.026615465 -0.11410425 0.21943717
000060 d4 31 a3 be ef 9f fc bd 79 3c 30 bd d0 16 70 be
       -0.31873953 -0.123351924 -0.04302642 -0.23446202
000070 a9 83 ea 3c 1e eb b7 be 40 ea f0 3e d7 71 a2 be
       0.028627234 -0.35921568 0.4705372 -0.31727478
000080 ce 18 bb 3e d8 b1 20 3d 69 0a d6 bc c3 64 24 3e
       0.36542362 0.039232105 -0.02612801 0.16054063
000090 c8 c1 53 3e 51 53 63 3e 6d a9 42 3e ad 6b 1e be
       0.2067939 0.22199751 0.19009943 -0.15470763
0000a0 ca 0c 3d bd 07 8a 40 bd fd 8f a9 3e 3b d3 96 3e
       -0.046154775 -0.047006633 0.33117667 0.2945803
0000b0 cf c4 fd 3d 94 02 93 be ab 78 5d 3e 88 a5 d7 3d
       0.12391054 -0.28712904 0.21628062 0.105296195
0000c0 6a e9 0a be fc 57 b7 be 8d c8 20 bf 87 eb 06 be
       -0.13565603 -0.35809314 -0.62806016 -0.13175784
0000d0 1f 36 69 be 7d cc f1 3d 5a 21 89 3e 87 23 37 bd
       -0.22774552 0.11806581 0.26783258 -0.044711616
0000e0 e8 80 69 3e 36 fe c2 3d ee c7 4f 3d 56 aa 29 be
       0.2280308 0.09521143 0.050727777 -0.16568884
0000f0 87 a5 c5 3d 76 40 c4 be d9 fe 68 3e 81 fd e6 3d
       0.096507125 -0.3833043 0.22753467 0.11278821
000100 7c 7b 6d 3d ff 39 25 bd 69 96 16 3f dd 06 90 be
       0.057979092 -0.040338513 0.5882326 -0.28130236
000110 fa 2c 3f bd 7d 5a 71 be a7 61 4c 3e 4d b3 f3 3d
       -0.046673752 -0.23569675 0.19959126 0.11899433
000120 f2 40 a1 3e 21 50 bc be c3 d5 19 bf 7b df f8 be
       0.31494862 -0.36779884 -0.600918 -0.48608002
000130 ec 2a 5e be 48 66 3e 3d 64 da 6c 3e 7c b1 dd 3e
       -0.21696061 0.04648426 0.23130184 0.43299472
000140 f9 b4 60 bd a6 93 38 be 9d 05 53 3e 15 1d e9 bd
       -0.05486009 -0.18025073 0.2060761 -0.113825
000150 f5 74 07 3f b2 f2 33 be 49 47 9e 3e 43 1f ee be
       0.5291284 -0.1757305 0.3091376 -0.46508226
000160 cc 55 8b bd f3 74 b0 3c 36 28 b8 3e 52 fa 12 be
       -0.06803474 0.02154014 0.3596818 -0.14353302
000170 c8 c7 e6 3e ea 55 2f 3e 24 db 64 be a1 64 1d be
       0.45074296 0.17122617 -0.2234922 -0.15370418
000180 6b 54 f7 3e a6 59 9e bc 6c 28 6e be 7f 85 ad be
       0.48306593 -0.019329857 -0.23257607 -0.33890912
000190 80 4a ba bd 7d c8 26 3d 52 4d 66 3d ab c6 94 be
       -0.09096241 0.040718544 0.056226082 -0.29057822
0001a0 70 9e 80 3d d0 45 9b be 3a 54 49 be 2f 58 85 be
       0.062802196 -0.303267 -0.19661036 -0.2604384
0001b0 28 07 82 be 55 69 e6 be 82 c7 20 3f 77 00 62 3d
       -0.25396085 -0.45002237 0.62804425 0.055176225
0001c0 0a fc 17 3d 96 bd 6b be 72 ab 65 be 47 22 c1 be
       0.037105598 -0.2302154 -0.22428682 -0.37721464
0001d0 d9 ec be 3e 6e f8 b9 be b5 ec dc bd b5 a3 4a be
       0.37290075 -0.3632235 -0.10787336 -0.19789012
0001e0 35 82 e3 3c ba f2 bf bd 81 12 0d 3e 2c 5f 0c be
       0.027772048 -0.09372468 0.1377659 -0.1370818
0001f0 28 58 b4 be 0c 3e 7f be de 7f e4 be ca 65 5b bf
       -0.35223508 -0.24926013 -0.44628805 -0.8570219
000200 58 f2 a8 3e b2 eb bb be 14 9a 86 3e 64 b4 8e 3d
       0.32997394 -0.3670326 0.26289427 0.069680005
000210 bb 24 b6 be 90 d8 84 3d 6b fd 55 be 95 f1 ed 3d
       -0.35574898 0.064866185 -0.20897453 0.11618344
000220 ca 38 9a be 29 cb b9 be a0 68 55 bd 7d b5 b2 bc
       -0.30121452 -0.3628781 -0.05210173 -0.021815056
000230 41 87 9c 3e 3e 17 06 be 14 2e 52 3e 7e e1 4c be
       0.3057194 -0.13094804 0.2052539 -0.20007893
000240 30 01 1e 3e 2f 81 00 3d a0 cb cf 3e 2a 34 1b 3f
       0.1543014 0.0313732 0.4058504 0.6062647
000250 d8 ca 7e 3d 60 7d 21 be fb 0d 79 3d 95 be d9 be
       0.062205166 -0.15770483 0.06080435 -0.42528215
000260 38 de ec 3d 25 73 ee be 98 5d 7f 3e 26 e3 2d be
       0.11565822 -0.46572223 0.24938047 -0.16981182
000270 0c 5d f8 3e 80 8b 0d 3c 1f 70 bb 3d bf e9 11 be
       0.4850849 0.008639216 0.09152245 -0.14249323
000280 69 fe 96 3e 84 a4 bf 3d 6a 2b 3d 3e de 68 93 be
       0.29490975 0.09357551 0.18473592 -0.28790945
000290 9c ed b2 3d db 74 7b be 99 56 84 3d 4d 5c 53 3e
       0.08736727 -0.24556296 0.0646183 0.20640679
0002a0 02 dd 8a 3c e6 f0 14 bf dc a5 1c bf 90 b4 79 be
       0.016951088 -0.5818008 -0.6119058 -0.24385285
0002b0 0a 75 a8 3c 4a b1 2d be e6 6d a1 be c9 55 81 3d
       0.020563621 -0.16962162 -0.31529158 0.0631519
0002c0 1a 7d 91 be de 26 8b 3e b0 cb 92 3e 84 84 9a be
       -0.28415757 0.2717809 0.28671026 -0.30179226
0002d0 93 68 b9 3e 53 40 c0 3e 54 98 f4 3d 97 73 8d be
       0.36212596 0.37549075 0.11943117 -0.2762725
0002e0 ce 8f 49 3e b6 2f f3 3d b6 dc 96 3e df 49 13 bc
       0.19683763 0.118743345 0.29465264 -0.00898978
0002f0 ff 89 72 3d 44 2f c2 3d bd de 28 be c7 7f 21 bd
       0.059213635 0.094816715 -0.16491218 -0.0394285
000300 de 0e c2 3e ce 73 a9 3e d8 d6 38 3d f6 2a 83 be
       0.37901968 0.33096164 0.045126766 -0.25618714
000310 be 74 63 bc 1e fd 42 bc e8 f6 12 3e ea 7e 63 3e
       -0.013882814 -0.011901168 0.14352 0.22216383
000320 19 a4 fe be d4 cc c7 be 89 3f 72 3e e5 4b e9 3d
       -0.49734572 -0.3902346 0.23657049 0.11391429
000330 50 43 f1 bd 64 4c c1 3d 95 83 25 bf f7 68 20 bf
       -0.11780417 0.094383985 -0.64653903 -0.62660164
000340 bd 85 93 3c ff b8 94 3d 4b a3 4d 3e f4 19 3c 3f
       0.018008107 0.07261848 0.20081823 0.734771
000350 5e 77 4f bf 92 d3 c7 be 49 0a 9d bd 87 05 7f 3e
       -0.81041515 -0.39028603 -0.07667977 0.24904452
000360 47 53 f8 3d af 48 c0 3d 9f 6c 88 3d f1 fe 91 be
       0.12125259 0.09388863 0.06661343 -0.28514817
000370 c5 d0 55 be cf 7f 1f 3e d1 49 e6 be 26 55 89 be
       -0.2088042 0.15576099 -0.44978192 -0.26822776
000380 bc 38 02 bf 66 b4 e5 3e 96 e7 5f 3e 5c 3f e3 3d
       -0.5086782 0.44864196 0.21865687 0.11096069
000390 0e 94 2b bf 76 93 e3 be 3e fd 3a bf 39 e4 8d 3d
       -0.6702279 -0.4444844 -0.73042667 0.06928296
0003a0 e8 fc 85 3e e1 91 62 3e 77 27 d3 3e a6 93 ce 3e
       0.26169515 0.22125961 0.41241047 0.40347022
0003b0 aa 41 49 3e 9f c5 b6 be 70 a4 c7 be e9 9a 7d be
       0.19653955 -0.35697648 -0.38992643 -0.24766125
0003c0 75 12 5b 3e d1 7b 0a bf a5 67 03 be 72 94 0d be
       0.2139376 -0.5409518 -0.12832506 -0.13826159
0003d0 91 72 04 be 87 5f 44 be 61 2c 08 bf c8 ff 7d 3e
       -0.12934329 -0.19177066 -0.53192717 0.24804604
0003e0 37 20 36 be a6 50 4c 3f 92 a4 5b be 09 83 65 be
       -0.17785726 0.7981056 -0.21449497 -0.22413267
0003f0 38 7d 97 be 0e 40 11 bf b3 54 34 bf d6 b0 c3 be
       -0.29587722 -0.56738365 -0.7044174 -0.38220853

net.0.bias f4 [256]
000000 f9 2e ab 3d 2f 03 a8 be 3c 0c 28 bd b2 f9 4d be
       0.08358569 -0.3281493 -0.041027293 -0.20114782
000010 f6 5f 77 be c7 1f f7 3e 77 07 8c 3e 31 71 dc 3e
       -0.241577 0.48266432 0.27349445 0.43055108
000020 09 17 16 bd e3 fe 11 3e ce c6 78 3e 78 a4 7b 3e
       -0.03664306 0.14257388 0.24294588 0.24574459
000030 d8 b3 e4 be 46 d9 9f be d7 16 56 3d e7 d7 50 3e
       -0.4466846 -0.31220454 0.052267876 0.2039486
000040 e9 57 9b 3e d1 23 73 3e c7 fc e0 3e ac 55 f1 3d
       0.30340508 0.23744132 0.43942854 0.11783919
000050 1d fe 28 be a7 33 8e be 2e 84 eb be 4a ff b2 be
       -0.16503187 -0.27773783 -0.45999283 -0.34960395
000060 a3 ec 85 3e 28 00 2d 3e 94 d4 e6 3e 33 19 44 be
       0.26157102 0.16894591 0.4508406 -0.19150238
000070 4e cc 9d be 7b 49 8a be 3f 43 4c 3e d8 df 87 3e
       -0.30819935 -0.27009186 0.19947527 0.26537967
000080 ba 97 dc 3d f2 ae 79 3d 2a c0 98 3d 29 c4 52 3d
       0.10771127 0.060957856 0.074585274 0.051456604
000090 d0 82 48 be cc c3 97 be f5 dd d6 3d aa 54 ce 3d
       -0.19581151 -0.2964157 0.10491554 0.10074742
0000a0 df c2 b8 be b7 1d 4f bd 9a b5 35 be 23 26 df bd
       -0.36086175 -0.050565448 -0.17745057 -0.10895946
0000b0 82 cd 8c be 21 57 db 3d 34 da c4 be 88 f9 75 bc
       -0.2750054 0.10709978 -0.38447726 -0.015013106
0000c0 ed cc c0 3d 0e da bf 3e 6e bd af bd 62 6f 97 bd
       0.094140865 0.3747105 -0.08581053 -0.073942915
0000d0 64 a2 31 3e 25 f7 db 3e 24 59 b0 be 4b cd 9b 3e
       0.17347103 0.42961994 -0.3444301 0.30430064
0000e0 8b 9b 86 3e 89 5c d2 be 91 ba 62 3d 51 29 92 be
       0.26290545 -0.41086224 0.055353705 -0.28547147
0000f0 71 0c 92 be 5d fe 45 be 69 29 a8 be 95 81 c0 3e
       -0.28525117 -0.19335313 -0.32844093 0.37598863
000100 7a 5a dd be b3 bc a6 3e 78 a8 e3 be b1 33 ca 3b
       -0.4323309 0.3256584 -0.4446447 0.006170713
000110 bd cc 3a bd 79 d9 9b 3e 7f 4a 76 be 99 30 1f 3e
       -0.04560541 0.30439356 -0.24051856 0.15545882
000120 10 25 86 3e 74 ee 97 3e 7a db 32 bd 39 54 c2 3e
       0.2620015 0.29674113 -0.04366634 0.37954882
000130 74 19 3b be d3 38 de be f4 6e e2 3e d4 f2 09 be
       -0.18271428 -0.43402728 0.44225276 -0.13471538
000140 d9 a2 a3 be e8 cf a6 3d 6c 9e 02 3f ec 64 05 be
       -0.3196018 0.08145124 0.5102298 -0.1302678
000150 cc 2a 37 be 1f 4e 46 be e2 9b 9a 3e f4 ea 83 3e
       -0.1788742 -0.19365738 0.30197054 0.25765193
000160 53 40 b7 3e 23 40 40 be 18 6a ad 3c ba b4 bf be
       0.35791263 -0.18774466 0.021168754 -0.3744257
000170 a0 44 7b 3e 6e 50 5b 3e 73 a8 8d 3d 22 80 b9 be
       0.24537897 0.214174 0.06916895 -0.3623057
000180 ac 97 65 be 0f d4 70 3e ab 36 f8 be 0c 8c a0 be
       -0.2242114 0.23518394 -0.48479208 -0.31356847
000190 13 90 f0 be 08 56 91 3c ec cc bd 3e 9a c5 82 3e
       -0.4698492 0.017741218 0.37070405 0.25541383
0001a0 02 2d d9 bc cd ad 90 3e cd f8 c3 be 6c f3 86 3e
       -0.02651072 0.282576 -0.38275757 0.2635759
0001b0 c1 4d b8 3c 3f 58 33 be 49 fd d8 3e 02 f5 7b be
       0.022498013 -0.17514132 0.4238074 -0.24605182
0001c0 0f 70 58 3e f0 b3 f8 be d2 10 e4 3d b7 03 53 bc
       0.21136497 -0.4857478 0.11136021 -0.012879304
0001d0 c0 a5 60 3e 2b fc 08 be 43 1d 18 3e ad 2b cb bd
       0.21938229 -0.13377444 0.14854912 -0.0992044
0001e0 f3 c5 85 3e 1f a2 e3 be 1a a9 a3 3e a2 e1 21 bd
       0.26127586 -0.44459626 0.31964952 -0.03952182
0001f0 69 2e ec bd ae dd 5c be c6 9e cc 3e e6 2a 88 bd
       -0.115322895 -0.21568939 0.39964885 -0.06648807
000200 66 3e 88 be 19 90 96 bc f8 d4 d1 be 71 7f a4 3e
       -0.26610106 -0.018379258 -0.40982795 0.3212848
000210 35 92 50 3e bc b5 f7 bd e6 5f 44 be 56 b7 67 3e
       0.20368274 -0.1209521 -0.19177207 0.22628531
000220 64 7a 58 be 4d ac c5 3c 97 59 c3 3e fa 32 4c 3e
       -0.21140438 0.024130011 0.3815429 0.19941321
000230 07 a8 bb 3d 98 1d e0 be e2 2a d3 3e 08 68 5c bc
       0.09162908 -0.43772578 0.41243654 -0.013452537
000240 fd e3 26 be 58 fe 22 3c 01 57 c8 3e 17 a7 c7 3e
       -0.16297908 0.009948336 0.3912888 0.38994667
000250 49 fb 4d be 99 c3 90 3e 0c 89 55 be a0 7c 12 bc
       -0.20115389 0.2827423 -0.2085306 -0.008940846
000260 62 f7 64 be 39 80 d0 bc ac d5 05 b9 b8 bf a8 3d
       -0.22359994 -0.025451766 -0.00012763467 0.082396924
000270 85 ef cf 3e a2 b1 00 3f 4f b5 8e be c9 e7 92 be
       0.40612426 0.50271046 -0.27872702 -0.28692463
000280 e5 cf 14 be e6 ae 93 3e 03 a2 77 3d 01 92 1f 3d
       -0.1453243 0.28844374 0.06045724 0.0389576
000290 58 25 b9 be 45 20 05 3e 9a ef 01 3f c7 a0 25 be
       -0.36161304 0.13000591 0.5075623 -0.16174613
0002a0 c6 58 a9 3e 0d f7 d2 3d bd fa 44 3e 0e 5c e6 bc
       0.3307554 0.103010274 0.19236274 -0.028120067
0002b0 31 8b d6 3d f4 eb eb 3e ee e5 a1 3e 92 28 03 3f
       0.104757674 0.46078455 0.31620735 0.5123378
0002c0 be 0b 4e be 3f d1 4c 3e 8d 8e bc 3e c9 d4 9c be
       -0.20121667 0.20001696 0.36827508 -0.30631092
0002d0 f0 bc 72 3d 0a 9b aa 3c c4 37 c2 3e f4 bb aa be
       0.059262216 0.020825882 0.3793317 -0.33346522
0002e0 0a 81 4e 3e 9e de a8 3e ad 48 c0 be 24 88 a6 be
       0.20166412 0.32982343 -0.37555447 -0.32525742
0002f0 e1 0f dd be 42 6f d6 3e 92 2f a2 3e c1 0d 98 be
       -0.43176177 0.41881758 0.31676918 -0.29697993
000300 ff 68 03 be 0d 93 92 be e5 f0 83 be 62 29 e8 3e
       -0.12833022 -0.28627816 -0.25769725 0.45344073
000310 58 60 93 3e 18 3e 78 bc 4f 36 90 bd 61 90 22 bd
       0.28784442 -0.015151523 -0.070416085 -0.03968847
000320 a7 ea 0d 3e 7d c1 63 be c4 84 d8 be 93 b6 a8 3e
       0.13859044 -0.22241779 -0.42288792 0.32951793
000330 d1 8b be 3d e3 0d 7d 3e 7b ac 07 be 44 4f ac 3e
       0.093040116 0.24712329 -0.1324939 0.33654225
000340 0f d1 d6 3e 10 08 4e 3e 27 36 0c 3e 1b f1 e4 3e
       0.41956374 0.20120263 0.13692532 0.447152
000350 fd 3f ce 3c 33 79 16 be 49 8c cf 3e 94 98 00 3f
       0.025176996 -0.14694671 0.40536717 0.50232816
000360 cb 28 f5 bd ad 05 c2 3e c7 38 9e 3e 64 c6 a4 3c
       -0.11970671 0.37894955 0.30902693 0.020114131
000370 c6 94 02 3f 33 79 a0 be 19 1e c4 3e 91 4c fe 3e
       0.5100826 -0.31342468 0.38304213 0.4966779
000380 3d 70 a2 be c4 13 65 be 89 bb 00 bf 93 14 ba bd
       -0.31726256 -0.22370821 -0.50286156 -0.090859555
000390 f6 3c e6 be 4e 9c 25 be c9 1a 82 3e 2a 7d bf 3e
       -0.44968385 -0.16172907 0.2541106 0.3740018
0003a0 e7 93 92 3e e9 a3 5d 3e 7d 84 94 3e 4e 32 b9 be
       0.28628466 0.21644558 0.2900733 -0.36171192
0003b0 26 98 a6 be bd 33 92 3d 47 b1 e4 3e 19 dd 2f be
       -0.32537955 0.071387745 0.44666502 -0.17174186
0003c0 42 c7 6f be 89 49 af be eb 6d 6c bd 7e 3c 02 bf
       -0.23415855 -0.3423579 -0.057722013 -0.50873554
0003d0 db 0d a6 3e f7 29 f0 bd 47 39 de be ef dd 52 bd
       0.32432446 -0.11726754 -0.43403074 -0.051481184
0003e0 1d 5a a1 3d 93 c4 25 be 3a 80 52 3e 6f c3 92 3e
       0.07878516 -0.16188268 0.20556727 0.2866473
0003f0 71 6e 95 be b6 24 a6 be 1a 9b 48 3e 3f 2a 02 bf
       -0.29185823 -0.32449883 0.19590417 -0.5084571

net.2.weight f4 [256, 256]
000000 05 8c 6e bd 41 d1 c5 be eb fc 6a be bb f6 84 bd
       -0.058239 -0.3863621 -0.22948043 -0.064923726
000010 8f 0c 84 bd e4 5b 4d 3d d5 d4 2e 3d 36 a1 0c bd
       -0.06447708 0.05013646 0.04268344 -0.03433343
000020 17 5c 8a bd 20 33 10 bd 65 16 17 3e aa a7 a4 3d
       -0.06755846 -0.035205007 0.14754637 0.08039792
000030 9a de fd bd b8 af f3 bd 71 e0 bb 3d d6 c3 d3 3d
       -0.123959735 -0.1189875 0.09173668 0.10340087
000040 af e1 49 3e e1 d4 0a 3e 99 8e 06 3e 70 66 d0 3d
       0.19714998 0.1355777 0.13140334 0.101757884
000050 59 6d e9 bb 84 a3 fc 3d b0 0f 8e be ed 73 a1 bd
       -0.007123631 0.12335876 -0.27746344 -0.07883439
000060 ec 2c d1 bb 45 5b 41 bd a4 07 15 3b 16 a8 84 3d
       -0.006383529 -0.047206182 0.002274015 0.06477372
000070 76 91 50 bd d6 2d 97 bd 11 56 91 bb 1d 6a 12 3e
       -0.050919972 -0.073817894 -0.0044353087 0.14298292
000080 07 44 87 bd 59 d8 ec 3d 12 34 c9 3d b2 ff a2 3d
       -0.06604772 0.115647025 0.09824385 0.07958926
000090 dd 15 5f bc e7 2b e5 3e cc 92 ad 3b fe 05 51 3e
       -0.013616052 0.44760057 0.0052970406 0.20412442
0000a0 a2 c6 19 3c 0f 06 92 3e e7 f1 77 3d 4a 52 00 bb
       0.009385737 0.28520247 0.06053343 -0.0019580298
0000b0 44 22 dd bd f7 3a 50 3d 36 7f 10 be 37 d9 51 bd
       -0.10797551 0.050837483 -0.14111027 -0.051232543
0000c0 24 3c 2d 3e 33 4d 1a 3e 79 40 a8 3c d0 e1 1a be
       0.16917473 0.15068512 0.020538555 -0.15125203
0000d0 32 d7 48 bd 58 34 b7 3d a1 ee 57 bf 93 d4 0e 3e
       -0.04903335 0.08945531 -0.84348494 0.13948278
0000e0 bf 3c 8f bb cb 7b 04 bd 87 14 0b 3e f2 ff b5 bd
       -0.004371255 -0.03234462 0.1358205 -0.08886708
0000f0 ee 6b 4f 3e d9 c0 47 3e 8a f5 df bd 4e e6 14 3e
       0.20256016 0.1950716 -0.10935505 0.1454098
000100 03 bb 87 be e8 0c 51 3d e6 c6 66 be 74 bf 4e 3d
       -0.26509866 0.0510377 -0.22536811 0.050475553
000110 05 a4 a9 bc c4 69 ed 3c 96 d1 dc 3d f6 16 50 3d
       -0.020708093 0.028981097 0.10782163 0.050803147
000120 fb bb 99 be ff 3e b1 3b 17 4b 1e be 64 90 dc 3d
       -0.3002623 0.005409121 -0.15458332 0.10769728
000130 18 64 51 be 36 f3 0c be ff 2f 94 bc f2 52 0f bf
       -0.20448339 -0.13764653 -0.018089293 -0.5598594
000140 97 31 a4 be d4 c6 1b 3d 13 0b 85 bc 39 0d 89 bc
       -0.32069084 0.038031414 -0.016240632 -0.016729938
000150 74 41 08 3f a1 02 2e 3e f1 d0 c4 3d 30 f1 18 bd
       0.53224874 0.1699319 0.09610165 -0.03733939
000160 8b 1d 62 3c c8 bd 06 bd 90 4a ad bb 8d f6 84 bd
       0.013800989 -0.032895833 -0.0052884296 -0.06492338
000170 a7 7b 52 3d 9d dd 03 be 44 f7 9b be 32 8e c1 bd
       0.051387455 -0.12877508 -0.30462086 -0.0945095
000180 b2 94 1a be f3 f9 f4 3c 9d f5 3f be a0 b1 1c bc
       -0.15095785 0.029904341 -0.18746038 -0.0095638335
000190 f4 7c 9f be 47 fb 0d 3d 24 fe 61 bc 1e 8d 9a 3d
       -0.3115002 0.034663465 -0.013793502 0.07546447
0001a0 60 92 8f bd d2 3a 00 3e 9e 45 7d bd 6f 01 d6 3e
       -0.07010341 0.12522438 -0.06183397 0.4179797
0001b0 2d f3 fc 3c cb 3f c2 bd df 14 fa bd 60 a0 60 3c
       0.030877674 -0.09484824 -0.12211012 0.013710111
0001c0 36 10 51 3d 64 3c 39 be 0c 27 0c 3b 3b 6a e5 bd
       0.05104085 -0.18089443 0.0021385578 -0.112019025
0001d0 9b bd 59 be e2 f1 d3 3e ce 89 81 bd 64 84 5e 3e
       -0.21263735 0.4139548 -0.06325112 0.2173019
0001e0 58 61 a6 3d 4d 92 9d 3b 30 21 8b 3d 2e 32 cd 3c
       0.081240356 0.0048087 0.067934394 0.025048342
0001f0 9a fc 62 be 0d 98 0a be be b0 25 3d 53 2c 54 be
       -0.22166672 -0.13534565 0.040451758 -0.20720033
000200 1d dc 12 bd f8 f9 b0 bd eb 1f c9 3d ce b3 39 bb
       -0.035854448 -0.08641428 0.09820541 -0.0028335932
000210 bc 52 9e 3e c1 be be bd 70 87 83 bd e1 a6 e7 3b
       0.30922496 -0.09313727 -0.06422317 0.007069454
000220 79 33 33 3d 23 e2 be bc 91 53 fa 3d d1 cd 40 be
       0.04375026 -0.02330119 0.1222297 -0.18828513
000230 ed 1e 83 3d 88 58 5a bd e5 40 f1 bb ed 4d e1 bb
       0.06402383 -0.053307086 -0.0073624724 -0.0068757446
000240 b6 3b 80 bd 55 d5 13 bd 10 6e ec 3d 7a 51 92 bd
       -0.06261389 -0.03609212 0.1154443 -0.07144447
000250 46 0e 80 be a5 00 c5 3d 7d b1 ab 3a 5d e8 7f bd
       -0.2501089 0.096192636 0.001309916 -0.06247746
000260 2f 43 0f bd be 6b 43 be 97 95 24 3c 75 09 d9 3e
       -0.03497618 -0.19084069 0.010045431 0.42390028
000270 e2 06 45 3e fd 96 bf bd a9 46 c9 bd 5f 4d bb 3b
       0.19240907 -0.093549706 -0.098279305 0.0057160105
000280 f6 b5 25 be 66 8b bf 3d 45 02 f6 3c b5 1c 15 bd
       -0.16182694 0.0935276 0.03003038 -0.03640433
000290 ea c7 0d 3e c7 04 c4 bd 8b db c4 3d 8a 78 94 bd
       0.13845792 -0.09571224 0.09612187 -0.072495535
0002a0 f0 56 40 3e be 03 05 3e 5e a8 e6 3b 89 60 31 3e
       0.18783164 0.12989709 0.007039114 0.17321981
0002b0 91 51 c5 3c 07 bd 45 3c 3c 3c 24 3d c3 97 1d 3e
       0.024086745 0.012068993 0.040096506 0.15389924
0002c0 9d f4 a3 bd eb 5d 8b 3d a2 4b 2b 3d a1 49 a6 be
       -0.08005641 0.06805023 0.041820176 -0.3247805
0002d0 ae 09 bd bd c3 05 42 3d 0a e4 32 3d 81 54 e4 3c
       -0.09230362 0.047368776 0.043674506 0.027872326
0002e0 d4 9e c6 bd 60 3b 79 3d 20 cb 86 be f2 11 65 3c
       -0.09698263 0.06084764 -0.26326847 0.013981329
0002f0 bd 08 d4 be 1d f7 b3 3d f2 cc 64 3e 4b d1 cd bc
       -0.41412917 0.087873675 0.22343805 -0.025124213
000300 9c 1f 1b 3e 36 21 1a be d7 3c 8f be c0 46 02 3c
       0.15148777 -0.15051731 -0.27976105 0.007951438
000310 03 29 64 3d ec d7 f9 bd 8d 4e d3 be a5 cb 75 be
       0.055703174 -0.12199387 -0.41270867 -0.24003465
000320 d6 c2 51 3c 84 d7 2d be e0 e7 99 be 23 10 b0 bc
       0.0128028 -0.16976744 -0.3005972 -0.02149207
000330 51 e8 07 3e 61 09 cc bb 02 69 ac be c4 e2 0b 3e
       0.13272215 -0.006226704 -0.33673865 0.13660723
000340 a9 e7 d1 3d 97 37 30 be eb d3 d6 bc f8 51 0a bd
       0.10249264 -0.17208706 -0.026224097 -0.033769578
000350 e8 75 f0 3d 13 f1 a2 be 0d 9e de 3c f7 d3 2c 3d
       0.11741239 -0.3182455 0.027174974 0.042194333
000360 16 22 ee bd 13 22 07 be b4 1c 4a 3d a0 20 74 3d
       -0.11627595 -0.13196592 0.04934378 0.059601426
000370 c0 76 a7 3c 51 5a b5 bd a5 92 74 3b bd 91 78 3d
       0.020442367 -0.08855117 0.0037318852 0.06068586
000380 0c 39 b7 be 38 98 85 be b6 68 ba be 29 f4 87 be
       -0.3578571 -0.26092696 -0.36408013 -0.26553467
000390 aa b9 73 bb 31 fe 91 bd 9f 6f 33 3e 43 fb d8 bc
       -0.0037189522 -0.07128561 0.17523049 -0.026486998
0003a0 83 f4 0a 3e 82 d8 5b 3e 5e 04 14 be 4b ea c5 bd
       0.13569836 0.2146931 -0.14454791 -0.096638285
0003b0 89 8d 2b bd 69 02 ee 3d 44 f7 b9 3d 0f 7a f6 bb
       -0.041883025 0.116215535 0.09080365 -0.0075218747
0003c0 8b 6e d7 be 69 08 f4 bd 16 be 4a be 5a 87 4f be
       -0.42076525 -0.119156666 -0.19799075 -0.20266476
0003d0 dc 33 86 3d 46 35 0c be 92 83 38 be e2 6c fe 3d
       0.0655286 -0.13692197 -0.1801894 0.124231115
0003e0 c2 d5 fd bb 07 6f 28 3d 15 78 e9 bc 5d 10 d3 3c
       -0.007746429 0.04112151 -0.028499642 0.025764639
0003f0 1a 8e b4 bd cc 2e 1a 3c fc d2 92 3d 68 df 15 3d
       -0.08816166 0.009410571 0.07169148 0.03659001

net.2.bias f4 [256]
000000 c5 ff 43 3d 9a 73 fb bb 78 52 d9 3d 74 30 be 3d
       0.047851343 -0.007673693 0.10611433 0.092865855
000010 91 f6 f2 bd c1 e5 a8 3c 34 7c 0b 3e 92 9e 1f 3d
       -0.11863435 0.020617368 0.13621598 0.038969584
000020 ac 58 8c bc e0 39 5c 3d 3c a8 e4 3c d1 2f ea 3d
       -0.017132126 0.05376613 0.027912252 0.114349015
000030 ad 27 84 3d eb 6b d0 3c 61 6c 8e 3d 2a a6 9f 3d
       0.0645288 0.025442084 0.069542654 0.07795365
000040 a0 da f9 3c 96 7b 05 3e 50 c6 97 3d 5f 04 21 bd
       0.030499756 0.13035426 0.07410872 -0.03931081
000050 9a 89 77 bc b3 96 23 3e 1f bc 4b bd 8e 82 6b bd
       -0.01510849 0.15975456 -0.049739953 -0.057497554
000060 99 21 b2 3d 96 25 67 3d cf 13 fa 3d f4 2b 72 3d
       0.086978145 0.05643233 0.122108094 0.05912395
000070 76 59 44 bc b5 2e f8 bd 3b 0e eb 3c 2f 85 26 3e
       -0.01198422 -0.12118284 0.028693309 0.16261743
000080 c9 5c 1e bd e9 f9 12 3c ae 5e 3e 3c 6a 6f 0b 3e
       -0.038662706 0.008970716 0.011619253 0.1361672
000090 e3 f1 82 bd 4a 7e 1e bd 23 47 4f 3c 1c a7 0a bd
       -0.063937925 -0.038694657 0.012651238 -0.033850774
0000a0 55 56 b4 3d 1a 9e cb 3d 11 52 c2 3c 1d 35 a1 3d
       0.08805529 0.09942265 0.023720773 0.07871459
0000b0 9e 8a 87 bd 44 da 25 3c 72 5f 91 bc 39 5e 04 3d
       -0.06618236 0.010122839 -0.017745707 0.03231642
0000c0 e8 99 75 3d 59 7d 2a bd 12 ae c0 3b 81 b9 78 3d
       0.05996123 -0.041623447 0.005880126 0.060723785
0000d0 97 e1 c7 bc 3d fe 9d 3d fa af 96 bc a4 08 63 3c
       -0.024399562 0.07714508 -0.018394459 0.013857041
0000e0 7c 04 fb bc 42 4a ac ba fc ef 91 3d 4d 08 c4 bc
       -0.030641787 -0.0013144689 0.071258515 -0.02392974
0000f0 9a db 8f bc 6f e8 74 3c e9 36 8a 3d 52 65 02 3d
       -0.017560769 0.014947995 0.067487545 0.031834908
000100 25 8d ed bb 31 b8 84 bc 96 3b 5f bb 4e e3 a1 3d
       -0.0072494918 -0.01620111 -0.0034062616 0.07904683
000110 ca 3f c4 bc 54 a1 45 3d 07 f4 5f 3e 99 58 9c bc
       -0.023956198 0.048249558 0.21870433 -0.019085215
000120 2e 6f c7 3d 37 55 37 bd 48 26 ce bd 25 50 30 be
       0.09738003 -0.044759 -0.10065895 -0.17218073
000130 6d 47 c3 3d 36 3e 0c bd fa d1 4d bc 2f 35 04 3e
       0.09535108 -0.034239016 -0.012562269 0.12910913
000140 89 ac 26 3d 72 a1 67 3d 77 b8 aa 3d c7 24 0f 3d
       0.040691886 0.05655045 0.08335965 0.034947183
000150 13 f4 af 3c 29 d7 98 3c d5 25 75 bd ba c9 12 3d
       0.021478688 0.018657284 -0.059850533 0.035836913
000160 47 1d 09 3d 63 82 cd 3d d8 a1 64 3d 85 8a 0c 3e
       0.033475187 0.10034635 0.05581841 0.13724716
000170 ca ea 2c 3e a0 46 94 3b 84 3b 2b bc 12 39 a2 bd
       0.1688644 0.0045250207 -0.010451201 -0.079210415
000180 57 51 96 3d 9d 70 5d 3c a8 e8 89 bd 90 38 f2 3c
       0.07339733 0.013515619 -0.06733829 0.029567987
000190 f2 5c 56 bd 03 5e a8 3d 64 82 b6 3c 5f 16 51 bc
       -0.052334733 0.08221056 0.022278972 -0.012761681
0001a0 51 a3 fd 3d d1 65 c5 3b 6e 2f 94 bd 35 41 d0 3d
       0.12384666 0.0060241004 -0.07235609 0.10168687
0001b0 50 d1 14 be 70 3b 8a 3d ad 16 bd 3d 61 43 5e bd
       -0.14532971 0.06749618 0.09232841 -0.054263476
0001c0 be 6c 70 bc 21 ed 33 3c 19 14 98 bd bd 3e 6e 3d
       -0.014674364 0.010981829 -0.07425708 0.0581653
0001d0 30 4f e7 bc 15 cf 55 bd 9b 85 fd 3d 69 35 fa 3c
       -0.028236002 -0.052199442 0.12378999 0.030543046
0001e0 2d 56 b3 3d 7b 07 f0 3d 03 4b 08 3e 39 27 b4 bd
       0.08756671 0.11720177 0.13309865 -0.08796544
0001f0 8b b1 83 bd bc d7 8a 3c 97 ed 51 3d f3 04 9b 3c
       -0.06430348 0.016948573 0.051251974 0.018923258
000200 f7 97 9f 3d 24 d1 0b 3d c9 76 a8 3d 90 81 9e 3d
       0.07792657 0.034135 0.082257815 0.07739556
000210 8c d2 ab 3d ec f4 32 bc 7b ad df 3b 32 6b 00 3d
       0.08389768 -0.010922652 0.0068261004 0.03135223
000220 21 00 0a 3e 8b 1c d8 3d 82 0d c9 bc c4 ec 91 3d
       0.13476612 0.10552319 -0.024542574 0.071252376
000230 d2 81 f7 3c ed 73 c4 3c 2c b7 73 3d 13 a9 f5 3d
       0.03021327 0.023981059 0.05950086 0.11995139
000240 85 e1 18 3e fb 8b 8d bc a1 ba b9 3d 04 0f 66 bd
       0.14929779 -0.017278662 0.090688 -0.056166664
000250 40 2c 95 39 cb cd e2 3d 61 a3 83 bc 7a b1 07 3e
       0.00028452463 0.11074408 -0.016069116 0.13251296
000260 56 81 10 bd fb f3 2e bd 8a 93 02 3e 58 2a 9e 3b
       -0.035279594 -0.042713147 0.12751594 0.004826825
000270 08 74 83 bd 0f f5 1a bd 8b f6 9d 3c 56 fc 9f 3d
       -0.064186156 -0.037831362 0.0192826 0.07811801
000280 99 5e 10 3e ea d9 7e bd 3e 15 e8 3d ae fe c5 bc
       0.14098586 -0.062219538 0.113321766 -0.024169292
000290 68 cc a6 3d 8f 6e 4c bd b7 a7 06 3e bd 25 9f 3d
       0.08144456 -0.049910124 0.13149916 0.0777087
0002a0 bd bb 5f bd 71 c4 09 3e 1a 50 e5 3d 29 76 13 3d
       -0.0546224 0.13453843 0.11196919 0.03600136
0002b0 b0 5c ee bd b4 1c 69 3d 77 7a 1d 3d c7 54 17 3e
       -0.116387725 0.05691214 0.03844687 0.14778434
0002c0 69 b8 a4 3d 3f 60 1c bd af 75 ce 3d 51 2c ef 3d
       0.08042986 -0.038177725 0.1008104 0.116783746
0002d0 e0 05 71 3d 75 4d f4 3c 9f a6 40 3d 17 be 17 3e
       0.058843493 0.02982209 0.047033902 0.14818607
0002e0 36 ab 08 3d a5 19 1e 3e 55 25 ce 3d 73 b3 f0 3d
       0.033366404 0.1543947 0.10065714 0.11752977
0002f0 fa 93 9e 3c 4d bb f6 3d ed 5e e5 bc 93 52 c4 3d
       0.01935767 0.120474435 -0.027999366 0.09586062
000300 f0 dc 0d 3d e1 82 62 3d 94 6b a0 bb 1e 7f d7 bc
       0.03463453 0.055300597 -0.004895637 -0.026305731
000310 83 91 ee bc ba 75 84 bc 59 09 bb bc 38 a9 00 3e
       -0.02912212 -0.016169418 -0.022831606 0.12564552
000320 20 49 55 bd 3b d5 84 bc 93 0f d7 3d fc 8b f7 bc
       -0.05207169 -0.016214957 0.105010174 -0.030218117
000330 a1 c1 8c bd a1 47 47 bd fc ff c5 3d be 93 0a bd
       -0.06872869 -0.048652295 0.09667966 -0.033832304
000340 6c f7 b1 3d ce 7a 5a 3d 7b a0 00 bd 2e d2 ac bd
       0.0868977 0.053339772 -0.031403046 -0.08438526
000350 7b 2b 07 bd 57 e6 81 bd bc 2e 86 3d 3b d7 20 3e
       -0.03300045 -0.06342762 0.065518826 0.15707104
000360 81 91 a7 3d 10 39 f2 3d b3 4c 04 3e 42 c1 d2 3c
       0.081820495 0.1182729 0.12919883 0.025726918
000370 ae 36 37 3b a2 6c 3d bd ff 8c c1 3d a6 24 16 bd
       0.0027956176 -0.04624618 0.09450721 -0.036656044
000380 84 df 62 bc b1 c2 1f bd b4 c0 8c 3d fe 82 f5 3d
       -0.013847236 -0.03900403 0.06872693 0.119878754
000390 71 0c 55 bc cf 73 ac 3d 7d 51 b0 3d a7 67 78 3d
       -0.013003455 0.08420526 0.08609293 0.060645726
0003a0 67 c0 b1 3d c8 39 cf 3d 81 e7 db 3c 1f 60 0c 3d
       0.08679276 0.10118443 0.026843788 0.034271356
0003b0 3d f6 cf 3d ed e7 9a 3d f1 5a 3f 3c 16 41 ec 3d
       0.10154388 0.075637676 0.011679397 0.11535852
0003c0 bb 05 e7 3d d3 27 77 3d 8a 93 1f bd 68 f7 ce 3d
       0.1128039 0.060340714 -0.038959064 0.10105783
0003d0 18 14 f0 3d c4 07 dc bd 62 27 ef 3d 1e 28 27 3e
       0.117225826 -0.10743669 0.116774336 0.16323897
0003e0 62 66 92 bc f4 97 8b 3d 31 a0 09 3e 94 56 5b 3c
       -0.017871086 0.06816092 0.13440014 0.013387341
0003f0 4d e3 fe 3d 6a 7f 84 3d 16 ba d2 3d 3d e8 4c 3d
       0.12445698 0.06469615 0.10289399 0.050026167

net.4.weight f4 [3, 256]
000000 aa 55 71 be 7e 1b 96 3e 53 3e 76 bd 69 55 de bd
       -0.23567834 0.2931785 -0.06011803 -0.108561344
000010 f0 10 68 3f 01 3a 1e bc 16 98 b7 bd 68 16 a1 3c
       0.90650845 -0.009657384 -0.08964555 0.019664004
000020 11 aa 26 3d 82 0f 0f be d4 97 80 bb 09 57 a3 bd
       0.04068953 -0.1397076 -0.0039243493 -0.07975585
000030 72 56 eb bd c2 a5 3f bd 9b 9b 6e bd 56 50 3a be
       -0.114910975 -0.04678894 -0.058253866 -0.18194708
000040 7d 6d 3e 3c e8 a8 09 be 2e 01 95 bd 35 1d fe 3c
       0.011622784 -0.13443339 -0.07275616 0.031019786
000050 2a 1e 34 3d 00 ba 21 be 53 ba b7 bd 13 1e 3a bd
       0.04397408 -0.1579361 -0.089710854 -0.045438837
000060 57 5c 99 bd d5 7b 92 bd ea 00 f4 bd 49 56 bf bd
       -0.074883156 -0.07152525 -0.11914237 -0.093426295
000070 63 dd 96 3e a8 92 94 3e ea 06 ad bd b1 30 45 be
       0.2946578 0.2901814 -0.084485844 -0.19256856
000080 62 a2 a7 bc 8e bb 6b bc 04 af 67 bc 0a ca fa bd
       -0.020463172 -0.014387978 -0.014140848 -0.12245567
000090 ba 8d ad be ff a2 ae 3b 5f 22 c7 3e f3 f5 67 bd
       -0.3389719 0.0053294892 0.3889341 -0.05663104
0000a0 62 cf ea bd 5c 75 fb bd ea 83 10 3f 12 00 e8 be
       -0.114653364 -0.12278244 0.56451285 -0.45312554
0000b0 0c 81 0d bd 94 27 0e 3d b6 41 aa 3e f3 f9 78 bc
       -0.034546897 0.034705713 0.33253258 -0.015196311
0000c0 e0 77 a8 bd a3 d3 98 be 13 76 21 3d fb 30 64 bd
       -0.08225989 -0.29848966 0.039419245 -0.055710774
0000d0 24 07 38 3d 65 05 a2 bd 59 f2 92 bc 92 e4 f3 3e
       0.044928685 -0.07911185 -0.017937826 0.47635323
0000e0 90 37 5a 3c 99 fc 5c 3c 6c 87 fe bd 90 00 4b 3c
       0.013318911 0.013487958 -0.124281734 0.012390271
0000f0 c8 f7 76 ba 52 b1 18 3d 36 01 bc 3e d7 f5 cd bd
       -0.00094210776 0.03727848 0.36719674 -0.10056656
000100 56 6f 47 3d c8 23 46 3c fc e2 c7 be fd e0 b5 bd
       0.048690163 0.012093492 -0.39040363 -0.08880804
000110 9d da bd bc 84 ef b1 bd e9 60 37 be 1c f4 03 3d
       -0.023175532 -0.08688262 -0.17908062 0.032215223
000120 a6 d9 d3 bd e7 d3 77 bc b4 23 26 3f d2 6b 2d bf
       -0.103442475 -0.015126205 0.6489823 -0.67742646
000130 cc 1a 2c be 6d 98 fc 3e f0 35 c1 3e e7 b8 e4 bc
       -0.16807097 0.49335042 0.37736464 -0.0279202
000140 dd 11 c3 bd 0e 56 88 3e 92 22 ba bd ae 0c 0c 3c
       -0.095248915 0.26628155 -0.09088625 0.008547945
000150 8c 4c 19 39 bd 9e fb bc b8 39 51 3d 1f 0d 9c be
       0.00014619733 -0.03071534 0.051080436 -0.3047876
000160 59 ed 92 bd 30 9e bf bd a8 b4 08 be a5 41 ef bd
       -0.07174177 -0.09356344 -0.13350165 -0.116824426
000170 34 c0 7e bd 58 ae dd 3b 87 db a9 be 2f 7b 97 be
       -0.062195018 0.006765168 -0.331753 -0.2958617
000180 76 3b 88 bd 5d 9a 8d be 27 37 19 3f 4c fb 8e bd
       -0.06651966 -0.27656832 0.5984978 -0.06981525
000190 20 60 76 bc 3e 6b 56 3e c1 ac 55 3d 90 cb 16 3f
       -0.015037566 0.20939347 0.052166704 0.5890436
0001a0 aa 1d 89 be da 26 00 bd e5 19 1f 3f 3f 05 95 bd
       -0.26780444 -0.03128705 0.62148887 -0.07276391
0001b0 5d fd 91 bd 8d ef ef bd ba 80 e5 bd 29 8d eb be
       -0.07128403 -0.117156126 -0.11206193 -0.46006134
0001c0 6a 64 23 3d d4 5a ce be db 36 35 3f b2 e6 1f 3f
       0.039890684 -0.4030367 0.7078683 0.6246139
0001d0 60 e8 13 3b c4 32 c4 bb 99 49 15 be 9f b0 e9 bd
       0.0022568926 -0.005987497 -0.14578857 -0.11410641
0001e0 96 e5 01 be 28 27 1b be ab c3 2a be 84 ff aa be
       -0.12685236 -0.15151656 -0.16676204 -0.33398068
0001f0 b4 ea 0a bc 3f 3b 2e 3d bd b0 b5 bd e5 f7 34 3d
       -0.008478809 0.04253697 -0.08871601 0.044181723
000200 b0 d3 01 3f b8 2c 1b 3c 7a 36 ec bd f3 f2 19 be
       0.50713634 0.009471111 -0.11533828 -0.15034084
000210 7f 16 00 be c4 8d f6 bc f9 b9 03 3d 6c 6f 69 bb
       -0.12508582 -0.030096896 0.03215978 -0.003561939
000220 52 0f bd bd 27 2e f8 bd 23 0f b2 3a bc 68 07 3f
       -0.09231438 -0.12118178 0.0013584833 0.52894187
000230 68 f8 91 3e dc ee f0 bd f1 96 97 3f ca a7 40 bd
       0.2850983 -0.11764309 1.1842939 -0.047035016
000240 3a 0b 8b bd 00 50 17 3c bb 66 35 3f b6 0e 44 bc
       -0.06789251 0.009235382 0.7085988 -0.011966398
000250 e8 d8 83 3f 7b 81 c2 bd 2a 62 6f 3c 28 58 fe bd
       1.030057 -0.09497353 0.0146108065 -0.12419158
000260 dc 9b cd 3c ed 9c 4e 3c 2d 8e b9 bd 05 e8 a2 ba
       0.025098734 0.012610656 -0.09060321 -0.0012428766
000270 c8 7e b9 bc 32 51 e1 3e 15 61 18 bd f4 fc f3 bd
       -0.022643462 0.4400726 -0.03720196 -0.11913481
000280 d2 bc 95 bd 0d 05 b4 bc 9d cb d6 bd 3f ef 4d 3d
       -0.07311405 -0.021975065 -0.10488055 0.05027699
000290 ce 6b 16 be 45 29 1e bd 8b ba 96 bd eb d9 c9 bd
       -0.14689562 -0.038613576 -0.07359799 -0.09856018
0002a0 e5 20 c4 3b 9d d9 33 bd cb 96 11 be dc 7e e0 bc
       0.0059853666 -0.043908704 -0.14217679 -0.027404241
0002b0 ae f8 ca 3e d6 cd 81 bd 99 02 37 3d 95 79 f7 bd
       0.39642853 -0.06338088 0.04468021 -0.12083737
0002c0 04 e5 e1 bd 29 52 cf bc c2 92 1f be fb 43 c2 bd
       -0.110300094 -0.025307732 -0.15583327 -0.094856225
0002d0 15 79 bf 3e bd 71 5f bd 3d 77 14 bd ec 76 db bd
       0.37397066 -0.05455183 -0.036246527 -0.10716042
0002e0 9a 56 5d 3e e0 23 35 be ab 84 e1 bd 02 79 80 bd
       0.21615067 -0.17689466 -0.110116325 -0.062730804
0002f0 5b 90 1b 3d bd 29 ec 3e d8 cc 51 3f 70 e3 f7 bd
       0.037979465 0.46125594 0.8195319 -0.12103927
000300 31 8e 29 bc 85 03 ce bd f3 5f ec 3e 4b 79 9b 3e
       -0.0103488425 -0.10059265 0.46166953 0.30365977
000310 cb 8f ea 3c 6f 73 71 ba 4b b0 b2 bc 30 4e 21 be
       0.028633019 -0.00092106214 -0.021812579 -0.15752482
000320 03 96 3c bc 9e 87 8f 3e 10 8b c2 bd b9 45 a3 3e
       -0.011510375 0.28033155 -0.0949918 0.31889132
000330 a0 df 5a 3f d4 77 1d 3c 27 b8 57 bd e4 c6 53 3d
       0.85497475 0.009611089 -0.052665856 0.05170335
000340 98 17 92 bd 53 ca 30 bd 41 40 33 3d c9 f9 a2 3e
       -0.071334064 -0.0431617 0.04376245 0.31831196
000350 c0 b2 8d bc 7b 16 6e 3c ca da 0e be c1 d0 f7 bd
       -0.017297149 0.014531727 -0.13950649 -0.121003635
000360 98 28 d8 bd f9 ac 83 bd 26 f9 7c be 19 78 a1 bc
       -0.10554618 -0.06429476 -0.24704418 -0.019710587
000370 72 80 cf 3e 02 e1 f5 3c e6 65 24 be 4e 68 40 bb
       0.40527683 0.030014519 -0.16054496 -0.0029359045
000380 23 e8 23 be af 81 57 be b2 3c b9 bd 66 bb e3 bd
       -0.16006522 -0.21045564 -0.0904478 -0.11119728
000390 ac 2b 24 3d fe 2f c7 bd 97 c9 93 bd 71 27 92 bd
       0.04008071 -0.09725951 -0.072161846 -0.07136429
0003a0 15 ae e3 bd 73 d9 b6 bd 0c 0e 56 bd 5c f1 dc bd
       -0.11117188 -0.08928194 -0.05225949 -0.10788223
0003b0 04 78 da bd e4 5f bf bd ef eb 4d 3d 0a 4e 49 be
       -0.106674224 -0.093444616 0.050273832 -0.19658676
0003c0 c8 90 ef bd 04 db 2b b9 7d 8d cf bb 81 81 58 bd
       -0.11697537 -0.0001638942 -0.0063340054 -0.05285788
0003d0 87 95 e8 bd 09 23 2d bf 54 ec b6 bd 77 f9 cd bd
       -0.11356645 -0.67631584 -0.08931795 -0.10057347
0003e0 2b c0 aa 3e 17 53 f8 bd 39 b9 d8 bd 7c 45 83 3e
       0.33349738 -0.12125223 -0.105822034 0.2563895
0003f0 af 35 83 bd 27 1c aa bd 05 11 36 be 80 58 d2 3e
       -0.06406724 -0.08306151 -0.1777993 0.41083145

net.4.bias f4 [3]
000000 fb fd 8b bd a1 db d7 bd ea 24 88 bd
       -0.06835552 -0.10539938 -0.06647666
