wandb/run-20251114_054745-fd3c6v1m/files/models/DQNAgent/Pendulum-v1.pth (torch, 275525 bytes, 6 tensors)

net.0.weight f4 [256, 3]
00000000: ec61 403e 5ace b33e 6bfd a3be 11e4 493f
00000010: a56f efbe 0233 8d3e f010 84be 564c a53f
00000020: 9106 8a3e bba0 11bf b3cf 3b3f 0053 9b3b
00000030: 964d 533f 748d 243f 38af a93e 2d22 213c
00000040: 7095 6a3f c51f 0a3e fa13 34bf d7d4 76bf
00000050: 6375 9ebe 2213 0ebf bb73 803f 7bca 853e
00000060: 57bd 11bf 27f2 6cbf c621 7cbd e0d1 43bf
00000070: 9274 8dbf 583b 7cbe fff8 fd3e 3ffb c3bf
00000080: e1fe 013f 3e0a 97bd a745 1a3f 8fe5 813e
00000090: 834b d13c c0cc 373f a41e ab3d 6fe4 d6be
000000a0: 7965 69bf 5273 65be ff4d 0a3e 2866 8f3f
000000b0: 9077 1d3e 9a83 86be 0edf 1a3f 02e6 193e
000000c0: f889 6a3f 7d4a 11bf d22a c0be 2dad 06bf
000000d0: cc7b b7bc 5438 c13e 7a34 ce3d dafa 1f3f
000000e0: 2cc2 d23d 46f9 b0be 89b4 16be ae2d d8be
000000f0: 82c2 71be e21d 8fbd f29e 623e 373e 8bbe
00000100: 9e99 df3d 6bba cabd 0986 a33f f7a7 7cbf
00000110: ed33 f3be ed96 0ebf d026 393f 2e8c 493e
00000120: d3a2 a03f 24e1 cfbf 4a28 f2be 66a0 42bf
00000130: 98ef 903f d732 9a3e 99e7 983e 2e75 413f
00000140: b60f 74be 2d31 0bbf ad3f 95bf 3b17 a1be
00000150: 8708 4c3e 999d 82be cf57 c83e 69b4 02bf
00000160: 03b4 e1be a0af 233e e006 6fbe ca40 3a3e
00000170: 1001 a23e 2836 793e 16d7 48bf 26fe f8bd
00000180: 5e18 533f e06c 6bbf 8c09 a7be d0e5 20bf
00000190: f0e2 f6be fb6e 1e3e 874a 13bd eeaf 9ebe
000001a0: cea0 6bbc 02c4 3dbf e8b2 2ebf 92c7 69be
000001b0: 95ae 8bbe 93af 423f 44cc b13e f659 3bbe
000001c0: fb53 f13b 3dfd d4be c6db 06bf 823f ebbe
000001d0: 23eb a33d 68e3 3dbf c571 1fbf 764c 61be
000001e0: c3fd 7ebc 361f a3be 4e55 8bbc 0250 c4be
000001f0: 7f90 b9bf 7847 b6be 45a1 50be f852 273f
00000200: f835 c43e 4dff 1abe 91b3 6c3f ce6a 163e
00000210: 48a7 00bf 060d 223f a569 b4bd 0e79 8ebe
00000220: de8d 8cbf bd89 95be 726f 3f3e 12d8 97bd
00000230: ed0e 693e f603 8ebf ddf4 f2be 29fd 94be
00000240: 2671 8dbe 5d1a 1a3f 35f8 293e 2664 c03e
00000250: 980e 3f3f 3e11 babe f63d ce3e 8fbd e5be
00000260: 0ea7 ea3d 2a9d e6be a4da 863e a22c a4be
00000270: 8b01 bf3e 8393 1b3f 1d84 913d 638c dcbe
00000280: c3ca 1d3f e8c7 b73d 64c8 afbe 1eb0 29bf
00000290: 180a 843e fac1 81be 63a5 5c3e d750 cd3e
000002a0: e0fd c23e 1090 88bf c7f1 49be 60bb 2dbf
000002b0: dc68 51bf 3a2f 8cbe 6691 3fbf 0d31 23bf
000002c0: cf27 54be 25bd f6bc 43cc 2a3f 9175 edbe
000002d0: 5d28 ce3d c801 2f3f 9224 973d b15f 6ebe
000002e0: a7a1 c83f 5b6a 733e b578 2d3e 97d4 a8be
000002f0: cfad a7bc 1a28 fa3d 0354 2cbf c774 21be
00000300: 0a1c 24bd 52c6 9ebc f147 48be 5984 a8bd
00000310: 1f77 983c aae8 eebb ba4d 81be 9196 e6be
00000320: 2266 e5be ad54 b0be a2c5 6d3f 7a87 3c3e
00000330: f7ee ff3e cee7 88bf 98cc a5be 58b7 24bf
00000340: 990f 14bf 093c ef3d df65 6e3e 0c49 453e
00000350: 3836 ecbe 61d5 9dbe 986f 6f3f 4cfa dd3e
00000360: badb 353d 684a 40be 4ff5 843e 288c 25bf
00000370: 2baf 933e 6922 853e 08f6 cdbe 3eb5 9ebf
00000380: cc92 c5be 7cb6 723f 870f 203f f86f 953e
00000390: 0d52 e5be 8c40 c8bf 3e7e 88be 57dd 223f
000003a0: c986 a33e 40ca bd3e 7a82 6b3e 2d31 043f
000003b0: dbf9 f7bd 0af9 1fbf 1643 bcbf f43e c9be
000003c0: b071 e23c ec31 37bf b933 3f3d 2efe 25bf
000003d0: 339f 02bf 86e6 69be 29dd c9be 1597 edbd
000003e0: 01c1 11be 36fb 833f 97c8 1abf 7da7 c7be
000003f0: e635 ae3e 1a0e 75bf 2ac0 53be fe53 2bbf
0.18787354 0.3511837 -0.3202928 0.78863627 -0.46764866 0.27577978 -0.25794172 1.2913921
0.26958135 -0.5688588 0.733638 0.004740119 0.8254026 0.6427834 0.33141494 0.009834808
0.91634274 0.13488682 -0.7034298 -0.9641852 -0.30948934 -0.55497944 1.0035318 0.26131043
-0.56929535 -0.92556995 -0.061555646 -0.7649212 -1.10512 -0.24632013 0.4960403 -1.5311049
0.5077954 -0.073750004 0.6026253 0.25370452 0.025548702 0.717968 0.083554536 -0.41971156
-0.9117046 -0.22407272 0.13506316 1.1203051 0.1537764 -0.2627228 0.60496604 0.15029147
0.91616774 -0.56754285 -0.3753267 -0.52607995 -0.022397898 0.37738287 0.10068603 0.62492144
0.102909416 -0.3456518 -0.14717306 -0.4222235 -0.23609355 -0.069881216 0.22130945 -0.27195904
0.10917972 -0.09898838 1.2775279 -0.98693794 -0.47500554 -0.55699044 0.7232485 0.1968238
1.254969 -1.6240582 -0.47296363 -0.76026 1.1323118 0.30116913 0.29864195 0.75569427
-0.23834118 -0.5437191 -1.1660057 -0.31463036 0.19925128 -0.25510862 0.39129493 -0.51056534
-0.4408265 0.15984964 -0.23342466 0.18188778 0.31641436 0.24337065 -0.78453195 -0.1215785
0.82459056 -0.91963005 -0.3262447 -0.62850666 -0.48220015 0.15472023 -0.035959747 -0.309936
-0.014381601 -0.7412721 -0.6824174 -0.22830036 -0.27281633 0.76049155 0.34726155 -0.18296036
0.0073647476 -0.41599455 -0.526791 -0.4594689 0.08003833 -0.7417512 -0.62282974 -0.22001824
-0.015563431 -0.3185975 -0.01700845 -0.3834229 -1.4497222 -0.356014 -0.2037402 0.65360975
0.38322425 -0.15136452 0.92461497 0.1468918 -0.5025525 0.6330112 -0.088092126 -0.27826732
-1.0980794 -0.29206648 0.18694857 -0.07414259 0.227596 -1.1094959 -0.4745244 -0.29099396
-0.27625388 0.6019648 0.1659859 0.37576407 0.74631643 -0.3634128 0.40281647 -0.44871184
0.114576444 -0.45041782 0.26338685 -0.32065302 0.37305865 0.6077196 0.07105277 -0.43075857
0.61637515 0.08973676 -0.34332573 -0.6628436 0.2578895 -0.25343305 0.21547465 0.40100738
0.38084316 -1.0668964 -0.19721137 -0.67864037 -0.8180063 -0.2737978 -0.74831235 -0.6374672
-0.20718311 -0.030119488 0.6671793 -0.4637876 0.100662924 0.6836209 0.07380022 -0.23278691
1.5674332 0.2377104 0.16940577 -0.32974693 -0.02046862 0.1221468 -0.6731569 -0.15767203
-0.040065803 -0.019381676 -0.19558693 -0.08228368 0.018611489 -0.0072909193 -0.25254613 -0.45036748
-0.44804484 -0.34439602 0.9287969 0.18411055 0.49987003 -1.0695741 -0.32382655 -0.6434226
-0.578363 0.11681373 0.23281048 0.19266146 -0.46135116 -0.30826858 0.93529654 0.43355024
0.044399 -0.18778384 0.25968406 -0.64666986 0.2884458 0.26002815 -0.4022677 -1.2399061
-0.3858856 0.948097 0.6252369 0.29186988 -0.44789162 -1.5644698 -0.26658815 0.6361899
0.3193877 0.37068367 0.22998992 0.51637536 -0.12108203 -0.6248938 -1.4707973 -0.39305842
0.027642101 -0.7156055 0.046680186 -0.6484097 -0.5102417 -0.22841844 -0.39426544 -0.11601082
-0.14233781 1.0311038 -0.60462326 -0.3899497 0.34025496 -0.9572464 -0.20678774 -0.66925037

net.0.bias f4 [256]
00000000: 211d f8be f0b5 433f 408e b13e 6441 cd3e
00000010: 7a88 c7be c5a2 7fbc 5588 b83d 0705 23bd
00000020: 3530 41be aba7 853d eb67 8a3e 0854 6bbe
00000030: 9cf0 143e a6e3 33be e7bc 0d3e 01e7 8b3e
00000040: ccbc 2cbf 74b8 30bf 2f76 a53e 3eb9 08be
00000050: cedc a0be 6f8f 263f 211e 22bf 733b a83e
00000060: 6e8b a3bc d5d0 a0bd 4a4e 233f cee3 f1bd
00000070: 321b 19bf 8aae 783e 88ea c8be 1dbb 453f
00000080: cb51 62be 5ff7 b33e bfef dfbe eb0b 013f
00000090: e288 dc3c 3174 12bf 3a5c 833e 43e7 073f
000000a0: 256d 1b3f 8ed7 b6bd 63e5 9fbe 4734 d53d
000000b0: 5cb5 c83e a0aa f73e af9f 073f 1bd3 d93d
000000c0: 491e d53e e3a5 0a3f 1f3a 76be 8dcc 103f
000000d0: 443c f23e 7c14 f43e 56ed 33be e64a c5be
000000e0: c9b3 14be 3928 dc3d f259 033f 29f3 00bf
000000f0: f709 853e 7cc6 31be f59b 0d3f 3daf 723d
00000100: 04a9 48bf 289b 8cbe 6efe 90be 997d 513e
00000110: cc0d 60be 5d4f 9e3e 979e 1b3e 7879 d6be
00000120: fd2f 843e 14b8 36bf b6b5 6ebe bb8f 3dbf
00000130: ebc0 933c 4f18 acbe 1dfc 1e3e 240d 153e
00000140: 1636 b13e 294e 203f c39e f43e 0e44 2cbf
00000150: 5269 9dbe 0dba b83e 118a 52bf 337a fb3e
00000160: 6ae7 f83e 1ec6 743e 31d6 483f 640f fc3e
00000170: 1b24 8c3e c11e 90bd c018 183f 44b6 09be
00000180: e4b6 97be 1a42 2a3f e6cf 263f dfe2 b63e
00000190: 44e1 e33d 90f9 febe cbed b03c 7983 003f
000001a0: fcd2 f03d 8bc9 8fbd 730c 1bbe 8f25 91bd
000001b0: 90d0 fe3e 4fbf 523e 3bb9 d23e abdf 243e
000001c0: 4686 bf3e 2a89 a93e 530e bd3e 9541 fb3e
000001d0: a001 ee3e 1571 1f3f 8e43 243f 7012 4ebe
000001e0: 4d4a 9abe 4c19 533e 1b0c 1ebd 1a5e 833c
000001f0: cbd9 75bd ef3c 9e3c 1191 3f3f 323a 863d
00000200: bdd0 9dbe a503 50be ae5c 5bbe f778 80bf
00000210: 844a 1b3f 03ee ba3e 8657 243f 70f9 693e
00000220: 5973 ac3e 9d16 7f3d 2a54 3bbf 7bbb 6bbc
00000230: 852f 43bd 4bf4 c2be f2f2 dabd 8507 223f
00000240: 16e9 153f 7239 693e d393 113f 2a5f dabe
00000250: 8580 e7be cef4 c63e 66a4 0bbd 1fd3 aebc
00000260: 69ae 9dbe 4ffd a03e 1254 35bf c115 563e
00000270: f7a5 1a3f 66c8 23bc e369 1dbd af8e 003f
00000280: a323 22bf 3056 aabd d276 3e3f cecd 5abe
00000290: 3918 a9be 99f7 7ebe a8d2 5a3e 1a87 92be
000002a0: a3cf 35bf e2e7 db3e d792 2c3e ff66 e0bd
000002b0: fbe4 31bf 7099 4bbe 3fbb f4be 3517 5e3b
000002c0: fb00 8bbf 3ba7 1f3e 06e7 81bf fefc 05bf
000002d0: 89b1 acbe 48ee 0a3e 4dc2 12bf e756 5fbe
000002e0: 5be7 173f dc06 b93e f6cf a93e a22a 80bf
000002f0: 5040 97be c18a 59be 61ba 1c3f 612c 2d3e
00000300: 7a93 a7be e5a8 213e ecb0 9ebe f86b 1cbe
00000310: 93fb 82be bcbd 9d3e 824a a73e 5010 563e
00000320: 70ef 2a3e 841e 45be 2042 9d3e c0da be3e
00000330: 098f 1b3e 7972 39be 2be3 043f 1c30 1abd
00000340: 45e7 f1bc 9fd9 073f 0735 1f3f 63c1 433f
00000350: 52ec 023f e181 99be 2b2f 863e 27dd 1d3f
00000360: 9eae f1be 3f79 ad3e 5079 dbbe 6977 2b3e
00000370: 6123 043f 3b66 7c3e 6e57 87bd 9ce6 dd3e
00000380: 17ab f2be a5a2 ffbe d53e 0d3f bdb2 d3be
00000390: 78d6 6fbe 3624 323e a43e 82bb 5f1c 5fbf
000003a0: 8825 d23e a62c 09bf 9161 acbd a915 8f3e
000003b0: 886d 7ebe 2ad4 1ebe a9be 90bd d55c 24be
000003c0: 1ec4 09bd 3b72 8fbe 5c72 8dbd 6604 13bf
000003d0: f344 38be e2a3 0ebe 76ec 98bc 568c c53e
000003e0: 31b9 5ebe b08a 823e 58b7 373f ad4a d13e
000003f0: 8b1c 15bf 3083 f2be 8f58 afbe 2281 19bf
-0.48459724 0.7644949 0.3467884 0.40088952 -0.3897131 -0.015602772 0.09010378 -0.039799716
-0.18866046 0.06526121 0.27032408 -0.22981274 0.1454491 -0.1756731 0.13841592 0.2732468
-0.6747558 -0.69031453 0.3231673 -0.13351914 -0.3141846 0.6506261 -0.63327223 0.32857856
-0.019963946 -0.078523315 0.63791335 -0.118110284 -0.5980712 0.24285331 -0.39241433 0.7723864
-0.22101514 0.35149667 -0.437376 0.5040881 0.02692074 -0.57208544 0.256563 0.5308725
0.60713416 -0.089278325 -0.31229696 0.10410362 0.39200866 0.48372364 0.5297803 0.10635968
0.41624668 0.54159373 -0.24045609 0.5656212 0.47311604 0.47671878 -0.17571005 -0.38533705
-0.14521708 0.10749859 0.5130912 -0.5037103 0.25984165 -0.17360872 0.55316097 0.05924915
-0.783829 -0.27462125 -0.28319114 0.20458068 -0.21880263 0.30919924 0.15197216 -0.41889548
0.25817862 -0.7137463 -0.23311505 -0.7404744 0.018036326 -0.33612296 0.15525861 0.14555794
0.34611577 0.6261926 0.47777376 -0.67291343 -0.30744416 0.36079445 -0.8224192 0.49116668
0.48614055 0.239037 0.7845183 0.49230492 0.27371296 -0.07037116 0.59412766 -0.13448435
-0.29631722 0.6650711 0.6516098 0.35719964 0.111269504 -0.49799776 0.021597764 0.5020061
0.11758992 -0.07020863 -0.15141468 -0.07087242 0.49768496 0.20580791 0.41156945 0.16100948
0.3740713 0.3311246 0.3692499 0.49073473 0.46485615 0.62281924 0.6416558 -0.20124221
-0.30134812 0.20615119 -0.038585763 0.016036082 -0.060022157 0.019316165 0.7483073 0.065540686
-0.30823317 -0.2031389 -0.21422073 -1.0036916 0.60660577 0.36509714 0.6419605 0.22849059
0.33681753 0.062277425 -0.731753 -0.014387961 -0.04765274 -0.38077006 -0.106908694 0.63292724
0.58558786 0.2277582 0.56866187 -0.4265073 -0.4521524 0.38858646 -0.03409233 -0.021340905
-0.30797127 0.3144326 -0.70831406 0.20906736 0.6040949 -0.009996509 -0.03843106 0.5021772
-0.6333563 -0.0831722 0.74400055 -0.21367571 -0.33026293 -0.24899139 0.21369421 -0.286187
-0.71019953 0.4295035 0.1685289 -0.10957145 -0.6949002 -0.1988275 -0.47799107 0.0033888344
-1.0859674 0.15591137 -1.0148628 -0.5233916 -0.337292 0.1356746 -0.5732773 -0.21810494
0.59337395 0.36138046 0.33166474 -1.001301 -0.29541254 -0.21244337 0.6122189 0.1691146
-0.32729703 0.15787084 -0.30994356 -0.15275562 -0.2558256 0.30808818 0.32674032 0.2090466
0.166929 -0.19249922 0.30714512 0.37276268 0.15191282 -0.18110074 0.5190913 -0.037643537
-0.029529223 0.5306644 0.6219029 0.7646696 0.51141846 -0.29981902 0.2620786 0.61665577
-0.47203535 0.33881566 -0.42865992 0.1674477 0.51616484 0.24648373 -0.06608473 0.43340003
-0.47396156 -0.49928775 0.55174 -0.41347304 -0.23421657 0.17396626 -0.0039747525 -0.87152666
0.4104426 -0.53583753 -0.08417047 0.27946213 -0.2484647 -0.15510622 -0.070676155 -0.16051038
-0.033634298 -0.28016838 -0.06906578 -0.57428586 -0.17995052 -0.13929704 -0.01866744 0.3858363
-0.21750332 0.25496435 0.71764135 0.40877286 -0.5824668 -0.47365713 -0.34247252 -0.59962666

net.2.weight f4 [256, 256]
00000000: 369f 09be 8f1a 6f3d 9e51 b13c f1aa fc3d
00000010: b798 11be 5b9f 933c b9bd b9bd d4e0 21be
00000020: 4937 c8bd ae60 cdbd e91f 233d 4470 38bc
00000030: 52dd ed3d 8650 a2be 1a50 943d bb65 813d
00000040: 75ba 37bd 42e3 b9bd c88c e23c e11e 713c
00000050: 6cb4 ebbd 55b1 ea3d 8f93 ecbd e2d0 c53d
00000060: 2821 3ebd 4de6 94be f7b1 d73d dd79 93be
00000070: 3337 a0bb f83d bd3c 8369 2dbd b6eb c03d
00000080: 7f09 f7bd 2377 b43d a157 863b 0050 d43d
00000090: 610a 77bd fc61 e0bc bed9 2d3e 3f7d 433e
000000a0: 9ad7 b43d 9b0d 033e 8841 d1bd 352e fb3d
000000b0: 8378 293e e539 e53d ddbe 713d e7ca 1d3b
000000c0: 1b93 3b3d 5353 463d f189 d43e f504 933d
000000d0: 9836 993d 8957 853d 5a53 e7bd 2bf9 abbd
000000e0: 6b75 cb3d 17ff bdbd f5e5 bd3d 50b9 9dbd
000000f0: 5382 5a3d 2826 9b3c ebd2 4c3e ee26 b43d
00000100: 965d e3be 5080 d1bc e8f4 16bd 2e2e dc3d
00000110: 04a0 c13d 5ea5 e23d 7a08 513d b594 0ebe
00000120: 6573 32bc 1729 07be d7de fdbd 10a5 853f
00000130: 6789 7d3d a468 123d fc2f 57be 80e1 da3d
00000140: fcfb aa3d d9a9 143e d123 083e d0c7 5cbd
00000150: 80d0 433e 97c5 343d 6bf6 debd f2a6 a1bb
00000160: 4dad cabd 74f7 963d 7992 353c ea61 04bd
00000170: b1eb 653c e0fc 39be 3038 133e e370 eebc
00000180: 6968 873e b6a7 873d cd41 353d 0bbf ad3d
00000190: 68cd dc3d 3f44 38be 9a1a 3ebd 85bf d63d
000001a0: c58f e8bb ea04 82bd 881c a9bd 2232 693d
000001b0: fdd4 e93d d6d8 893d 4867 a53d 2519 a2bd
000001c0: db9f 2b3d 33b8 2f3e afb0 3e3d 07ea 963c
000001d0: 76eb b63d 88ec 2d3d 1049 9d3d 7b75 b0bd
000001e0: 0e0a 333b 5565 783d e341 4cbd cdff a9bb
000001f0: 4669 e3bd fe81 ff39 ce8d 20bd bf21 b23c
00000200: 6730 dabc 7fae 8fbd 3941 1bbe b63f 01be
00000210: e60c 0c3e 2a6e 2b3d 9828 a03d e270 2f3e
00000220: ce26 073e ab9c da3d c3d2 593f d418 9a3d
00000230: 453b 2dbd 1ab0 e43e 33dd af3d 7c30 143e
00000240: 4f62 563c 52e7 91bd 3b33 ed3d d204 5abc
00000250: e7ae e2bd 2845 9b3c 0273 db3d 5cb0 dc3d
00000260: 8b1c 82bc 7b80 b23d 15cd 95be 51ea f23d
00000270: d73a 64bc da72 f1bd 736c 36be c9c5 2d3d
00000280: 6522 d0bd 1770 9f3d 2c9a b23c 7fdd 77be
00000290: 59e8 fe3b a837 71bd bd05 bc3d 442b babd
000002a0: eecf 33bd 36f3 cd3d 04b9 f5bc f776 2d3c
000002b0: 4418 32bd 64d8 32be 7dd3 65bd dd07 18bd
000002c0: 6026 cb3f 901f c2bc 40aa 90bd 4f37 b1bc
000002d0: d4f8 c43e 905e 86bd 5770 bebd 1d65 76be
000002e0: cc5e 313e e341 e13d e0f7 bc3d 4886 0fbe
000002f0: 65fd 3a3d 02aa ca3d 4ca6 d83d 4259 1b3d
00000300: 4e7b 58be abe7 833c fbb7 873e 8871 84be
00000310: 38ec 2b3e d776 96bd 80e1 153e 82f6 be3d
00000320: a834 263d b496 0fbe acd2 5d3d 7d15 833d
00000330: dd2d 9f3d 6474 d9bd d0f3 3b3e 67da f03d
00000340: d5d8 2a3e 33b7 2c3b 3b40 ef3d 760b 163e
00000350: fcad b43d 7f0a 16bd 9fbb b73c c946 343e
00000360: e41a 33be 8467 1d3e 28cf 92be e3e2 0ebc
00000370: 0ac3 6a3d 8995 e63e d621 a8bd c7a3 663d
00000380: 06b9 d83c 792d 3f3f aec9 1f3d d641 28be
00000390: 56de f8bc f5d4 003e 5d8e f53d ac9a 37be
000003a0: 9a2e f63b d712 c83d 4cb6 6ebd 8e7c fb3b
000003b0: 5c81 cb3e e707 15b9 85be c73e 12c9 b43c
000003c0: c3b7 9a3d aa6a 36be 266a a2bd a111 cfbd
000003d0: 4edb 8bbe 16ec 09be 9b53 a23d 290f 133c
000003e0: c23d 46be 31ab 1b3d 3146 8f3c e32e 983d
000003f0: f91e 12be 6ff5 03bf 3b5a 27bb c719 12bc
-0.1343964 0.058374938 0.021645363 0.12337292 -0.14218412 0.018020323 -0.0906939 -0.15808421
-0.0977617 -0.10028206 0.039825354 -0.011257235 0.11614479 -0.3170206 0.07241841 0.06318232
-0.044855554 -0.09076549 0.02765502 0.014716835 -0.11509022 0.11459605 -0.11551582 0.09658982
-0.04641834 -0.29081956 0.10531991 -0.28803912 -0.0048893928 0.023100838 -0.042336952 0.09419958
-0.12062358 0.08811786 0.0040998016 0.10366821 -0.060312632 -0.027390473 0.16977593 0.19090746
0.08830185 0.12798159 -0.10217577 0.12264673 0.16549878 0.11192683 0.059019912 0.0024077238
0.045794588 0.048419308 0.4151149 0.0717868 0.07481116 0.06510837 -0.11295195 -0.083971344
0.09934505 -0.0927717 0.092723764 -0.07701361 0.053346943 0.018939093 0.20002334 0.08796488
-0.44407338 -0.02557388 -0.036854655 0.107509956 0.09454349 0.110666975 0.051033475 -0.13923915
-0.01089177 -0.13199268 -0.12396019 1.0440998 0.061898615 0.035744324 -0.21014398 0.10687542
0.083488435 0.14517917 0.13294913 -0.053901494 0.19122505 0.04413375 -0.10886844 -0.0049332315
-0.09896336 0.07371417 0.011082285 -0.03231994 0.014033244 -0.1816287 0.14376903 -0.029106563
0.26446846 0.06623785 0.044252206 0.08483704 0.10781366 -0.17994784 -0.046412088 0.10485748
-0.007097217 -0.063485935 -0.08257395 0.056932576 0.114175774 0.06730811 0.0807634 -0.07914952
0.041900497 0.1716011 0.046555217 0.01842214 0.08931629 0.042461902 0.07679951 -0.086161576
0.0027319225 0.060643513 -0.049867522 -0.0051879645 -0.11104064 0.00048734242 -0.039197735 0.021744607
-0.026634408 -0.07015704 -0.15161599 -0.1262196 0.13676795 0.041853108 0.07820243 0.17132905
0.13198397 0.10674413 0.8508722 0.07524267 -0.042292852 0.44665605 0.08587112 0.1447162
0.013084962 -0.07124199 0.11582037 -0.013306813 -0.11068516 0.018953875 0.107152954 0.107758254
-0.015882751 0.08715912 -0.29258028 0.118610986 -0.013930044 -0.11789484 -0.17814808 0.04242495
-0.1016281 0.07785051 0.02180203 -0.24205588 0.007779163 -0.05889097 0.09180782 -0.090902835
-0.04389947 0.100561544 -0.029995449 0.010587445 -0.043480173 -0.17465359 -0.056109894 -0.037116874
1.5871086 -0.02369669 -0.070637226 -0.021632819 0.3847109 -0.06561005 -0.09298771 -0.24062009
0.17321318 0.10998895 0.09226966 -0.14016068 0.045651812 0.09895708 0.105785936 0.03792692
-0.21140787 0.016101679 0.26507553 -0.25867867 0.16789329 -0.07346886 0.14636803 0.093243614
0.04057756 -0.14022332 0.05415599 0.06400583 0.077724196 -0.10617903 0.18354726 0.11760407
0.16684277 0.0026354312 0.11682173 0.1465281 0.088222474 -0.036631104 0.022428332 0.17605127
-0.17490727 0.1537152 -0.28673673 -0.008721086 0.05731491 0.4503596 -0.08209579 0.056308534
0.026455414 0.7467876 0.039010696 -0.16431364 -0.030379456 0.12581237 0.11990044 -0.17930096
0.0075128796 0.097692184 -0.05827932 0.00767476 0.3974713 -0.00014212691 0.39012542 0.022068534
0.07554581 -0.17814127 -0.079304025 -0.10110784 -0.27315754 -0.13468966 0.07926103 0.008975782
-0.19359496 0.038005058 0.017489525 0.07430818 -0.14269628 -0.51546377 -0.002553596 -0.008917279

net.2.bias f4 [256]
00000000: b696 3e3e 6ad6 2ebd 41c0 003e 673e 073e
00000010: 632e ed3d 0b01 533e 053d d73d 7b97 44bc
00000020: 1726 853c d2eb 2dbd 453c 24bd 3be3 153d
00000030: eb38 f53d b60b ec3c f821 133c c89e f53d
00000040: afa9 053e ae33 243e e049 9c3d d635 073e
00000050: 4029 e2bd 80ba b83d 2cd2 403e 8d01 083e
00000060: 8649 b8bc 2c11 0b3e 83ad e9bc 30b9 d43d
00000070: 77aa 923c 2103 3e3e 4907 0f3e 8bdc ce3d
00000080: a73f d7bc 9a6f 1b3e 24b2 943c 12f0 85bd
00000090: f7d6 09bc 5185 073d ef07 1fbc 6322 f33d
000000a0: 5a3c 4f3e 9425 063e 5434 2ebd 13f3 fdbb
000000b0: c08c e03d 3622 9b3c 3d5c 293e 1412 193d
000000c0: 4e36 d03d 131b e53d e6d1 3f3e faf7 28bd
000000d0: b627 33bd 5204 3c3e 8976 9a3d f5ad d33c
000000e0: 8021 453b eda1 853c 23de 103e 5e1b 2e3e
000000f0: bc9c 3ebd 5759 653d 4ce7 28bd e43a eb3b
00000100: 9fa8 93bb e82e 8dbd 1f9f c93d 9587 d23c
00000110: fb27 f23d 9db9 42ba 1e20 04bc f027 1d3e
00000120: 6464 d03d e830 293e e7e5 16bd 42cd f93d
00000130: d23f 1d3e 1c6a 133d 6ebe b53e 0474 323e
00000140: c6f3 b23d fc35 8fbc 9c70 de3d 56fc 853d
00000150: 1e4d dfbc 6d48 563e a0a3 0cbc 0003 e7bd
00000160: 4898 9cbc a4f7 6a3d 129a 9a3d d5fa 963d
00000170: aa83 88bc 53d2 b83c 561c 40bd f2a8 083e
00000180: 8ec8 de3d 8878 2f3d fd2a f43d 6243 cb3a
00000190: 2df4 42bc 814a 903d 499f 58bd d1e5 23bd
000001a0: 9922 23bd 05c1 183d 467b 99bc e5b3 04bd
000001b0: b4c2 a23a f85f a23d ad73 1b3e c70b 503c
000001c0: 3f10 e53c b124 0d3e e379 7abc bffd bdbc
000001d0: 4b01 0a3e 1789 2a3e 6073 053e 3735 9a3d
000001e0: b71f 1c3e cac7 70bd d46a 163e bfc2 3a3e
000001f0: c99c 063e dec3 d13d 411a b13d 910f 69bd
00000200: c8dc fcbc 63fa 68bd 28f8 3a3c 9a14 e83d
00000210: 0ee5 48bd 950e 27bd fa2f 613e 87f0 24bb
00000220: 5e76 213e 83a5 02bc 96b5 523e 77eb b03b
00000230: 248c 3a3b 0a37 093e d03e 51bd f4f7 9fbc
00000240: abc2 fdbb 8c7f 523e b68d 1f3d aa8e 153e
00000250: d5b8 65bd e0f9 9a3d c8be bebc baf6 e03d
00000260: 6e61 9b3d 2970 12bc 9ccf ab3d 97f8 3e3e
00000270: 2d39 763d ac17 3dbc be9e 0fbd 54bb 3dbd
00000280: 6a0d bd3b 69a9 253f c060 843d 456a 59bd
00000290: 9300 933d 99be e93d faee 173d 6aa0 d1bc
000002a0: dc38 063e 1839 acbc 50ca f23d 19ca ac3d
000002b0: efb1 323e 833f ee3d b254 033d e3c4 e4bc
000002c0: 8096 553e 4214 a93d 59ce 0b3e 3795 f43d
000002d0: 24e6 46bd 0094 7e3e 4085 bc3d 2a5b 7cbd
000002e0: 894a 8d3c 9f3f 9c3d 505a 5a3d 3b2f 483e
000002f0: ef41 48bd 0274 e93d 0b05 843c a158 233e
00000300: 1a82 913d a40e 203e f636 afbb b590 a73b
00000310: ce0a 0f3e e8a3 7d3d eaf4 113d e4e9 253e
00000320: 73f7 31bc b624 3fbb 9fdf e53d eb20 7ebc
00000330: b9ec ff3d 8b39 1f3e 55f7 223e e9cd 29bd
00000340: 960e 1a3e b4cb 003e 4f56 cf3d d000 ec3c
00000350: fe38 bb3d 035e 6c3e b2c2 a93d 6681 a43e
00000360: 6a97 0c3d b38f 663c 13b1 0f3e 8bcf 9a3d
00000370: 0f15 ac3c 3928 de3d 5b4d 5fbd c52f aabc
00000380: 963f 9d3d 8785 3f3e 725a 143e 40d2 663e
00000390: de66 a93b 5399 213e b836 83bd 0ac7 b93d
000003a0: 0140 123e 9476 443e c43b a03d 5292 e73d
000003b0: dbeb 2d3e 1c92 093e 3535 39bd dbfd 4bbd
000003c0: fe03 e63d 187e 90bc 98cb 0b3e 68bd 0c3e
000003d0: e6f9 603e e46a 203e 63f6 95bc 4259 4fbd
000003e0: 2fcb cf3c 33c0 c73d 518b 263e 7308 933c
000003f0: 64c7 943d 3641 163e 5171 103e 5427 89bc
0.18612179 -0.04268495 0.12573339 0.13207398 0.11581113 0.20605867 0.105096854 -0.011999006
0.016253514 -0.042461224 -0.04009654 0.036593657 0.11973747 0.028814178 0.008980267 0.11993176
0.1305301 0.16035339 0.07631278 0.1320413 -0.11043024 0.09019947 0.18830174 0.13281842
-0.022495996 0.1358077 -0.02852512 0.10386884 0.01790355 0.18555881 0.13967623 0.10100659
-0.026275469 0.15179291 0.01815135 -0.065399304 -0.008413068 0.033086125 -0.009706481 0.11871793
0.20237866 0.13100272 -0.042530373 -0.007749924 0.10964346 0.018937211 0.16539092 0.037370756
0.10166608 0.111868046 0.18732414 -0.041252114 -0.043739043 0.18361023 0.0754214 0.025839785
0.0030079782 0.016312564 0.14147238 0.17002627 -0.046536192 0.055993404 -0.041236207 0.007178651
-0.004506185 -0.06893712 0.09844803 0.025699416 0.11824032 -0.0007428171 -0.008064298 0.15347266
0.10175398 0.16522563 -0.036840346 0.12197353 0.15356377 0.035989866 0.3549685 0.17427069
0.08737902 -0.017481796 0.10861322 0.0654227 -0.027258452 0.20926066 -0.008583933 -0.11279869
-0.019115582 0.057365075 0.07548918 0.07372061 -0.016664345 0.022561228 -0.046902023 0.13345698
0.108780965 0.042839557 0.11922262 0.0015507753 -0.011899036 0.070454605 -0.05288628 -0.040014092
-0.039827917 0.037293453 -0.01873554 -0.032398123 0.0012417645 0.07928461 0.15180846 0.01269812
0.027961848 0.13783528 -0.015287849 -0.023192285 0.13477056 0.16653858 0.13032293 0.07529681
0.15246473 -0.058784284 0.14689189 0.18238352 0.13145746 0.10242437 0.08647586 -0.05689961
-0.030866995 -0.056879412 0.011411704 0.113320544 -0.04904657 -0.04078539 0.21990958 -0.002516778
0.1576781 -0.007974031 0.20577082 0.0053991633 0.0028464878 0.13399902 -0.051085293 -0.019527413
-0.0077441535 0.20556468 0.038953505 0.14605203 -0.056084473 0.07567191 -0.023284331 0.10984559
0.075869426 -0.008937874 0.08389208 0.18649517 0.06011312 -0.011541288 -0.035063498 -0.04632123
0.0057694213 0.64711624 0.06463766 -0.053079862 0.07177844 0.11413307 0.03709314 -0.025589187
0.13107628 -0.021023318 0.11854994 0.084369846 0.17450689 0.11633208 0.032063194 -0.027925914
0.20858192 0.08255817 0.13652934 0.11942523 -0.048559323 0.24861145 0.09205103 -0.06161038
0.017247455 0.07629322 0.053308785 0.19549267 -0.048891004 0.1139908 0.016115686 0.15951778
0.07104893 0.15630585 -0.005347128 0.005113686 0.13968965 0.06192389 0.03563396 0.16202503
-0.010862219 -0.0029166169 0.11224293 -0.015510778 0.12496323 0.15549295 0.15914662 -0.041456137
0.15044627 0.12577707 0.10123884 0.028808981 0.0914173 0.23082738 0.08289088 0.32129973
0.034324087 0.0140723465 0.14032392 0.07559117 0.021006135 0.108475156 -0.05451713 -0.020774731
0.07678144 0.1870328 0.14487627 0.22541142 0.0051697334 0.15781145 -0.06406921 0.09071167
0.14282228 0.19185859 0.078238994 0.11307205 0.16984503 0.13434643 -0.045216758 -0.049802642
0.1123123 -0.017638251 0.13651884 0.13744128 0.21970329 0.15665776 -0.018305963 -0.050622232
0.02536544 0.09753456 0.16264082 0.017948365 0.07264593 0.14673313 0.14105727 -0.016742386

net.4.weight f4 [5, 256]
00000000: a2da 90bd 10b0 0e3d 9fc6 46be 3ef3 15be
00000010: afdc 44be 6bf2 c1bf 49db c2be ab76 40bc
00000020: a53d 1b3b 952d fe3c 80bb 283c 71d8 d4bd
00000030: faf2 f6bd 96ff 88bc 3fd2 093d 483c d5bd
00000040: d32d 83bd dcd6 83be 5a9d febe 9a43 95bf
00000050: fe8a ac3e a96d cbbe 8378 2bbf 1839 22be
00000060: f8a9 133d b683 5bbe 880a bebc 71a9 04bf
00000070: 85e7 af3c d75a 8fbe 451a 7cbe b91c cabd
00000080: 1f52 fa3c 6976 42be 831b 96bc 55d1 07bd
00000090: be77 1dbd 80af c53c b539 d93c 6e9c b3be
000000a0: bbab 7abe 6bfa dd3e 05fa ba38 d34c b23c
000000b0: fdc2 e8bd 0418 9f3c 85d5 08be 0a05 193c
000000c0: a366 47be 4bf7 10be 20f0 a6be 4699 ce3c
000000d0: f7fe 063c 812d 15bf 5a34 03be d56f 173d
000000e0: 2a17 213d b835 46bd 2c5a 03be f049 c2bd
000000f0: 5783 27bd 92dd cbbd 8a03 4bbb 4a26 163d
00000100: 2523 84bc d9cc c83c c9f9 4abe fb66 2d3d
00000110: 18bd ebbe fcfb 37bd 0dbe 573c a417 c9be
00000120: 8204 54bd 70b5 0dbf 6b7c 983c bad0 abbd
00000130: 44c8 75bd 966e 1bbf 42d1 b83e b6ca a1be
00000140: 812f 06be 823b 993c 843f 11be d1f5 bd3e
00000150: 42dd 93bc 2b0d 45be f2ec 39bc f34a 31bf
00000160: 883a d739 c713 06be 18df d8bd c234 03be
00000170: 2b66 c3bc 885b 1d3d d2ac 083c d7d6 b8bd
00000180: 20f1 81be cc96 e83c 6dbd 0cbe 69bc bbbd
00000190: beb7 813c a9f4 efbd 05d5 cabc 3fbe 003c
000001a0: f15c 123d 98ef f73c 6e6e 7c3b c01f 92ba
000001b0: 2462 bfbc 2278 b1bd 9f8a 22be 7973 5a3c
000001c0: 1212 0a3d 0aff 17be c5d5 c53b fb8d c33a
000001d0: c0ec 2abe 9f7d b6bd 9f00 14be f6f9 09be
000001e0: 32be 9ebd 5927 49bc 1d3f 29bf 025c 0ebe
000001f0: 4fe3 05be 7a0a 0abf 5679 2bbe 6b66 143d
00000200: 9731 11bd 0f41 0abd fc14 ce3c 3ddf 0cbe
00000210: 4b6f 38bc 9c13 123d 8297 fbbe d87b 19bd
00000220: de72 edbe 1fcc cdbc 15d6 b1be 3afd a1bc
00000230: 5207 0a3d 3436 16be 6d84 e33b 680e fb3c
00000240: aeb4 f73b 392b 74be 1109 8ebc 897f 19be
00000250: 0a5d a23c 209a e3bd f426 a8bc a7fb a5bd
00000260: 95db c4bd 163f 7dbc 785c f6bd 3fb2 83be
00000270: b5b8 c6bd 162c cdbc a003 953b 2c59 3a3d
00000280: c355 90bc 8707 ba3f 72b1 06bf b814 af3c
00000290: 920b febd 1f5b 0bbe d123 3cbe ac09 e03e
000002a0: b2e3 9dbd faf9 0bbd 252b 0abe 55de 10be
000002b0: 01f6 a2be 2234 ecbd 2359 4c3b aa7a 993c
000002c0: 63c3 c5bd eff5 3a3f a6ca 82be a69e 04be
000002d0: 8750 173d 6f01 c1be d922 bcbd 46b7 473c
000002e0: d355 a7bc 6b91 1cbe 1323 08be 9c0d 16bf
000002f0: 95cd 3abd 0ed7 bfbe 83a3 043d a2c2 28be
00000300: 5d0b 1dbf ae03 d2bd e7b1 f43c b6d7 233c
00000310: 8516 95bd a87d cdbd 235d 1e3f c968 eebd
00000320: f79e c1bc 41c8 b23c ad5e ebbd e485 36bd
00000330: 52b8 bebe 272e 1dbe c11b 40be 6cac 4cbd
00000340: f91d d53b 48bb 6cbd d62c 2dbe 5c55 223d
00000350: 8ca0 09be ff15 b7be 6f56 a4bd 6f34 96bf
00000360: 1b5e 183c 0403 233d e453 d4bd 0d13 34bf
00000370: 65ba df3c f121 0cbe e026 ca3b d600 0f3c
00000380: 0785 b8be 3277 9dbe 4e97 64be 2e0e ae3e
00000390: 2410 51bc 79c5 19be 185e a13c af88 05bf
000003a0: 5726 e8be e4b4 01be 73a1 a1bd 3dcf 0dbe
000003b0: edc2 b8bd 3e3b 9bbe 1452 cfbc bfbf 0bbc
000003c0: 98f6 19be ff8e 5c3b dfdd b6be fddc abbe
000003d0: a6b8 81bf b8aa 36be 6a62 c53c 28de 1f3c
000003e0: 85ce cabb f6f2 b7bd 93d1 dcbe d890 143d
000003f0: 7864 ffbd 26e4 68be dcc2 0cbe efc0 933b
-0.07072951 0.034835875 -0.19411705 -0.14643571 -0.19224809 -1.5152105 -0.38057926 -0.011747043
0.0023687866 0.031027595 0.01029861 -0.103928454 -0.12058063 -0.016723435 0.033647772 -0.10411888
-0.06405225 -0.25749862 -0.49729425 -1.1661255 0.33699793 -0.39732102 -0.6698076 -0.15842092
0.036050767 -0.21436962 -0.023198381 -0.5182105 0.021472702 -0.27998993 -0.24619396 -0.0986876
0.030556737 -0.18990482 -0.018323665 -0.03315862 -0.038444273 0.024131536 0.026516775 -0.35080284
-0.24479572 0.43355116 8.915741e-05 0.021765148 -0.11365316 0.019420631 -0.13362701 0.00933958
-0.19472747 -0.14156835 -0.32605076 0.02521957 0.008239499 -0.5827256 -0.1281294 0.036971886
0.03932873 -0.048391074 -0.12827367 -0.09486759 -0.04089674 -0.099543706 -0.0030977451 0.03665761
-0.01613004 0.024511741 -0.19821848 0.042334538 -0.46042705 -0.044918045 0.01316787 -0.3927585
-0.05176211 -0.55354977 0.018614015 -0.08389421 -0.06000544 -0.60715616 0.3609715 -0.3159997
-0.13104059 0.018705133 -0.14184386 0.37101606 -0.01804984 -0.19243304 -0.011347996 -0.6925499
0.00041051605 -0.13093482 -0.10589427 -0.12813094 -0.023852428 0.03841737 0.008341985 -0.090253524
-0.25379276 0.028392218 -0.13744135 -0.09166796 0.015834685 -0.11716587 -0.024759779 0.007857858
0.035733167 0.030265614 0.003851797 -0.0011148378 -0.023362227 -0.08665492 -0.15873192 0.013333195
0.03370864 -0.14843383 0.006037446 0.0014919633 -0.16691875 -0.08910679 -0.14453362 -0.13474259
-0.077511206 -0.012277448 -0.6611193 -0.13902286 -0.13074993 -0.53922236 -0.16745505 0.036230486
-0.035447683 -0.03375345 0.02515649 -0.13757034 -0.011257003 0.035663232 -0.4913903 -0.037471622
-0.463767 -0.025121747 -0.34733644 -0.019774068 0.033698387 -0.14669114 0.0069432766 0.030646518
0.0075593805 -0.23844613 -0.017338308 -0.14990057 0.019819755 -0.111133814 -0.020526387 -0.081046395
-0.096121944 -0.015456935 -0.12029356 -0.25721928 -0.09703199 -0.025045436 0.0045475513 0.045495197
-0.01761902 1.4533547 -0.5261451 0.021372184 -0.124045506 -0.13608979 -0.18373038 0.4375738
-0.07709445 -0.034173943 -0.13493021 -0.14147313 -0.3182831 -0.11533381 0.003118106 0.018735249
-0.09656408 0.73031515 -0.25545233 -0.12951145 0.03694203 -0.37696406 -0.09186334 0.012189692
-0.020426666 -0.15289848 -0.1329463 -0.58614516 -0.045606215 -0.3746876 0.0323825 -0.16480497
-0.61345464 -0.10254608 0.029869987 0.01000016 -0.07279686 -0.10033733 0.61860865 -0.1164108
-0.02363537 0.021824004 -0.11492667 -0.04456128 -0.3725 -0.15349637 -0.18760587 -0.04996912
0.006503817 -0.057795793 -0.16911635 0.039632186 -0.1344015 -0.3575897 -0.080242984 -1.1734751
0.00929978 0.039797798 -0.10367563 -0.7034157 0.02731056 -0.13684823 0.006169185 0.008728227
-0.36038992 -0.30755 -0.22323343 0.33995193 -0.012760196 -0.15016736 0.019698188 -0.5216169
-0.4534175 -0.1266666 -0.07892122 -0.13848586 -0.09021554 -0.30318636 -0.025307693 -0.008529603
-0.15035474 0.0033654568 -0.3571615 -0.33567038 -1.0134475 -0.17838562 0.024094779 0.009757556
-0.00618917 -0.08981888 -0.43128642 0.036270946 -0.12470335 -0.22743282 -0.13746208 0.0045090835

net.4.bias f4 [5]
00000000: e4ac 79bd a183 aabd 59aa 0dbe 4f80 cebd
00000010: 2f47 ccbc
-0.060955897 -0.083258875 -0.13834514 -0.10083067 -0.024936287
