models/DDQNAgent/MountainCar-v0.pth (torch, 272489 bytes, 6 tensors)

net.0.weight f4 [256, 2]
000000 8d db 7b be 06 24 b0 40 7e a1 0e be 8c d1 0b 3f
       -0.2459547 5.5043974 -0.13928792 0.5461662
000010 04 65 05 be 1e b6 f5 3d 97 34 94 be f1 c6 b2 3e
       -0.13026816 0.11997627 -0.28946373 0.34917405
000020 7c 5b fc 3e 15 19 78 3f 3d 4c 04 3f f5 e4 e3 3d
       0.49288547 0.9691327 0.5167883 0.111276545
000030 6c d3 d4 3e 26 db 9d 3f e5 18 d9 3e 93 64 fd 3f
       0.41567552 1.2332504 0.42401806 1.9796318
000040 36 1d 83 3d fd 54 69 40 c5 c2 a8 be 96 4f 39 3f
       0.06402056 3.6458123 -0.32961097 0.72387064
000050 d8 d7 a7 be a2 19 a5 3c 1d b7 99 be 00 9a 67 3f
       -0.32781863 0.020153824 -0.30022517 0.9046936
000060 c0 cc 06 bf f7 80 0d 3e d2 ea 2b be 11 09 b7 be
       -0.52656174 0.13818727 -0.16788796 -0.35749105
000070 6b 9e 20 3b ca e1 70 be 1c d7 13 3f e3 4c bb 3f
       0.0024508487 -0.23523632 0.57750106 1.4632839
000080 5c 8a 5b 3e 7b 71 8c 40 e4 a0 80 be 85 de 88 3f
       0.21439499 4.3888526 -0.2512275 1.0692908
000090 d2 8d e3 3c 3c e2 9d 3f d7 1c 85 3d f9 01 40 be
       0.027777586 1.2334666 0.064996414 -0.18750753
0000a0 7d fa 05 3e bf 7a 3e be 48 b3 54 3e 25 8f 48 3f
       0.13083835 -0.18601511 0.20771515 0.7834342
0000b0 a5 34 97 3e 4c b5 c4 3e 0a ba 15 3d 9f 0c 45 40
       0.29532352 0.3841957 0.036554374 3.0788953
0000c0 4f 97 9a 3e 93 8a b9 be bf 70 20 bf 35 0e 1d 3f
       0.30193564 -0.36238536 -0.62672037 0.61349803
0000d0 20 a9 29 bf 72 f5 8f 3f 96 d0 0f 3e c8 8c 20 3f
       -0.6627369 1.1246779 0.14044413 0.62714815
0000e0 3e 8c 40 3e 3d 75 29 bc b8 09 1e 3f fe 06 5d 40
       0.18803498 -0.010342893 0.6173358 3.4535518
0000f0 e5 55 19 3d 11 c6 cf be 55 ad 0f 3e df f4 45 3f
       0.03743543 -0.405808 0.14030965 0.7732677
000100 f2 d9 f0 3d 4c 59 ec 3e 04 c7 b1 bd c2 02 58 40
       0.1176032 0.46161878 -0.08680537 3.3751683
000110 28 b9 c6 be 17 d4 e9 3b b2 7f e9 3e e7 fc a6 3f
       -0.38813138 0.007135879 0.45605236 1.304593
000120 4d 75 06 3f 96 71 55 3e e1 91 12 bf 0d f4 4b c0
       0.52522737 0.20844111 -0.57253844 -3.1867707
000130 f4 43 66 bd ea 0c c7 c0 e0 86 11 3e 83 53 8e 3f
       -0.05621715 -6.2203264 0.14211607 1.1119236
000140 f1 90 66 3d 3d 3a c4 c0 58 ff 8f 3e b3 69 72 3f
       0.05629057 -6.132109 0.281245 0.94692534
000150 ee 1c a6 3d 3e 1a 62 40 56 23 ae 3e 4a 85 ec be
       0.08110987 3.5328517 0.34011334 -0.4619544
000160 90 bd b5 be 36 92 2f 3f 12 3d 85 3d 30 41 05 3f
       -0.35496187 0.68582475 0.06505789 0.52052593
000170 ae a9 90 3e 16 d0 b9 3f ff 37 fb be c2 6e 1a 3d
       0.28254455 1.4516628 -0.4906616 0.037703283
000180 d8 14 0f 3f ee d1 23 3f 09 24 85 be 90 40 7d be
       0.5589118 0.639922 -0.26004055 -0.2473166
000190 c5 c7 d1 be 54 e8 8c 3f ac b8 a0 bd 5f f8 dc be
       -0.40972725 1.1008401 -0.07847723 -0.43158242
0001a0 49 7f 64 3c 32 f0 cf be 6c 0b 9a be 2a 65 c9 c0
       0.013946363 -0.40612942 -0.3008684 -6.293599
0001b0 28 44 e4 be c7 81 a1 be 69 f1 c3 3e 88 6f 94 40
       -0.4458325 -0.31544325 0.3827012 4.6386147
0001c0 dd 9d 3b 3e 04 f6 0d bf 32 ee c7 be cf a6 4a be
       0.18321939 -0.55453515 -0.39048916 -0.19790195
0001d0 11 68 be 3d 70 ee 05 bf 21 2a 83 be f3 3d b6 be
       0.09297193 -0.5231695 -0.2561808 -0.35594139
0001e0 83 f6 d7 3a 5e 8c 62 be 15 f3 c3 bd 48 24 c6 3c
       0.0016476664 -0.22123858 -0.095678486 0.024187222
0001f0 17 30 e9 be 0d e0 5e 3e 0b 9e 0d be 3a af d1 be
       -0.45544502 0.21765156 -0.1382982 -0.40954
000200 e0 19 9b 3e d5 30 7e 40 cf 19 25 3e bb f3 92 40
       0.3029318 3.9717305 0.16123126 4.5922523
000210 41 68 12 bf c9 9e 61 c0 12 84 27 be 1b 61 69 be
       -0.5719033 -3.5253165 -0.16358975 -0.22790949
000220 3f 1f 0c bf 24 66 da be f3 30 2e 3e 87 fe 04 be
       -0.5473518 -0.42656052 0.1701086 -0.1298772
000230 96 de d8 be 1b 11 35 40 a2 ab ca 3e 5a be 39 3e
       -0.4235732 2.829169 0.3958407 0.1813902
000240 65 c4 2c be 52 de 15 3f ed d6 5a 3e a5 45 b4 3f
       -0.16871794 0.5854236 0.2137105 1.4083754
000250 93 a7 0a 3f 4d 60 f1 be d5 12 d8 3e 3a 52 f9 3f
       0.5416195 -0.47143784 0.42201868 1.9478219
000260 a7 2a e4 bd 64 a3 92 be 35 13 19 3f db 9a b0 3f
       -0.11140948 -0.28640282 0.5979493 1.3797258
000270 b2 7c 80 3e d5 35 af 3f 7c 0c 0b 3e fb 69 d3 bd
       0.25095135 1.3688303 0.13578981 -0.103229485
000280 2b 59 0a 3f 76 ca 05 3e 2f f2 f6 bc 8e 98 1a 40
       0.5404231 0.13065514 -0.030144779 2.4155612
000290 56 94 7f 3e 84 ac b6 bd 24 75 8b be be bc 02 3f
       0.2495893 -0.089196235 -0.2723781 0.5106925
0002a0 65 04 ad bb 56 63 26 40 6a 13 9a be a0 99 e8 bc
       -0.005280065 2.599813 -0.30092937 -0.028393567
0002b0 67 49 8c 3e 96 a8 04 3f 2e 0a c0 be 96 8a ef 3d
       0.27399752 0.5181974 -0.37507766 0.11696355
0002c0 79 85 fb be e3 d3 88 c0 1f d1 0d 3f 3c 05 d9 3f
       -0.4912527 -4.275865 0.5539722 1.6954722
0002d0 ac 66 0d 3e f5 41 9d 3e f5 cb dc 3d eb d1 58 be
       0.13808697 0.30714384 0.10781089 -0.21173827
0002e0 3b 63 9d bc 58 40 4e 40 19 a8 63 3e 81 f7 d5 bd
       -0.019212356 3.2226772 0.22232093 -0.10447598
0002f0 d3 37 21 be b7 43 82 3d 92 30 a9 bd 73 86 0f be
       -0.15743951 0.06360572 -0.08261217 -0.14016132
000300 28 58 a6 3e a4 c7 8d 3f 0d 41 00 be ca c0 ed 3e
       0.32489133 1.107655 -0.12524815 0.4643615
000310 30 68 56 bd 2e a7 5f 3e 88 5e 12 3e 29 9d 2a 3e
       -0.052345455 0.21841118 0.14293873 0.16661514
000320 9e 75 02 bf e8 8b a2 c0 5b b7 f3 3e 46 f2 be 3f
       -0.5096072 -5.0795784 0.47600827 1.4917686
000330 23 62 a0 bd 8d 1d 5d 3e 28 e6 d6 be d1 fa 4a 3e
       -0.07831218 0.21593304 -0.4197247 0.19822241
000340 42 bd 84 be d8 ab 57 3f c4 19 c2 3e 11 8c 8c 3e
       -0.25925642 0.8424659 0.37910283 0.27450612
000350 be b8 07 bf 93 fd 39 c0 a3 da 18 be 1b 3c 87 3f
       -0.5301627 -2.906102 -0.14927153 1.0565218
000360 8a 24 b0 3d b4 aa 1d be 5b 3c 31 3e 8f c0 93 be
       0.08600719 -0.1539715 0.1730818 -0.28857848
000370 6e 08 c5 be 49 30 de 3e d2 6a 8a be a0 19 f4 bd
       -0.38482994 0.43396214 -0.27034622 -0.1191895
000380 eb 14 28 bf ac 2b b9 3f 36 a2 e6 3e 38 e3 5d 3e
       -0.6565692 1.4466453 0.45045632 0.21668708
000390 40 78 f9 be c9 19 46 3e d2 1a 0b bf b9 39 4e 3f
       -0.48724556 0.19345774 -0.543378 0.8055683
0003a0 96 26 92 3e 34 15 00 3f 4d ec 60 3e ca 0c 91 3f
       0.28545064 0.50032353 0.21965142 1.1332028
0003b0 e1 c8 be bb 92 82 e7 be 84 f7 b5 be f4 4c cf c0
       -0.0058222865 -0.45216805 -0.35540402 -6.4781437
0003c0 60 9f 4b 3e 03 a9 84 3e cc 00 1c be f5 c7 10 3d
       0.19885015 0.25910196 -0.15234679 0.035346944
0003d0 0e e3 dd bd 8c 41 d6 be be 3d 82 be 70 cc b2 c0
       -0.10834323 -0.41846883 -0.2543773 -5.5874557
0003e0 e3 f0 34 be 66 ed bb 3e 4c 51 43 be 94 4e df be
       -0.17670016 0.36704558 -0.19073981 -0.43614638
0003f0 83 d7 d6 bd 4f 90 93 be 00 70 d7 bd 60 89 06 bf
       -0.10490324 -0.28821036 -0.10519409 -0.5255337

net.0.bias f4 [256]
000000 35 74 32 be d4 3a e8 be 8c 9d c0 be c8 15 fd be
       -0.17427142 -0.45357382 -0.376202 -0.4943068
000010 d2 f5 11 3f 76 21 10 bf e9 2a f9 3e c4 6a 4e 3e
       0.5701572 -0.5630106 0.4866555 0.20157915
000020 4f 24 b6 bc 42 9d d5 3e 56 62 55 bd 0f da d5 3e
       -0.02223411 0.4172154 -0.052095734 0.41767928
000030 d3 c5 f4 3e a5 25 04 bf 68 3d 90 3e a1 c2 90 3e
       0.47807178 -0.5161994 0.2817185 0.2827349
000040 9f d5 ac bd 48 7d f8 3d b8 51 52 3e 98 71 92 be
       -0.084391825 0.121332705 0.20538986 -0.2860229
000050 e2 20 d7 bd 1b 9c 1b 3f a1 20 e5 3e 1d a3 21 3c
       -0.10504319 0.60785073 0.44751456 0.009865549
000060 d8 27 0f bf 98 89 f6 bc 67 7c d2 be 3f fc 00 3f
       -0.5592017 -0.030094907 -0.41110536 0.50384897
000070 26 ce b8 be d6 f3 f4 bd 12 20 07 be cf 80 2a 3e
       -0.3609478 -0.119605705 -0.13195828 0.16650699
000080 9e 2a 1d 3f 63 1c 15 bc d0 e5 bc 3e 45 5e 08 3f
       0.61393154 -0.009101006 0.36894083 0.53268844
000090 35 cd 0d 3f 68 ab ef bd 77 25 0c 3e 21 3d ad 3e
       0.55391246 -0.11702615 0.13686167 0.338357
0000a0 49 54 e1 3d b7 f7 a9 3e ac af 91 bd bd 77 ce be
       0.11002404 0.33196804 -0.07113585 -0.40325728
0000b0 b3 57 90 3e a8 54 12 3e d6 ff ac 3e e3 1d 23 3f
       0.2819191 0.14290106 0.33788937 0.6371748
0000c0 67 20 e3 3e 3f 17 1d 3f 56 47 0c bd 35 ee 02 bf
       0.4436066 0.61363596 -0.03424772 -0.51144725
0000d0 f4 8d d5 be 52 4e 2c be 1b 98 18 bf e5 42 db bd
       -0.41709864 -0.16826752 -0.59607095 -0.107061185
0000e0 14 1e 0c bf dc 6d 0c bf 1b e7 b5 be 8e 0c 16 bf
       -0.54733396 -0.5485513 -0.35527882 -0.58612907
0000f0 1b da ba be 7c 00 8d 3e 69 56 08 3f a7 2a 79 be
       -0.36494526 0.27539432 0.5325685 -0.24332677
000100 64 91 b8 bd d0 c5 69 3d 15 98 38 be 88 ef 8f be
       -0.09012106 0.057073414 -0.18026765 -0.28112435
000110 cd 26 d4 3e a3 9e 04 bf 1a 11 88 be 7f 6f 13 3f
       0.41435853 -0.5180456 -0.26575547 0.57592005
000120 7d ee 16 3e 72 83 80 3e 9e 49 b1 be 01 41 80 3e
       0.14739414 0.25100285 -0.34626478 0.25049594
000130 34 ae 99 3d 5b c7 a9 3e 20 f2 98 3e ac c5 11 3f
       0.0750393 0.3315991 0.29872227 0.5694225
000140 ee 5b e8 be ab 1d 83 bc a5 18 98 be 8b cf f0 be
       -0.45382637 -0.016005358 -0.29706302 -0.47033343
000150 42 dd 86 bd af fa 05 bf dc 18 f2 3e b5 3a 0a 3e
       -0.0658517 -0.5233564 0.4728459 0.13498957
000160 20 5d 98 bd f8 84 a8 3e 5a 0d 10 bf 3c 7e 6b be
       -0.07439637 0.32913947 -0.5627037 -0.22997373
000170 23 f3 0c bc 79 56 01 bf ad 92 c1 be a2 9c eb bd
       -0.00860289 -0.5052257 -0.37807217 -0.11504485
000180 00 0d 01 3f 44 62 20 3f 63 72 db 3e aa c5 b5 be
       0.5041046 0.6264994 0.42860708 -0.35502368
000190 42 c9 9f be fd e9 0e 3f 54 b4 7c 3e e6 7e 5b bd
       -0.31208235 0.5582579 0.24678165 -0.053587817
0001a0 26 28 01 3e 94 a8 f4 be fa b3 a5 bd ac 29 1d 3f
       0.12612972 -0.47784865 -0.080909684 0.6139171
0001b0 ae 27 16 be 30 0b cc bd 16 c4 fc be 6b 4a aa be
       -0.14663574 -0.09963071 -0.49368352 -0.332599
0001c0 1d 83 95 bd 07 17 bd be 53 f3 6a bd c5 1e 92 3e
       -0.073003985 -0.3693163 -0.05736096 0.285391
0001d0 83 e2 14 bf c7 a2 86 3e d2 47 c9 be e9 32 29 be
       -0.5815813 0.26296064 -0.39312607 -0.16523327
0001e0 8b 13 8f 3e cd 3b fd 3e c4 65 26 be 09 a7 6f 3d
       0.27944598 0.49459687 -0.16249758 0.058508907
0001f0 93 a1 09 bf 77 f9 9c be b1 46 05 bf 4f 84 59 be
       -0.5376217 -0.30659077 -0.5206099 -0.21241878
000200 5e f0 76 be 15 99 0e bf 44 32 0c 3f 9d 69 dc 3e
       -0.2411513 -0.55702335 0.547642 0.43049327
000210 9a 00 15 bf df 65 91 be 34 9a 6a 3e b7 f2 18 be
       -0.5820404 -0.28398034 0.22910386 -0.14936338
000220 61 04 f7 3a 86 ab fa bd cd 40 fa 3e 81 2a aa be
       0.001884591 -0.12239747 0.48877564 -0.33235553
000230 c8 87 0a 3f 25 3e 27 3d 09 44 12 3e 59 b8 02 3f
       0.54113436 0.04083075 0.14283766 0.5106254
000240 69 5e 9f bd ce 50 ad be 30 2c 45 bd e6 43 09 3f
       -0.07781679 -0.33850712 -0.048137844 0.5361923
000250 67 f2 ee be b4 63 2a 3e 74 96 15 bf f7 31 ac 3e
       -0.46669313 0.16639596 -0.584327 0.3363187
000260 84 75 88 3e 4c 83 0c 3d 51 81 98 3e e8 8a b8 bd
       0.26652157 0.034304902 0.2978616 -0.09010869
000270 31 6d b7 3e e7 fa f0 be 3a 69 dd bd ac 65 8d 3e
       0.35825494 -0.47066423 -0.10811086 0.27616632
000280 ab 9a 23 3f 84 9a 53 3d d6 ec f4 be 45 76 f8 3e
       0.6390788 0.05166103 -0.4783694 0.48527732
000290 03 a9 73 bd 81 07 97 bd 59 fc 0f bf 81 c3 1c be
       -0.059487354 -0.07374478 -0.56244427 -0.15308954
0002a0 79 48 ee 3e 15 92 0e 3e 83 4e b1 be 48 12 6d 3e
       0.46539667 0.13922913 -0.34630212 0.23151505
0002b0 9a 3f af bd 88 4b 1b 3f a3 1b 04 bf 32 50 40 be
       -0.08557053 0.60662127 -0.5160467 -0.18780592
0002c0 40 f7 12 bf 68 82 f7 bd 1a cc 95 3e af a5 1b 3f
       -0.57408524 -0.1208542 0.2925728 0.6079969
0002d0 d5 f3 f7 3d f3 47 21 3f a0 ae 67 be 5a f4 c7 3e
       0.12107054 0.6300041 -0.22625208 0.39053613
0002e0 e3 24 00 3f 48 2d 10 3f 21 d4 c4 be 87 97 16 3f
       0.50056285 0.56319094 -0.38443092 0.5882496
0002f0 57 f9 d2 3e 12 56 8e be 65 44 91 be aa 53 ff be
       0.41205856 -0.2780004 -0.28372493 -0.49868518
000300 f4 7e 34 3e 9a 62 ec be e9 07 a6 3e 4d 6b 76 3e
       0.17626554 -0.46168977 0.3242791 0.2406437
000310 d1 3c 04 bf 0a 31 54 3e 60 e8 a0 bd 25 14 9e 3e
       -0.516553 0.20721832 -0.07856822 0.30874744
000320 09 1a bd 3e a4 50 17 bf a2 fe 10 3f 50 bb 0c 3f
       0.36933926 -0.5910742 0.5663854 0.54973316
000330 80 39 79 3e 8e 1c 0b bf 0f d7 bc bd 6f 2c bf bd
       0.24338341 -0.54340446 -0.09220707 -0.09334647
000340 07 4e 68 be d9 59 c2 3e a3 84 7a 3e 64 93 04 3f
       -0.22686015 0.37959173 0.2446466 0.517874
000350 95 88 a4 bd fd d5 7c 3e 0a 88 74 3e ae 73 fd be
       -0.080338635 0.24691005 0.2388002 -0.4950232
000360 d3 a4 13 bf c2 39 1b be 45 e0 e9 3e f9 4b 0f bf
       -0.57673377 -0.15158752 0.45678917 -0.559753
000370 b1 7c 04 bf c7 96 c1 3e 35 f1 96 3e 43 92 09 3f
       -0.51752764 0.37810346 0.294809 0.537388
000380 9d d0 e5 be c7 cc de be 53 42 b4 3e b6 07 11 3f
       -0.44885722 -0.43515608 0.3520685 0.5665239
000390 9a 1f bf 3e df 42 03 3e 61 95 6f 3e e4 03 15 3f
       0.37328798 0.12818478 0.23396827 0.5820906
0003a0 bc 68 c4 be 03 77 57 bd 33 1c be 3e b4 4a d0 be
       -0.38361156 -0.052603733 0.3713089 -0.40681994
0003b0 77 db a7 be 76 0f ea 3e df 47 72 3e 32 ca 70 3e
       -0.32784626 0.4571492 0.23660229 0.23514631
0003c0 c3 05 81 be 00 ff ae bd 9f dc 17 3f 37 b7 b6 be
       -0.25199708 -0.08544731 0.59321016 -0.35686657
0003d0 f7 52 a3 bd 21 ac a8 3e 51 27 d2 be ef bb 20 3f
       -0.07974809 0.32943824 -0.4104562 0.62786764
0003e0 a5 16 98 be e7 bf 49 be 8b 48 40 be a4 5f c6 be
       -0.29704776 -0.19702111 -0.18777673 -0.38744843
0003f0 31 5b 15 bf d1 04 b7 3e e6 49 34 3e 4b 8e 0e bf
       -0.5834227 0.35745862 0.17606315 -0.5568587

net.2.weight f4 [256, 256]
000000 ed 8a 0a bd 82 bf 54 3d 2b 8e a4 3c c5 bc ac 3c
       -0.033823896 0.05194045 0.020087322 0.021086106
000010 c5 e6 59 bd 74 bb bc bc 96 2f e1 bc 03 76 1d bc
       -0.053198595 -0.023038603 -0.027488511 -0.009610656
000020 64 80 13 bd e9 5a b3 bc 13 8f 9e bc 6f 7a 06 bd
       -0.036011115 -0.021893935 -0.019355332 -0.032831606
000030 88 0f 9d bc a1 a1 aa bc a4 a1 37 bc 2d 5c a2 3c
       -0.019172445 -0.020829024 -0.011207972 0.019819343
000040 7f c4 e2 bc ca 53 9e bd b1 d6 99 3b fd 61 4d 3c
       -0.027681587 -0.07730825 0.0046947827 0.012535569
000050 cd f3 da bc d4 cd cd 3c 5f 24 40 bd c4 74 11 3d
       -0.026727581 0.02512256 -0.046909686 0.035511747
000060 6c 68 da 3c 7f a3 8f bd 4f c2 af 3c fa e3 96 bd
       0.02666112 -0.07013606 0.021454958 -0.07367702
000070 6d 81 ee bc 11 8b 0f bc 2a 17 11 bd a5 3f 24 3d
       -0.02911445 -0.008761183 -0.03542248 0.04009976
000080 f3 de 14 bd 3d fe aa 3c 28 dc 95 bd 13 d4 f7 3c
       -0.036345433 0.020873183 -0.07317382 0.030252492
000090 8b cb 85 bc e0 5a 86 bd f5 b2 89 bc 01 d6 05 3b
       -0.016332408 -0.06560302 -0.016808966 0.0020421746
0000a0 51 e7 ab 3c 1d 22 52 bd a0 da d3 bc 33 8a 25 3c
       0.020984324 -0.051302064 -0.025861084 0.01010375
0000b0 41 48 41 bc ec 31 05 3b 70 4b ec 3c c1 7c 1d bd
       -0.011797012 0.0020323945 0.028844565 -0.038449053
0000c0 7b 2d ef 3c 75 9f 4a 3c df 16 21 bd 80 24 19 3d
       0.029196491 0.012367119 -0.039328452 0.037388325
0000d0 12 56 d2 3c 87 f5 ad 3c bb a5 f4 bc 0c 96 d4 bc
       0.025675807 0.02123524 -0.029864183 -0.025950454
0000e0 ad f3 78 bc 14 b4 2e 3b c9 31 01 3d 77 c2 f5 bc
       -0.015194816 0.0026657628 0.03154162 -0.029999955
0000f0 8a 88 d7 3c 91 28 35 bd e4 c5 ad 3b 24 36 8d bc
       0.026310224 -0.04422814 0.0053031314 -0.01723773
000100 76 94 3c bd c7 e2 ec bc 71 9f 81 bd d3 83 d5 3c
       -0.04604002 -0.02891673 -0.06329239 0.026063835
000110 90 9d 7c bd cf 79 8f bb a2 c4 39 3c d9 a5 58 bd
       -0.0616737 -0.0043785344 0.011338385 -0.05289254
000120 7e 03 20 bc 84 2d 52 bd f6 03 1a bd ba 0b 43 bd
       -0.009766458 -0.05131294 -0.037601434 -0.047618605
000130 58 b5 22 bd 3f d5 9c bc ef 39 e4 3b 9c f8 10 bd
       -0.039723724 -0.019144652 0.006964914 -0.035393342
000140 6a 5f ca 3c 5f 57 45 3d 35 76 9a 3c f6 9a a9 bc
       0.0247037 0.048179027 0.018855194 -0.020703774
000150 40 8f 49 bd 02 ee 9b 3c e6 94 4c bd 2c 5d 7a 3a
       -0.04920888 0.01903439 -0.049946688 0.0009550627
000160 55 2c 26 3c 41 0e a6 3c 2a f9 49 3d 65 72 4c 3d
       0.0101424055 0.020270469 0.049309887 0.049913783
000170 5b 4f 36 3c 8f d7 1c bd c4 50 40 3d 01 25 00 bd
       0.011127318 -0.03829151 0.046952024 -0.03128529
000180 7a 1c 46 bd ee 4a 91 3c 62 04 75 3c 0a 14 82 3c
       -0.048367 0.017735925 0.014954658 0.015878696
000190 47 6a b4 bc de 75 85 bd b7 8e fa bc 38 13 cb 3c
       -0.022023333 -0.06516622 -0.03058563 0.024789438
0001a0 9a e9 42 bc 93 6f 93 3b b9 45 15 bd d5 87 36 bd
       -0.011896515 0.0044993847 -0.036443446 -0.044563133
0001b0 a9 4b 00 3d 71 63 54 3b dd 09 0c 3d de 65 18 bc
       0.031322155 0.0032407905 0.034189094 -0.009301631
0001c0 76 8f 4a bb 02 b3 b1 3c ae f6 8c bc e2 73 dc 3b
       -0.0030908263 0.021691803 -0.01720747 0.0067276815
0001d0 cd e2 06 3d e7 85 47 3d f0 7a 25 3d 70 72 1e bd
       0.032931138 0.048711684 0.040400445 -0.038683355
0001e0 6f 3f 85 bd 20 4c 87 bc 16 7c f0 b9 45 ae 1d bd
       -0.065062396 -0.016515791 -0.00045868818 -0.038496275
0001f0 3d 2e 10 bc c8 fb 21 3b 4d 0e 1d 3d cd b6 55 3c
       -0.008800087 0.0024716724 0.038343716 0.013044071
000200 b2 de 98 bc db 08 b1 bc cf 61 15 bd 17 20 0a bd
       -0.018660877 -0.021610668 -0.03647023 -0.03372201
000210 69 8f 41 3d c5 03 e4 3c 14 70 b3 3c 7d fb 2f 39
       0.047255907 0.027833829 0.021904029 0.00016782987
000220 59 a4 2d 3c 19 49 95 3c 78 0e 9c bd 51 c5 99 3b
       0.010598266 0.018223332 -0.07619947 0.0046927114
000230 4b b2 f3 bc d5 49 52 bd 3f d9 87 bd da dc a3 3c
       -0.029748103 -0.051339943 -0.06633233 0.020002771
000240 f2 03 2f 3d af 86 c7 3c 1c bf c6 3c bd 82 3f bd
       0.042728372 0.024356214 0.02426105 -0.04675554
000250 0f b7 14 bc 23 40 b7 bb d5 42 0e bc 5d a6 14 bd
       -0.009076848 -0.0055923625 -0.008682926 -0.03629147
000260 4a c7 8e bd a1 5c 36 bc 3a 3e 6c bd 8e 7e fa 3a
       -0.06971605 -0.011130483 -0.05767653 0.0019111203
000270 88 9c cb 3c 7e 84 84 bc 28 b1 87 bc ad de cd 3b
       0.024854913 -0.016176458 -0.016563967 0.0062826485
000280 3f c4 3b bd 47 e2 93 bb 62 fd 48 3d 93 6d 44 bd
       -0.04584145 -0.0045130583 0.04906977 -0.04795606
000290 1d 1b 81 bd 16 ee f0 bc 27 b6 6e bc 69 46 cc bc
       -0.063039996 -0.029410403 -0.014569796 -0.024935918
0002a0 7d 2e 5a bd 3f bd 91 bb 94 51 12 3c 8f 72 2f bd
       -0.05326699 -0.0044476087 0.008930583 -0.04283386
0002b0 ec b1 87 bd 37 31 15 bd a7 b0 b5 bc 72 18 8c bc
       -0.06625733 -0.036423888 -0.022178961 -0.0171015
0002c0 23 2f 42 bd 7c 4e 6a bc eb 26 1e bd 23 f9 89 bd
       -0.047408234 -0.014300939 -0.038611334 -0.06736972
0002d0 dc f3 8b bd 8d ff 97 bb 97 96 01 bd f0 01 40 bd
       -0.06833622 -0.0046386183 -0.031637754 -0.046876848
0002e0 f1 9e 70 3c 41 78 1b 3c 95 d9 f6 3c 6c 78 9c bd
       0.014686332 0.00948912 0.030133048 -0.07640156
0002f0 1b f5 80 bd 19 85 a2 bc c6 d1 31 3d e9 29 b0 3b
       -0.0629675 -0.019838857 0.043412946 0.00537609
000300 2f f9 80 bd 47 d3 ba bb e2 59 2d bd ae d6 17 bd
       -0.06297528 -0.0057014558 -0.042322047 -0.03706997
000310 20 c2 6c bc fc ec ed 3c 27 9a 1b bc 35 79 06 bd
       -0.01445058 0.029043667 -0.009497202 -0.032830436
000320 82 dc 8b bc 67 8b 78 bc b0 a3 b7 bb b7 c5 bc bb
       -0.01707292 -0.015169955 -0.00560423 -0.005760874
000330 7d d1 41 bc 16 cd a7 bc 5d a4 37 3d cd 9b f8 bb
       -0.011829731 -0.020483535 0.044834483 -0.0075869323
000340 2d 02 b6 bc 38 15 d8 3b 6d da 91 3c 17 a1 d3 3c
       -0.022217834 0.0065943263 0.017804349 0.02583365
000350 8a 15 7f 3c 6e f1 31 bd 8d b2 71 3a 4e ad 38 3d
       0.0155691 -0.043443136 0.00092200265 0.04508715
000360 53 20 53 bd 9b 8c bb bc 0d 38 7e bd 23 75 20 3c
       -0.0515445 -0.022894194 -0.062065173 0.009793553
000370 ec 0c b2 3c 8a 60 15 bd 1c 0f 90 bb d9 28 38 bb
       0.021734677 -0.03646902 -0.0043963324 -0.002810052
000380 c8 b5 10 bc 98 c3 34 bd 69 7b 80 3c 2d ae 55 bd
       -0.0088324025 -0.044131845 0.015683847 -0.05216806
000390 f6 f0 01 bd ca fd 73 bc 26 e0 e6 bc 46 a9 99 bd
       -0.03172394 -0.014892051 -0.028183054 -0.075029895
0003a0 e3 83 c5 3c 49 e9 48 bd f8 48 df bc aa b5 4d 3c
       0.02411074 -0.049050603 -0.027256474 0.012555519
0003b0 45 aa e0 bc 0d 36 4f bd 3a 21 33 bd 54 32 3a bd
       -0.02742494 -0.050588656 -0.04373286 -0.045458153
0003c0 b7 cb b3 bc 08 cf 22 bd 08 c7 51 bc 93 2f 2e bd
       -0.021947725 -0.03974822 -0.0128038 -0.04252584
0003d0 72 49 02 bd b5 10 be bc 3b 7b ef 3b 6f ef 37 3b
       -0.031808324 -0.023201326 0.0073083914 0.0028066298
0003e0 e8 33 17 bd da ce 0e 3c 9c b2 f4 3c 3c 0b ef 3c
       -0.036914736 0.008716309 0.029870324 0.029180162
0003f0 ab 7d 48 bd 41 f2 3d bd 81 13 90 bd c3 36 08 bd
       -0.04894797 -0.04637361 -0.0703497 -0.03325535

net.2.bias f4 [256]
000000 e6 e3 0e bd 7c 68 49 3d 1a fd ac ba d3 96 9b bd
       -0.03488531 0.04917191 -0.0013197989 -0.07597127
000010 5a e2 c4 bc 63 c4 89 bb d1 bb 8c bb 54 4c 43 bd
       -0.024033714 -0.0042043193 -0.0042948504 -0.047680214
000020 ff 00 b1 3d bb a3 d9 3c 96 c7 09 bc fc eb ff bc
       0.08642768 0.02656733 -0.008409401 -0.031240456
000030 c1 f6 33 3d c2 6a 6d bc a6 9e 3a bd 6f 0e bc 3d
       0.043936495 -0.014490785 -0.045561455 0.091824405
000040 fc 92 03 3c c1 c2 74 bd 93 c8 13 3a d4 b1 70 bd
       0.008030649 -0.059756044 0.0005637493 -0.05876334
000050 71 04 ba bc 99 64 fa 3a 5c 70 59 bd bd 50 8c 3c
       -0.022707196 0.0019103467 -0.05308567 0.017128343
000060 93 38 71 bc ff fe 44 bc 9d a7 3b bd fa 00 30 3d
       -0.014722961 -0.012023686 -0.045814145 0.04296968
000070 a4 08 cb 3b ca 0e 91 3d 9a fe 38 bd d3 89 a2 bc
       0.0061960984 0.07082899 -0.045164682 -0.01984111
000080 81 ce e2 3d 00 ec 67 bd d6 3b f7 3c 76 c1 84 bd
       0.11074544 -0.05662155 0.0301799 -0.06482212
000090 9c 5e a2 bc 0e 49 32 bd 2a 26 04 bd 2a b3 13 3d
       -0.019820504 -0.0435267 -0.03226296 0.036059536
0000a0 6d 70 cb 3c 9a 20 10 bc 5a c3 46 bd 0f 7e 41 3c
       0.024833882 -0.008796835 -0.048526146 0.01180984
0000b0 28 b5 0b 3e a4 38 c0 bc 3f 2c ce 3a 9f a7 45 bd
       0.13643324 -0.023464508 0.0015729739 -0.04825556
0000c0 e9 96 6b bc 7f ed 23 bd 96 71 3c bd 72 c0 e9 3c
       -0.0143792415 -0.040021416 -0.04600676 0.028534148
0000d0 4f 1f cb 3d 7a 3e cf 3d 9f 62 2b 3d 57 16 d9 3c
       0.09918081 0.10119338 0.0418421 0.02649991
0000e0 ff dc 3f bc 35 21 9b 3d 2a 50 9a 3c 16 a0 9e 3d
       -0.011710404 0.07574693 0.018837053 0.07745378
0000f0 06 54 86 3d a0 27 e4 3a d7 6e 3e bd 34 bc 6b bd
       0.06558995 0.0017406829 -0.046492424 -0.05755253
000100 bb 76 00 3c 43 c3 58 bc 7f 4d 00 3d c4 33 4e bd
       0.007840808 -0.013230148 0.031323906 -0.050342336
000110 1a 0c c8 bc 0a 86 23 bc 6d 5d 4f bd ee dc 85 3c
       -0.024419833 -0.009980688 -0.050626207 0.016340699
000120 87 97 e7 ba d7 e6 89 3c aa 66 fd 3a 85 52 53 bd
       -0.001766906 0.016833706 0.0019332964 -0.05159237
000130 2d 3c cd 3c 5c 17 b0 3b e8 94 29 bd 22 22 ef 3c
       0.025053108 0.0053738784 -0.041401774 0.02919108
000140 e0 f0 8e 3a e1 e1 2a 3d dd 95 8d 3d ac 27 17 3c
       0.0010905527 0.04171932 0.0691335 0.009225767
000150 6c cc 33 bd f6 68 53 bd 59 4d 97 bd a8 40 06 3d
       -0.043896124 -0.05161377 -0.073878 0.032776505
000160 26 39 04 3d 26 19 ee 3c e2 93 0c bd 86 85 87 3c
       0.032281063 0.029064726 -0.03432072 0.016543161
000170 4d a4 ea bc 6d 14 1e bd 5e 63 1d 3d b0 6a b7 3c
       -0.028642798 -0.0385937 0.038424842 0.02238974
000180 1f 40 be 3d 44 c2 14 bc c2 ab 3f 3d f9 91 6c 3d
       0.09289574 -0.00907952 0.04679466 0.057756398
000190 dd 7f 20 bd b6 42 9a bc a1 a2 e0 3d c1 8e cd 3c
       -0.03918444 -0.018830638 0.10968519 0.025092484
0001a0 7e e7 8b 3d 33 30 33 bd 79 b2 a0 3b 69 76 53 3b
       0.06831263 -0.04374714 0.004904088 0.0032266623
0001b0 d8 33 3f 3b 9b 27 31 bd d1 a8 c6 3c e2 ff 34 bd
       0.0029175188 -0.04325066 0.02425042 -0.04418934
0001c0 c0 fe 48 bd cf af 42 bd 41 1d 12 3d 60 c8 c4 3c
       -0.049071074 -0.047530945 0.03567243 0.024021327
0001d0 ee 3b 2e bd 5f b5 f0 bc b5 14 ba 3d 27 4b 3b bb
       -0.042537622 -0.02938336 0.09085981 -0.002857873
0001e0 56 68 73 bc 90 0c 28 3b 05 09 ef 3d af 30 84 3b
       -0.014856419 0.0025642253 0.11671642 0.004034124
0001f0 75 54 86 bd b0 4c cf bc ac 7b 31 3d 1d 8d 4a bd
       -0.06559078 -0.025305122 0.043330833 -0.049450982
000200 9e 6b cd 3d 93 49 f3 bb f7 da 39 3d d4 53 c4 bc
       0.10030292 -0.007424542 0.045374837 -0.023965754
000210 95 b5 99 3d eb 2e 11 bd 61 92 3a 3d 79 1e 3a bd
       0.07505337 -0.035445135 0.045549754 -0.045439217
000220 d3 33 a5 3d e8 12 b4 3d c0 01 7d bc 9e 14 8f 3c
       0.08066525 0.087926686 -0.015442312 0.017465886
000230 11 50 4e bd e8 c1 a4 3c 10 19 0a bc 2f da dd 3c
       -0.050369326 0.020111993 -0.008428827 0.027081577
000240 7c 6b 54 bd 8b de 44 bd b8 86 29 3d fa 72 3e 3d
       -0.051860318 -0.048063796 0.041388243 0.04649637
000250 53 da 2a bc 69 25 c3 3b 77 74 9c 3d e8 84 26 3d
       -0.010428029 0.0059553874 0.076394014 0.040654093
000260 d1 63 a4 3c db 35 b9 3c 30 ba d5 3d 7f 25 98 3d
       0.020067127 0.022608688 0.10435903 0.07429027
000270 cb d1 42 3d e2 aa 18 3d 4b b6 c0 3d d8 70 ba 3d
       0.047563355 0.03727234 0.094097696 0.091035545
000280 0b 44 a2 3d 99 e4 8b 3c 7b 83 af 3d cd d0 94 bd
       0.079231344 0.017076777 0.0857 -0.07266388
000290 6c df 29 3d 7a 7b 69 3d 41 b6 01 bd 16 32 54 3d
       0.041472837 0.057002522 -0.03166795 0.05180558
0002a0 2c db 27 bd c9 96 21 bd ec e5 55 3b 57 01 4b bd
       -0.040980503 -0.03945044 0.0032638265 -0.049561825
0002b0 f9 a2 6c bd 1e 76 ff 38 c9 09 70 bd fd 75 84 bd
       -0.05777261 0.000121813486 -0.05860308 -0.06467817
0002c0 a7 74 00 3d d6 87 35 3d 61 48 50 3d fe 0b 9a 3d
       0.03136125 0.044318996 0.050850276 0.075218186
0002d0 6c 62 49 bc 1c de 9d 3b 96 36 c0 3d a4 26 ce 3b
       -0.012291532 0.0048177373 0.093854114 0.0062912274
0002e0 eb 1a 62 3d eb 46 d3 3d 59 cf c1 3d 49 29 3d bd
       0.055201452 0.10316261 0.094633766 -0.04618195
0002f0 20 05 89 3d 3e 43 e3 3d 07 7c 24 bd 1c d8 a6 3d
       0.06690431 0.1109681 -0.040157344 0.08146688
000300 da 55 95 3c 6b b5 e0 bc 9e 4d c8 bc b2 65 59 bc
       0.018229414 -0.027430257 -0.024451073 -0.013268875
000310 c1 38 55 3d 65 81 c7 3d 25 7f aa 3d 86 9e 2b 3d
       0.052056078 0.09741477 0.08325032 0.041899227
000320 d6 39 f0 3b ad c2 0c 3c 6f 94 63 bc 12 51 ab 3d
       0.0073311133 0.008591336 -0.01389037 0.08365072
000330 b9 99 0f bc 42 7b 0b bd 95 16 b9 bb 26 2b b0 3d
       -0.008764678 -0.034053095 -0.005648444 0.0860198
000340 3d 41 57 bd fe 0c 32 bd 53 27 ba 3d 57 a6 55 bd
       -0.05255245 -0.04346942 0.09089532 -0.052160587
000350 a4 3a 97 3d 39 61 63 3d 45 f0 9d bc 62 3c 0f bd
       0.07384232 0.05551264 -0.019279609 -0.034969695
000360 26 ce 93 3c be 20 f0 3c 18 53 6b bd 36 c1 c6 3d
       0.018042635 0.029312488 -0.05745229 0.09704821
000370 48 77 66 bd d0 2e a6 bc a1 10 36 3c 95 fb 53 bc
       -0.0562661 -0.020285994 0.011112363 -0.0129384
000380 06 1c 0f 3e e5 18 06 3e 75 78 27 3d af 61 19 bd
       0.13975534 0.13095434 0.04088636 -0.037446674
000390 7f 20 a0 bb 01 f9 0d bd d2 89 03 bd 7d 3a 4d bd
       -0.0048866863 -0.034661297 -0.032113858 -0.050104607
0003a0 21 23 2e 3d 47 99 c5 3c e3 65 d6 3c 07 15 47 bd
       0.04251397 0.02412094 0.02617163 -0.048604038
0003b0 2a 44 21 3d 4a 8b 9e 3c aa a8 e8 bc 56 43 9c 3c
       0.039371647 0.019353528 -0.028400738 0.019075077
0003c0 56 e8 a3 bd e3 9e 2e bc ef 29 c3 3d b8 2c 7d 3d
       -0.08003299 -0.010657999 0.095294826 0.061810225
0003d0 ed 22 d4 3c fe 33 3b 3c 97 89 03 bc c9 ed b7 3c
       0.02589556 0.01142597 -0.008028409 0.022452252
0003e0 d1 e2 a0 bc 9b 6a b4 bc ca 36 1a 3b 5a f6 ff bc
       -0.019639404 -0.02202349 0.0023531192 -0.0312454
0003f0 ca 19 69 3c b8 07 e5 3c 1c 2b db bb 42 8b fa 3b
       0.01422734 0.027957782 -0.0066884886 0.0076459954

net.4.weight f4 [3, 256]
000000 fe ae c4 3c 46 38 c8 be 18 83 a3 3c e0 7f 9f 3b
       0.024009224 -0.39105433 0.019959971 0.004867539
000010 88 37 dc ba 91 44 00 3a 20 6e 25 3d b4 eb de ba
       -0.0016801218 0.00048930297 0.040388227 -0.0017007501
000020 90 5f 3f be d0 d3 28 bd 92 0e 0e bd 93 29 42 bd
       -0.18688798 -0.041217625 -0.034681864 -0.04740293
000030 fb 3d 38 be d9 38 f8 3c 62 bb b7 3c 7d f9 2a be
       -0.17992394 0.030300545 0.022428218 -0.16696735
000040 42 6e 5b bb f2 e0 19 3b ce 2f 37 ba 36 6d 58 3c
       -0.0033482467 0.0023480025 -0.00069880194 0.013209632
000050 52 99 d5 bb c4 50 55 bc 0d 28 45 bd 73 d5 c0 3c
       -0.0065185213 -0.013019744 -0.0481339 0.02353928
000060 17 99 47 bc 46 84 ad 3b 73 66 17 bb 21 15 92 be
       -0.012182496 0.0052953092 -0.0023101836 -0.28531745
000070 c0 19 ee 3c 72 9c 42 be f4 00 f4 3a 7f d8 d3 39
       0.029065013 -0.19004992 0.0018616007 0.00040406358
000080 41 c8 52 be d7 1d c1 3c c7 81 8b 3c cf 86 71 bd
       -0.20584203 0.023573799 0.017029656 -0.058966454
000090 a5 f3 10 bc 43 4e 31 3d 09 a1 56 bb 7e 06 84 be
       -0.008847152 0.043287527 -0.0032749793 -0.25786203
0000a0 a5 94 28 3d 6f dd 1f 3d 6e 42 3a bd cb 6c 13 bc
       0.041157383 0.039029535 -0.04547351 -0.008998106
0000b0 06 49 7d be 6f d8 e3 3c 80 66 23 bc 3a c9 f7 3c
       -0.24734887 0.027813165 -0.009973168 0.03024732
0000c0 12 b3 b1 3c b9 4a 5c bb c6 a7 2d 3d 46 b0 37 bd
       0.021691833 -0.0033613874 0.04239633 -0.04484584
0000d0 50 b7 80 be 0a 6d 41 be ec 60 b7 bc 7c 51 e9 3c
       -0.25139856 -0.18889251 -0.022385083 0.028481238
0000e0 1c 95 2b 3c 1f ac 7d be d1 c4 2c 3d 40 55 7f be
       0.010472562 -0.2477269 0.042179886 -0.24934864
0000f0 8b cd 86 be a3 2d 96 be 2f 92 2d bd e9 06 f3 3b
       -0.26328692 -0.29331693 -0.04237574 0.0074165952
000100 5e 2e a0 b9 d3 d6 a2 bc 22 01 ba be ad 63 dd 3c
       -0.00030552124 -0.019877827 -0.3632899 0.027025068
000110 2d c6 4e 3b 56 c6 30 bc 37 c2 97 3b 8b f0 70 be
       0.0031551227 -0.0107894745 0.0046313065 -0.2352926
000120 24 40 5c bc 57 62 2f bd b4 8e 29 bd 15 da 9f 3b
       -0.013443027 -0.042818394 -0.041395858 0.0048782923
000130 7b 23 b1 3c f0 9b 91 bc a0 c2 ae bc 94 3c 42 be
       0.021623364 -0.017774552 -0.021333039 -0.18968421
000140 c8 52 d3 bc 6c 03 67 bc 3b e3 5e be b5 2f 17 be
       -0.02579631 -0.014099937 -0.21766369 -0.14764293
000150 21 ed cf bc d3 40 84 bc 84 47 20 3d 64 cb a2 bc
       -0.025381627 -0.016144192 0.039130703 -0.019872375
000160 08 9b 47 bc 0f f2 4f bd 70 79 b9 bb e7 0e 7f be
       -0.012182958 -0.050767954 -0.0056602284 -0.24908029
000170 5d ab 6a bc 21 f2 d9 3b fe 50 50 bd a0 ff f8 3c
       -0.014323083 0.0066511785 -0.05085849 0.030395329
000180 92 20 72 be 42 63 2c 3d b3 c4 62 ba 7a 0a ac be
       -0.23645237 0.042086847 -0.0008650526 -0.33601743
000190 28 99 b3 3c c7 30 df bc bd e1 a2 be c7 1f 1e bd
       0.021923617 -0.027244939 -0.3181285 -0.038604524
0001a0 0b 96 87 be 73 0b 28 3d bd f9 38 bc d2 08 c4 bc
       -0.2648166 0.041026544 -0.011290011 -0.023929987
0001b0 a9 6d 0d 3c ce c2 3a 3c d9 6f 12 3d ab d3 73 3b
       0.008632102 0.011398984 0.035751197 0.0037205021
0001c0 06 e8 2a 3d e2 3b d3 3c 6c 07 17 bc c3 01 c1 bc
       0.04172518 0.02578539 -0.009218078 -0.02356041
0001d0 57 c2 13 3d 8f 50 3b 3c c9 3b 5e be bf c3 08 3d
       0.03607401 0.011432781 -0.21702494 0.033389803
0001e0 bf ab 9f 3c f7 09 22 bd 79 18 72 be 54 19 bc 3c
       0.019491075 -0.039560284 -0.23642148 0.022961296
0001f0 16 a3 4c ba de 59 28 3c 63 6c 84 bb 84 c9 41 bd
       -0.0007806284 0.010275332 -0.004041241 -0.04731132
000200 0e 67 5c be 3d 21 54 bd 81 40 69 3c c8 fe 6e 3c
       -0.21523687 -0.05178951 0.01423657 0.014587112
000210 87 55 98 be 9b 77 0f bd 59 35 ff 3c 88 78 6d 3c
       -0.29752752 -0.035026174 0.031153368 0.014494069
000220 33 39 7c be 63 9d 4f be 08 c8 76 bb ed 28 24 3c
       -0.24631195 -0.20274882 -0.003765585 0.010019523
000230 3b ba 80 bc 9e 2b dc 3c 85 d7 5d bd 1f 64 99 bc
       -0.015713802 0.026876267 -0.054160614 -0.0187245
000240 ea 51 d6 ba a0 de 01 3d d0 6f 30 3d 4b 7a 1a bf
       -0.0016351317 0.031706452 0.043075383 -0.60342854
000250 cf 29 6f bd bb 0d a1 bb 3e 9e 55 be 83 f3 2d bc
       -0.05838948 -0.004914967 -0.20861146 -0.01061714
000260 75 cf 89 be 6e 49 0c bc ff c6 79 be 47 ee 22 bf
       -0.2691609 -0.008562429 -0.24392317 -0.6364483
000270 88 d5 8c be 9d 3e 4a bb 2e cf 97 be 93 cf 84 be
       -0.2750666 -0.0030860074 -0.29650253 -0.25939617
000280 ea 8a 54 be 5d 34 b4 3c 6f 27 aa be 0a 9b ba 3d
       -0.20756117 0.021997625 -0.3323321 0.091116026
000290 25 1e 84 be 75 66 8b be 49 28 2d 3d 85 42 20 bd
       -0.25804248 -0.27226606 0.042274747 -0.039125938
0002a0 4e f2 b8 3c 56 f2 31 3f 7f 14 0b bd 46 f3 88 bc
       0.022576477 0.695104 -0.033955093 -0.016717564
0002b0 e2 ce 0f 3d 4a 3e 71 be e1 d6 01 3d 31 07 ac bc
       0.03510941 -0.23558918 0.031699065 -0.020999523
0002c0 19 0f 4a 3d ec bb 82 bc bc f9 6d be b5 0b 70 be
       0.049330804 -0.015958749 -0.23239797 -0.23441966
0002d0 92 31 1d bd ef fb ca 3c e5 c9 70 be b2 6c 4e bd
       -0.038377352 0.024778334 -0.23514517 -0.05039663
0002e0 14 bf d1 bc 18 b9 85 be 06 0d 86 be db 98 98 3c
       -0.025603808 -0.26117778 -0.2618181 0.018627575
0002f0 8d be 2f bf fe 97 7a be bb 97 b4 3c 00 01 7c be
       -0.6865013 -0.24472043 0.022045007 -0.24609756
000300 a6 46 ff be fd fd 3a bc 77 29 bc bb ba a3 48 3c
       -0.49858588 -0.011413095 -0.0057422477 0.012246067
000310 3a 26 45 3d 62 bd 8a be cf 7c 5f be 76 69 82 3b
       0.04813216 -0.27097613 -0.21824954 0.003979857
000320 a8 0d 9e bc cf eb 80 3c e0 a8 a6 be 41 53 50 be
       -0.019293621 0.015737442 -0.32550716 -0.20344259
000330 14 c0 95 bb f7 b5 86 3d 84 08 d7 3c 42 a9 87 be
       -0.0045700166 0.06577676 0.026249178 -0.2649632
000340 71 3d 26 bd 77 6a 2d 3d 7f e2 85 be 87 79 28 3d
       -0.04058594 0.04233786 -0.26149365 0.041131523
000350 12 91 65 be 9f ba 90 be 84 7f 1a bb c5 80 19 3c
       -0.22418621 -0.2826738 -0.002357454 0.00936908
000360 35 64 ad 3c 0c 22 7c 3c d3 22 13 3d 7b 00 8d be
       0.021165946 0.015388977 0.035921883 -0.2753943
000370 21 90 b8 3c b2 3a f0 be de 65 6d bc 4f 3a af bc
       0.022529664 -0.4691978 -0.014489619 -0.021390108
000380 e3 08 7f be 87 7a 3d be bc 71 c5 3b a7 a5 99 bc
       -0.24905734 -0.18503772 0.006025521 -0.018755747
000390 99 45 bd 3d 0a 33 38 3d d5 1f 8d bd b8 6d 2b bd
       0.0924179 0.04497055 -0.06890837 -0.041852683
0003a0 03 36 52 3d f4 bd 1c 3b 93 8b f5 bc ec 12 6a bc
       0.05132104 0.0023916932 -0.02997378 -0.014286738
0003b0 b1 95 14 3d b2 a8 80 be 7b 0e 2c bd 69 24 34 bd
       0.03627557 -0.25128704 -0.042005997 -0.043980036
0003c0 09 98 74 3b 45 ba 96 bc 4e ac 59 be a7 35 4b be
       0.0037322065 -0.018399367 -0.21257135 -0.19844685
0003d0 c0 3d e6 3c 94 03 24 3d 64 b7 0c bc db f7 6f bd
       0.028105617 0.040042475 -0.008588646 -0.058585983
0003e0 2b 93 db 3c 58 e9 85 bb de 88 54 bd 46 ff c7 3c
       0.026803574 -0.0040866546 -0.05188834 0.024413716
0003f0 a8 cd fa bc 10 15 02 3d 59 81 b8 3c c3 2d 57 be
       -0.030615643 0.031758368 0.022522615 -0.2101355

net.4.bias f4 [3]
000000 d5 2d df bd 05 c3 2d bd e2 d5 88 be
       -0.10897414 -0.042422313 -0.2672568
