models/DQNAgent/Acrobot-v1.pth (torch, 276537 bytes, 6 tensors)

net.0.weight f4 [256, 6]
000000 f0 b0 d9 3e 66 35 dd 3e 92 44 6b bd 19 b5 4e 3d
       0.42517805 0.43204802 -0.05743844 0.050465677
000010 e1 2e 79 bd 2d 3c a0 3c 08 68 06 be 76 57 6a 3e
       -0.060835723 0.019559944 -0.13125622 0.22884926
000020 07 25 c0 3e 43 a2 7c be c6 a2 ef 3e 91 d2 00 3e
       0.3752825 -0.24671273 0.46803874 0.12580325
000030 56 e1 61 bd 2a 6f 78 3d 72 0f e0 3e 2c fc 31 3d
       -0.055146538 0.06065289 0.43761784 0.04345338
000040 29 bd d3 3e 49 e6 17 3e c8 74 e8 be ca 53 bb 3e
       0.41355255 0.1483394 -0.45401597 0.36587363
000050 59 64 ea bd a2 f6 9f bd b0 00 e7 bc 4e f4 53 3e
       -0.11444921 -0.07810713 -0.02819857 0.20698664
000060 b9 5e 83 be 48 c4 92 be 8a f0 00 be 89 3e 56 be
       -0.25658205 -0.28665376 -0.12591758 -0.20922293
000070 ae 58 d3 3c db af 95 be 49 68 ff 3e 9f 07 6b bd
       0.025799122 -0.2923573 0.4988425 -0.057380315
000080 9b a7 62 3e 2c 4e 9f bc c4 2d 84 bd c3 46 c3 3d
       0.22134249 -0.019446455 -0.064540416 0.09534981
000090 89 58 85 3e 0d 32 9e 3e 2f fa de 3d cc 74 96 be
       0.2604411 0.3089756 0.108875625 -0.29385984
0000a0 13 24 c5 bd 0c 1f 6e bd 96 be a4 3e 8d 99 4a 3e
       -0.09626021 -0.058135077 0.32176656 0.19785137
0000b0 1b c1 ed 3d e8 93 62 be 5c 68 5e 3e 45 24 c3 3d
       0.116090976 -0.22126734 0.21719497 0.09528402
0000c0 05 52 8e bd 4b cc 24 3f a8 d0 84 bf ca b6 ce bd
       -0.06949238 0.64374226 -1.0376177 -0.10093458
0000d0 7a 72 84 bd f8 c9 72 3e fe 87 5c 3e 8b 93 78 3e
       -0.06467147 0.23709857 0.21536252 0.24275033
0000e0 33 fe 68 3e 22 9b 0a 3e 50 95 a0 bb ac 13 ed bd
       0.2275322 0.13535741 -0.004900612 -0.11576018
0000f0 82 55 e3 bd f1 c9 04 bf 03 e4 c3 3d e8 48 d7 bc
       -0.11100294 -0.5187064 0.09564974 -0.026279882
000100 10 ba b9 3d 57 8b 94 bd 9a b2 17 3f 97 f0 6a be
       0.09068692 -0.072531395 0.592569 -0.2294334
000110 02 1f 4d 3d e1 f3 5f be 1e d2 78 3e 75 51 b0 3d
       0.0500784 -0.21870376 0.24298903 0.08609287
000120 d1 45 19 3f 3e 5e bc 3d 38 e8 52 be eb c8 26 bf
       0.59872156 0.09197663 -0.20596397 -0.65150326
000130 b9 8b a7 bd fa d4 07 3e 99 1b 10 be a1 be 20 3e
       -0.08180947 0.13264838 -0.14073028 0.15697719
000140 58 ae 9f be 94 03 8c 3d 50 b8 f3 3d 1b 0c f1 bd
       -0.311877 0.0683662 0.11900389 -0.11769887
000150 c4 51 b0 3e 1e f7 b7 3d b8 ab aa 3e c4 3d 6f be
       0.34437382 0.08982681 0.33334136 -0.23363405
000160 d4 80 be bd cf e0 ca bd 1c 2d 1c 3e 80 78 2a bf
       -0.09301916 -0.0990616 0.15251583 -0.6659012
000170 a5 42 80 3e 97 9a 52 3f 2d 1e 1b be fe 1e 5b be
       0.25050846 0.82267135 -0.1514823 -0.21398541
000180 ac a2 f1 3e d3 99 0a 3d 61 1e b1 3c ad e7 88 be
       0.4719442 0.033838104 0.021620931 -0.26739255
000190 ed 22 a1 bd 04 82 a7 3d 8c 14 2d 3d 39 69 64 bd
       -0.0786799 0.081790954 0.042255923 -0.05576441
0001a0 16 a2 51 3e 33 f6 f0 be 45 31 5d be 86 21 0d be
       0.20471987 -0.47062835 -0.21600826 -0.1378232
0001b0 d1 9a 0a be 0b b2 00 bf a0 a6 11 3f 7a 20 b5 3e
       -0.1353562 -0.5027167 0.56894875 0.3537634
0001c0 cf 76 49 bd 17 c5 32 be 02 f9 e0 be 51 48 30 bf
       -0.04918557 -0.17457996 -0.43939978 -0.68860346
0001d0 92 6f 65 3d e0 3a 5c bf 1f f6 42 be d7 4b 41 bd
       0.056014605 -0.86027336 -0.190392 -0.047191467
0001e0 8e d7 62 3d 1f 33 63 3e 1c 2d 95 bc 4e fc 59 3b
       0.05538135 0.2218747 -0.018209986 0.0033261958
0001f0 8d 61 a0 be 62 4e 0a be b7 dc 35 bf 4e 57 e8 be
       -0.31324425 -0.13506463 -0.7103991 -0.45379108
000200 cf 46 bc 3e 45 c2 c9 3e e8 c1 b3 3d a0 ec 8b 3d
       0.36772773 0.39406028 0.08777219 0.06832242
000210 ae c6 f1 be af 6a 05 be 8a e4 6d 3e 77 ae 39 be
       -0.47221893 -0.13028978 0.23231712 -0.1813296
000220 77 08 ad be b5 68 90 be f3 9b 49 3d 92 55 37 be
       -0.3379552 -0.28204885 0.04922099 -0.17903736
000230 26 32 cc 3e f7 4b 28 bd f3 bd 72 3e aa 8e 49 bd
       0.3988201 -0.04108807 0.23705272 -0.04920832
000240 ca f3 12 be 86 86 0d 3e 95 b8 9a 3d d4 88 44 3f
       -0.1435081 0.13820848 0.075547375 0.76771283
000250 41 a8 ca 3d 92 d9 90 bd b2 f8 3e 3e cf 10 db be
       0.09895373 -0.07072748 0.18649557 -0.4278626
000260 a6 c0 d7 3d 2b 79 bc be 28 a1 2b 3e 99 04 19 be
       0.10534792 -0.36811194 0.16760695 -0.1494316
000270 1b 7d de 3e b8 df e6 bd d8 f4 2d 3e 20 5a d3 bd
       0.43454823 -0.1127314 0.16987932 -0.10319924
000280 be 72 78 3e 27 85 50 3d 22 45 99 bd 64 08 50 bf
       0.2426252 0.050908234 -0.07483889 -0.81262803
000290 19 55 df 3d fd bb c0 be 70 2a d5 3d 68 5d a3 3e
       0.10904903 -0.37643424 0.10408485 0.319072
0002a0 6e e4 07 be 75 ae 8d 3d 02 86 ab be cf aa 40 3e
       -0.13270733 0.06918041 -0.33500677 0.18815158
0002b0 cb 9d 83 3c a0 1a 9f bd 4a 6f d4 be 8b a5 80 3d
       0.016066452 -0.0776875 -0.41491157 0.06281575
0002c0 38 b2 ef be 8f a8 85 3e 06 af 38 3e 67 2f 7a be
       -0.46815658 0.26105163 0.18035516 -0.24432145
0002d0 e8 71 00 3e 74 e3 e1 3e f0 09 53 3e 33 b0 bc be
       0.12543452 0.44118845 0.2060926 -0.3685318
0002e0 a2 10 fc 3d a1 48 16 3e fe cf b9 3e 95 15 fa bb
       0.1230786 0.14676143 0.36291498 -0.0076319673
0002f0 49 64 42 bd 71 db 04 3d 5f bb 20 be 34 2a ac bc
       -0.04745892 0.032435838 -0.15696476 -0.021016218
000300 52 77 a4 3e 9f 84 07 3f 95 bf a6 bd e0 38 74 be
       0.32122284 0.5293674 -0.0814201 -0.23849821
000310 0b 9d b5 bc 20 4b 0b bc 17 c8 bf 3d 66 ba 3c 3e
       -0.02216961 -0.008501798 0.09364336 0.1843048
000320 50 0e 1e bf 86 4f bb be 3d c0 7c 3c 85 46 18 bd
       -0.6174059 -0.3658411 0.015426693 -0.037176628
000330 35 01 a4 be d5 71 15 3e 9f 54 09 bf 1b 6f 52 be
       -0.3203217 0.14594205 -0.53644747 -0.20550196
000340 1a 96 e8 bd 97 24 e6 3d 6e 70 3b bd 75 b1 00 3f
       -0.113567546 0.11237448 -0.04576152 0.5027078
000350 95 12 de be 17 f4 e8 bd 1a a0 4b 3e da c4 82 3e
       -0.43373552 -0.113746814 0.19885293 0.2554081
000360 4c 9e cc 3d a4 11 45 be 70 78 90 3e e3 50 4c be
       0.0999113 -0.1924501 0.28216887 -0.19952731
000370 df 6c 82 bd ec 27 53 3e 5c ca 6b bd ca 2e 6a 3e
       -0.06368422 0.20620698 -0.05756603 0.22869411
000380 35 2b b9 3e 2d 98 87 3e b3 a5 8c 3e 88 5f a7 3d
       0.36165777 0.26483288 0.27470168 0.08172518
000390 60 de c2 be cb 4a 23 bf 14 d6 d2 be a1 c2 b0 3e
       -0.38060284 -0.63786 -0.41178954 0.3452349
0003a0 5f b8 89 3e f0 2a 4e 3e c6 d9 9d 3e cc b0 a5 bc
       0.26898476 0.20133567 0.3083021 -0.020225905
0003b0 66 2f 3f 3e 97 de 9e be 4d 7f 5b be 60 04 41 be
       0.18670425 -0.31029198 -0.2143528 -0.18849325
0003c0 2d 5c 6c bc e8 a5 1a bf 09 ce 82 be 8d 08 cb 3d
       -0.014426273 -0.604094 -0.25547817 0.0991374
0003d0 88 eb 10 be 38 3c 64 be 61 b6 ce be 70 f3 42 3e
       -0.14152348 -0.22288597 -0.4037352 0.19038177
0003e0 c5 b6 1d bf 92 d0 fd 3c d2 3d ac bd 22 2a fc bd
       -0.6160701 0.030983243 -0.08410229 -0.12312724
0003f0 db 12 89 bf 34 e3 0b be 60 db 8d bc 92 19 d8 be
       -1.0708879 -0.1366089 -0.01731652 -0.4220701

net.0.bias f4 [256]
000000 93 f9 1c 3e 3e 86 74 be 2b e2 40 be 3d 35 61 be
       0.1532958 -0.23879334 -0.18836276 -0.21992965
000010 1b 1d c9 be 78 83 e9 3e fe da 66 3e 2b 41 fe 3e
       -0.39280018 0.45608115 0.22544476 0.49659094
000020 e9 14 b9 be 66 f5 3a 3e 76 32 40 3e 0b c4 97 3e
       -0.36148766 0.18257675 0.1876925 0.29641756
000030 11 d8 d7 be 14 5e 1f bf 3d 5c fc bc 91 95 99 3d
       -0.42157033 -0.62252927 -0.030805701 0.07499231
000040 40 3a 38 3e 92 73 45 3e d7 f1 ad 3e 4e 51 0b 3e
       0.1799097 0.19282368 0.33973572 0.13605234
000050 c4 5c ed be 73 c8 a5 be 55 77 0e bf d5 6a e9 be
       -0.46359837 -0.32379493 -0.55650836 -0.4558932
000060 3f da 68 3e 0c e5 33 3e c0 10 04 3f 0b 80 91 be
       0.22739504 0.17567843 0.5158806 -0.28418002
000070 80 81 f0 be d9 91 62 be 87 ae 1e 3e f5 ee 95 3e
       -0.469738 -0.22125949 0.15496264 0.29283872
000080 55 a3 d3 3b e4 46 89 3c 10 85 d5 be 56 6c a7 be
       0.0064586797 0.016757436 -0.4170308 -0.3269984
000090 82 26 b7 be 9b d6 3b bf b9 22 28 bd 16 7f a4 bd
       -0.35771567 -0.73374337 -0.04104874 -0.08032052
0000a0 3e ea 23 be 0c 73 ce bd eb 22 8c 3d b0 13 86 bd
       -0.16007325 -0.10080537 0.068425976 -0.06546724
0000b0 32 08 e2 be 02 7f b5 3d c5 d8 28 bf 1c 9c 6a be
       -0.44146878 0.088621154 -0.65955764 -0.22911114
0000c0 ac 70 61 bd a7 8c bb 3e 20 47 e3 bd 41 bc fe be
       -0.055039093 0.36630747 -0.110975504 -0.49753
0000d0 85 a6 b8 bd 08 88 d2 3e e0 ee ec bd 3f bc 8a 3e
       -0.09016136 0.4111941 -0.11568999 0.27096745
0000e0 01 97 e3 3d c4 1b f8 be 2c 25 be 3d b2 98 a5 be
       0.11112786 -0.48458683 0.09284434 -0.3234306
0000f0 49 6d 72 be 15 e2 bf be 5a 78 ce be ba dd 98 3e
       -0.23674501 -0.37477174 -0.40326196 0.29856664
000100 2e 94 1a bf db df 73 3e 53 af 40 bf e9 a0 39 be
       -0.60382354 0.23815863 -0.75267524 -0.18127789
000110 0a de 34 be 40 76 e6 3e be 7c 7f bd 94 2b 4e 3e
       -0.17662826 0.45012093 -0.062374823 0.20133811
000120 a1 5d 21 3e 15 66 3b 3e ae 4e 8e be b0 53 a9 3e
       0.15758373 0.1830066 -0.27794403 0.3307166
000130 fd d7 5c be 86 45 f4 be 20 6f d2 3e 35 21 cb be
       -0.21566768 -0.47709292 0.41100407 -0.39673772
000140 1b c4 96 be 83 a4 05 3d fa 65 af 3e 25 f3 ca be
       -0.29446492 0.032627594 0.3425749 -0.3963863
000150 7a 2a 1e be 66 42 b7 be a2 a0 7a 3e 34 ca 9e 3e
       -0.15445891 -0.35792845 0.24475339 0.31013644
000160 41 21 ae 3e 78 79 13 bf 92 ee cb be 76 b1 39 be
       0.34009746 -0.5760722 -0.39830452 -0.18134102
000170 20 44 b3 3c e5 be 66 3e 48 29 46 3d 2e 62 cf be
       0.02188307 0.22533758 0.048379213 -0.40504593
000180 5c ec 7c be e1 3e 48 3e dc b2 8e be f8 0e 04 bf
       -0.24699539 0.19555236 -0.27870834 -0.5158534
000190 a4 71 fc be 03 40 a4 bb 9a e2 99 3e 16 b9 10 3e
       -0.4930545 -0.0050125136 0.30055696 0.14133105
0001a0 40 09 16 bf 30 4f 20 3e de 0d 07 bf 08 13 5d bd
       -0.58607864 0.15655208 -0.52755535 -0.053973228
0001b0 5c d8 c1 3d 9b 56 50 be de 5f e7 3e 7c 0e 89 be
       0.094650954 -0.20345537 0.45190328 -0.26768863
0001c0 c5 a0 21 3e cd 8f 12 bf 4f 29 13 3c 53 2e b5 bd
       0.15783985 -0.5725067 0.008982017 -0.08846726
0001d0 82 0e 3f 3e 56 ba 04 bd cf 8a e6 bc d9 b3 a1 be
       0.18657878 -0.032404266 -0.028142361 -0.31582525
0001e0 b8 e8 fe 3d 8a fd 04 bf e8 6c 53 3e 98 61 37 be
       0.12446731 -0.5194937 0.20647013 -0.17908323
0001f0 57 90 8c be d1 ab 8e be 7b 3c 64 3e 88 2e a9 be
       -0.27453873 -0.2786546 0.22288696 -0.33043313
000200 9d 63 5c be b7 ab 16 be cf 7b c1 be 4a da ad 3e
       -0.21522374 -0.14713942 -0.3778977 0.33955604
000210 7a 6a 39 3e 6d 18 e7 be 78 92 92 be c6 d5 fd bc
       0.18107024 -0.45135823 -0.28627372 -0.030985724
000220 7d cc 78 be 12 74 0b be 2b 68 aa 3e d9 32 02 3d
       -0.24296756 -0.13618496 0.332826 0.031786773
000230 13 de 25 3e 6d ee 66 be 4a da da 3e 8f 8d 79 bd
       0.16197996 -0.2255189 0.42744666 -0.060926016
000240 25 0a e3 bd 72 b6 85 3c d4 99 af 3e 97 a5 ae 3e
       -0.11085919 0.016322348 0.3429705 0.3411071
000250 ce 31 13 3e c1 b5 a7 3e 3d c2 a6 be 45 c6 b5 bd
       0.14374468 0.32755855 -0.32570067 -0.088757075
000260 b8 90 f9 bd c0 e2 86 bd 72 62 8c bd b9 b3 77 be
       -0.12185806 -0.06586218 -0.068547145 -0.24189653
000270 69 24 81 3e 3e 8a c1 3e 7b 35 15 bf 41 14 a2 be
       0.2522309 0.37800783 -0.5828473 -0.31656078
000280 8b 3a a8 be d3 33 92 3e a0 24 20 3d 91 9a 2a be
       -0.32857165 0.28555164 0.03909743 -0.16660525
000290 22 73 b3 be 05 84 1f 3d ef cc b3 3e 1f bf c4 be
       -0.35048777 0.038944263 0.3511729 -0.38427064
0002a0 71 0a 83 3e d3 f4 38 bd 1a d0 88 3e 92 2f 93 bd
       0.25593904 -0.045155358 0.2672127 -0.07186808
0002b0 c9 2a c8 bd 44 f1 c9 3e 26 5c ad 3e b8 64 f9 3e
       -0.097737856 0.39441884 0.33859366 0.48709655
0002c0 0f 72 ff bd 39 b7 75 3d 41 e2 8e 3e 55 33 e0 be
       -0.12472927 0.059989188 0.27906993 -0.43789163
0002d0 3f c4 ae 3d a1 67 fc be 26 83 6a 3e 3e e3 f7 be
       0.08533525 -0.49297813 0.22901592 -0.4841556
0002e0 a8 25 f5 bd 1f 6f 90 3e 1d c4 1b bf 38 91 23 bf
       -0.11970073 0.2820978 -0.6084612 -0.6389346
0002f0 56 9b 0f bf 45 34 b1 3e b9 ed b3 3e 9b 04 45 be
       -0.560964 0.3461019 0.35142305 -0.19240038
000300 4e c6 0d bd b0 77 a3 bd e7 8e e4 be 57 4f 01 3f
       -0.034612946 -0.07981813 -0.44640276 0.5051169
000310 79 b1 91 3e c2 df 1e be 8c a3 38 bd be ae c7 be
       0.28455713 -0.15515044 -0.045077845 -0.39000505
000320 02 c3 cd 3c ca c6 68 be c1 4a a3 be c7 b8 28 3e
       0.025117401 -0.22732082 -0.3189297 0.16476737
000330 e1 75 33 3e 02 93 42 3e 78 71 a2 be 11 a1 8d 3e
       0.17525436 0.19001392 -0.31727195 0.27661946
000340 78 ca 88 3e ad 23 05 3e 30 d0 18 bd 94 45 ea 3e
       0.2671697 0.1300189 -0.037307918 0.4575621
000350 d2 c5 cf be 72 29 7a be 1b 3e c1 3e 24 04 d1 3e
       -0.40580612 -0.24429873 0.37742695 0.40823472
000360 72 f9 99 be 5f 9a c7 3e 86 4d 13 3e 47 97 24 3e
       -0.30073124 0.38984963 0.14385042 0.16073333
000370 8f 1c cd 3e 3c a9 8f be 4f 59 9a 3e 2b 8a d2 3e
       0.4006085 -0.28058803 0.30146262 0.4112104
000380 3c 97 c0 be ac c7 a4 be 36 aa 2c bf c3 5e 99 be
       -0.37615383 -0.32183588 -0.6744722 -0.2995511
000390 f8 2c 0b bf 20 97 b6 3d 27 ed bb 3e c8 ec 38 3e
       -0.5436549 0.089155436 0.3670437 0.18059075
0003a0 7b 6c 85 3e 11 c8 72 bd d3 ab 69 be 68 fb 8e bd
       0.26059327 -0.05927283 -0.22819452 -0.06981546
0003b0 ee f8 02 bf e0 92 f6 3b 8b dd ec 3e 59 00 83 be
       -0.51161087 0.007524833 0.46262774 -0.25586203
0003c0 a5 df 88 bd de 47 10 bf 19 f6 d8 bd 55 a3 8c be
       -0.06683282 -0.5635966 -0.105938144 -0.27468362
0003d0 3c 36 f5 3e 2d 27 13 bf a3 0b e8 be 6a d3 42 be
       0.4789294 -0.5748165 -0.45321378 -0.1902596
0003e0 b7 b6 22 3d 2e 14 54 be 20 73 cb 3d 93 94 86 3e
       0.03972503 -0.20710823 0.09934068 0.26285228
0003f0 ef bf b4 be 0b 7b b8 be 13 f5 33 3e 25 fe 2a bf
       -0.35302684 -0.36031374 0.17573957 -0.66794044

net.2.weight f4 [256, 256]
000000 66 e1 73 bd 4f e6 e2 3c 99 3d a1 bc 7e 2e c6 bc
       -0.05954113 0.02769771 -0.019682692 -0.024192091
000010 88 80 89 bc 69 0d 60 bd de 7c b6 3c 87 1b de bc
       -0.016784921 -0.05470029 0.022276338 -0.027112735
000020 29 b4 2c bd 12 00 58 bd 36 25 56 3c f7 b4 bb bc
       -0.042164 -0.052734442 0.013070395 -0.02291344
000030 ba 73 a8 bb 26 f5 50 bc 31 53 23 bd 4b 9e 0e 3c
       -0.005140749 -0.01275376 -0.03987426 0.008704732
000040 35 ba ae 3c a7 8c 28 bd 94 a6 19 3b 28 6e 18 bd
       0.021329025 -0.04114976 0.0023445236 -0.03721443
000050 5c f6 bb bc 67 ee 2f 3d 58 7f 06 3a 16 0c 0e 3d
       -0.022944622 0.042951968 0.000513067 0.034679495
000060 18 77 0c bc 38 37 2e bd 25 4b 3b bd 18 d0 e5 3c
       -0.008573316 -0.04253313 -0.04572596 0.028053328
000070 e1 20 1a bd a7 5e d2 3c 03 9d 83 bb d9 a7 ad 3a
       -0.037629012 0.0256799 -0.00401652 0.0013248875
000080 1d ae 3d 3c 2c cc ea bc 9d 76 cf 3c f0 ab 61 bd
       0.011577156 -0.02866181 0.025325114 -0.055095613
000090 d1 16 04 bd 0a b9 12 3d 96 ef 6d 3c bf fe ae bc
       -0.032248322 0.035821 0.014522454 -0.021361707
0000a0 f3 39 3b bc f1 c5 f4 bc c2 c2 f3 3c 48 c3 90 bc
       -0.01142739 -0.029879542 0.029755954 -0.017671242
0000b0 7a 00 d9 ba 81 92 17 bb 47 e8 13 3d 76 8e 20 bd
       -0.0016555928 -0.0023128095 0.03611019 -0.03919836
0000c0 01 a3 fe bc 1d f5 9c 3c 5d 6b 66 3c 7c 32 c5 bc
       -0.031083586 0.019159848 0.014063683 -0.024071924
0000d0 38 be 83 bd da ae d8 bb b3 cf d2 3c 64 7c 83 bb
       -0.06432766 -0.006612641 0.025733804 -0.0040126313
0000e0 ed 2a 0e 3d 2a 09 1f bd a2 ba 4f 3c 61 35 f9 bc
       0.034708906 -0.0388271 0.012678774 -0.03042096
0000f0 1f 9c e1 3c 15 10 15 3d 7f eb 7d 3c c5 b4 bc 3c
       0.027540265 0.03639229 0.015498041 0.023035416
000100 23 1d 04 bd bb 71 6b bd d8 b6 40 bd 0a ad fb 3c
       -0.03225435 -0.05748151 -0.047049373 0.03072216
000110 e6 53 e5 3b ea 36 49 bd e1 20 c2 3c 1c e0 36 3d
       0.006998527 -0.049124636 0.023697319 0.04464732
000120 10 a4 45 bd 33 f0 b1 3c a3 ec f5 3b 5b 27 95 3b
       -0.048252165 0.021720981 0.007505016 0.0045518107
000130 d0 d2 fa 3c f8 81 35 3d 89 27 87 3b 0a 5e 1e 3d
       0.030618101 0.0443134 0.004124586 0.0386639
000140 49 c4 a6 3c b0 fd fc bb da 43 73 bd e2 19 15 bb
       0.020357268 -0.0077206716 -0.05939088 -0.0022751023
000150 d9 00 4b bd 5a d3 76 3c 3c 0f 00 bc 51 ce 7a bc
       -0.049561355 0.015065039 -0.007816132 -0.015307979
000160 fa 78 4c bd 14 00 f3 bc 3f 25 14 3d f4 63 00 3c
       -0.04992006 -0.029663123 0.036168333 0.007836331
000170 9e f2 23 3c 9c 57 f4 bc 7b 0d 0a bc 96 76 4d bc
       0.010006575 -0.029826932 -0.008426066 -0.01254048
000180 8f d5 09 3d 5f 5b 15 bd 10 7d fc 3c ee 31 0a 3d
       0.03365093 -0.03646409 0.030821353 0.033739023
000190 ff 4d 37 bd 7f aa 9c 39 f2 15 aa bc a7 9a dd bc
       -0.044752117 0.00029881668 -0.020762417 -0.027051283
0001a0 af 0e ad 3c 71 cf c2 bb 70 7a 2f 3d 69 27 3d bd
       0.021125166 -0.005945139 0.042841375 -0.046180163
0001b0 72 d1 e1 3b f7 0e 68 bd 9f eb c8 bc 91 d7 4d bc
       0.006891423 -0.056654897 -0.024526415 -0.012563602
0001c0 a7 25 d8 3c a7 24 d3 3c 0c 92 24 bd 0d 94 d2 ba
       0.026385142 0.025774313 -0.040178344 -0.0016065851
0001d0 2f ff 2b bd 5b f4 0a 3b d3 f8 26 bd 69 29 f9 bc
       -0.04199141 0.0021202776 -0.04076464 -0.030415254
0001e0 62 4e 99 3c ca e6 37 bd 07 18 3f bd 87 71 f0 bb
       0.018714134 -0.044897832 -0.046653774 -0.0073377523
0001f0 c8 a3 0f bc 7f 9f 12 bc b6 04 2f 3d 8d 5a f1 bc
       -0.008767076 -0.00894916 0.042729102 -0.029462123
000200 c7 5a f3 bc 2f d1 15 bd f2 37 15 bc f6 8e e7 bc
       -0.029706372 -0.036576446 -0.009107577 -0.028266411
000210 ef ec 65 3c 30 10 34 bb 5e 04 80 3c 8d 94 a6 bc
       0.01403354 -0.0027475469 0.015627082 -0.020334506
000220 5b 96 22 3d 91 f7 28 3d a4 c9 74 bd 20 0b 4e bc
       0.03969417 0.041251723 -0.059762612 -0.012575895
000230 94 17 4b bd d9 4b aa 3c df 1c 2f bd 31 67 21 bd
       -0.049583033 0.02078812 -0.042752143 -0.03940505
000240 70 43 48 3d 84 46 6a bd f9 d5 a0 3c 2b cd 42 bc
       0.04889244 -0.057196155 0.01963328 -0.011889736
000250 7c 45 20 3d 89 6c 27 bd 73 61 83 3c 1a 76 c1 3b
       0.039128765 -0.04087499 0.016037678 0.0059039714
000260 a8 20 4c bc f1 cc 08 3d cb 83 3e bd f6 6f 21 bd
       -0.012458958 0.033398572 -0.046512406 -0.039413415
000270 ca be 03 3d 4b b7 f0 bc bd 78 10 bd e4 cc 1c bb
       0.032164373 -0.029384276 -0.035271395 -0.0023925835
000280 46 51 80 bc c1 e9 bb bc 08 3f 48 bd 0a 82 a6 3a
       -0.015663754 -0.022938611 -0.048888236 0.001270355
000290 9c 77 2c bd 68 a8 41 bc 55 88 4a 3c 29 0a 1a 3c
       -0.042106256 -0.011819936 0.012361606 0.009401836
0002a0 94 f0 18 bc ab 99 f7 bb fe dd 6a bc 1e 2a c7 bc
       -0.009334702 -0.0075561604 -0.014335154 -0.024312075
0002b0 6a 0a a9 bc d0 65 07 bd de 3c d4 bc d3 e9 02 3d
       -0.020634849 -0.03305608 -0.02590793 0.031961273
0002c0 b5 2c 06 bc 97 89 b0 3a 27 8f 8e 3c c5 83 7a bb
       -0.00818937 0.0013468739 0.017402245 -0.0038225513
0002d0 9c c3 1c bd ff 5c 4a bd 0c aa 0b bd fb 14 8f 3c
       -0.038272485 -0.049405094 -0.034097716 0.017466059
0002e0 f9 6f 3f bd 19 c6 c3 bb 77 7b 98 3c 47 97 c3 3c
       -0.046737645 -0.005974543 0.01861356 0.023875846
0002f0 2f 43 71 3c 55 cb ad bb 4e 91 8d 3c 5b 3b b9 3c
       0.0147254905 -0.00530378 0.0172812 0.02261131
000300 48 bf 94 3a 58 92 78 bc 40 b9 20 bd 82 fb da bc
       0.001134851 -0.01517161 -0.03923917 -0.026731256
000310 0c 27 cf bc 52 81 6b 3b bf 58 b0 bb 09 10 a2 3c
       -0.025287174 0.0035935235 -0.005381673 0.019783037
000320 09 32 05 3d ea fc db bc 4a 2e 3e bd 7b aa cd bc
       0.03251842 -0.026853997 -0.046430863 -0.025105705
000330 b0 e8 12 bd 7f a9 40 3c 7f 49 01 bd 6e 3f a7 bc
       -0.03586644 0.011759161 -0.031564232 -0.020415988
000340 9e c2 d6 bc 91 4b f3 bc c9 f8 c4 3b 52 fc 15 bd
       -0.026215848 -0.029699119 0.006011103 -0.036617585
000350 2d e6 25 bb f8 ea 0c bd a1 9a ae bc e8 07 1e bc
       -0.0025314197 -0.03440377 -0.021313967 -0.00964544
000360 3f 7f 02 bb f9 c7 95 bc f9 dc 1a 3c 13 60 e2 bc
       -0.001991227 -0.018283831 0.009452098 -0.027633702
000370 ab 3c de bc d6 cd 13 bd 71 50 d7 bc f9 4f 80 bd
       -0.027128538 -0.036084972 -0.026283475 -0.062652536
000380 a2 5c 26 3d 9c 80 bf bc d0 1f a6 bc 7a 38 94 3b
       0.040615685 -0.023376755 -0.020278841 0.004523334
000390 03 d5 4f 3c 31 b2 aa bc c7 40 8c 3c ad 9c 32 bd
       0.012685063 -0.020836921 0.017120732 -0.04360645
0003a0 ce e3 99 3a 24 71 e7 b8 7c 0b 23 bd 46 d7 0b bd
       0.0011740865 -0.000110360124 -0.039805874 -0.034140848
0003b0 f5 07 4c 3c 7f ed b7 bb f3 37 9e 3c 69 16 06 3d
       0.012453069 -0.0056130285 0.019313788 0.032736216
0003c0 a0 a3 da bc f7 2d ab bc a0 6f d9 bc c2 97 0f bd
       -0.02668935 -0.020895941 -0.026542485 -0.035056837
0003d0 f9 3a f2 bc cd 03 24 bd e9 76 98 3c 0e d1 0d 3d
       -0.029569136 -0.040042687 0.018611388 0.0346232
0003e0 5c e9 7d 3b 08 7c 0f bd 38 a5 59 bd 8b d3 10 bd
       0.003874383 -0.035030395 -0.05313608 -0.035357993
0003f0 97 84 d2 3a 73 84 71 bc 19 c5 11 3c f9 e6 3c 3d
       0.0016061243 -0.014741051 0.008897089 0.04611871

net.2.bias f4 [256]
000000 27 f9 5f bd d1 81 be bc ae 69 03 bd 85 68 db 3d
       -0.05468097 -0.02325526 -0.032083206 0.10713295
000010 69 b5 46 bd 6f fd 7d 3c a3 b4 18 3e fb 67 0f 3d
       -0.04851285 0.015502318 0.14912657 0.035011273
000020 dd 2f b1 bc dc 8d 82 3e 95 80 b6 3c 7f a2 00 3e
       -0.021629268 0.25498855 0.02227811 0.12561987
000030 6d 16 a8 3d ec 36 45 bd d9 27 8f 3e 06 91 d8 3d
       0.082074024 -0.04814808 0.2796009 0.10574536
000040 14 0e bb 3c 73 93 0a 3e 24 fa 4a 3e e6 d0 3e bd
       0.022833861 0.1353281 0.19821984 -0.04658594
000050 40 1e 7c bc 41 80 2b 3e 78 88 e2 bd 1e 7a 55 bd
       -0.015388072 0.16748144 -0.110611856 -0.052118413
000060 ec d0 cd 3d 1f a1 a7 3d 74 1a 25 3e 20 77 a7 3d
       0.10049614 0.08185028 0.16123372 0.08177018
000070 f3 36 b1 bc 2c 6f 8c bd 8a 8a 6a 3d 94 09 08 3e
       -0.021632647 -0.06857142 0.057261027 0.13284904
000080 88 e8 12 bd a6 95 c8 3b dd c8 50 3c 75 8d 0a 3e
       -0.03586629 0.006121355 0.012743202 0.13530524
000090 58 11 d7 bd c9 fe 1c bd ca 88 0b 3e 97 5f 04 3d
       -0.10501355 -0.03832892 0.136264 0.032317724
0000a0 f9 7d e3 bd 04 eb 8a 3e ac 54 90 3c 45 f1 0e bb
       -0.11108012 0.27132428 0.0176185 -0.0021811288
0000b0 9d ef 6a bd b0 61 c7 3b a1 74 57 3c b0 49 0c bd
       -0.05735742 0.0060846433 0.013150365 -0.03424996
0000c0 4e 0c 9e 3d 2b 6b 00 3b fd 3a 4d 3b b0 b5 9d 3d
       0.07717191 0.0019595127 0.0031315677 0.0770067
0000d0 f9 97 c0 bc 65 f6 c9 bc 62 40 04 bd 9a 67 17 3c
       -0.023509966 -0.024653623 -0.032287963 0.009241009
0000e0 6d 7a ee bc b6 93 d3 bb db 3b b5 3d a5 6f f1 3b
       -0.029111112 -0.0064568175 0.08849307 0.0073680454
0000f0 1a 71 a6 bc 95 e5 01 ba 16 e8 cc 3c 98 0e 45 3d
       -0.020317603 -0.000495517 0.025013011 0.04810962
000100 0f 52 11 bc 0d fd 86 bc d7 7c 6a 3c f5 e3 1a 3e
       -0.008869662 -0.016478086 0.014311991 0.15126021
000110 75 ae 0f bd a3 0f 92 3d ca 95 10 3d ce e6 16 3d
       -0.035078485 0.07131889 0.0352991 0.036841206
000120 22 b5 e7 3d c4 52 5e 3e d7 ee 1a bd be b9 4f bd
       0.11313845 0.2171126 -0.03782543 -0.050714247
000130 d5 b0 f3 3d 0e 3f bb bb a0 00 d3 bc 47 25 1d 3e
       0.118989624 -0.005714304 -0.025757134 0.15346251
000140 4b 69 b6 3d 9b 6f 5c bc 33 7a d6 3d f8 be e9 3c
       0.08906802 -0.013454343 0.104725264 0.028533444
000150 48 c2 d9 3b ca ef 1e 3e 37 3a 6e bd ce aa 06 3c
       0.0066454746 0.1552116 -0.058160987 0.008219434
000160 ff 1b 61 3d ac 4c e7 3d fa 00 76 3d e6 be 19 3e
       0.05495834 0.11293921 0.060059525 0.15014228
000170 c6 96 d4 3c 95 41 0a 3b 84 fb 89 3d c7 2d 9b bd
       0.0259508 0.002109622 0.06737426 -0.07577091
000180 6f 7a 9b 3d 52 00 1c bc da f6 67 bc 63 e7 50 3d
       0.07591712 -0.009521561 -0.014157975 0.051001918
000190 9f 9e 47 bd ba c6 29 bd 48 b6 d9 bc fc e4 16 bb
       -0.048735257 -0.041449286 -0.026576176 -0.002302467
0001a0 d8 1f ef bc ef 66 a2 3b 2f 31 8d bd 6e 31 e7 3d
       -0.029189989 0.0049561183 -0.06894147 0.11288725
0001b0 dc f4 8e 3c 7d 12 c0 3d 49 1c d2 3d 74 65 03 bd
       0.017450742 0.09378526 0.10259301 -0.032079175
0001c0 51 c7 9b bc c3 dc 68 bd c5 62 94 3a 11 d5 35 bd
       -0.01901594 -0.05685116 0.001132094 -0.04439265
0001d0 7e 88 a0 bc a4 1a 43 bd 17 d8 01 3e 5d 6f 16 3e
       -0.019596335 -0.04763283 0.12680088 0.14690919
0001e0 b6 e3 c0 3d dd cd 03 3e 62 9e cb 3c 87 c0 3a bd
       0.094184324 0.128715 0.024855796 -0.045593765
0001f0 f6 2a 77 bd 56 82 2a 3c 6b 14 8c 3d 87 3e 71 3c
       -0.060343705 0.010407051 0.06839832 0.01472438
000200 df aa 30 3d 39 ff e4 3c b8 14 d8 3d 0d 50 d2 3d
       0.043131705 0.02795373 0.10550827 0.10269175
000210 0d 50 b4 3d c2 59 90 bc ba 5c 3d 3b 30 69 cc 3c
       0.08804331 -0.017620925 0.002889438 0.024952501
000220 98 8e 0c 3e 7a 09 f0 3d 9f 59 ca bc df 5c 0c 3d
       0.1372627 0.117205575 -0.024700938 0.034268256
000230 a2 b9 be bd ff 50 54 3e 0d 0f 53 bc f0 c3 ea 3d
       -0.093127504 0.20734023 -0.012882006 0.11463153
000240 93 56 d9 bc 3c 67 96 bc 7a 00 b1 3c ea f0 76 bd
       -0.02653054 -0.018359773 0.021606673 -0.060288347
000250 b7 ff 62 bb 7c 98 fc 3d 2b 28 86 bc 8e 76 14 3e
       -0.0034637281 0.123337716 -0.016376575 0.1449835
000260 29 1f 0d bd f1 97 24 bd 03 5d 07 3e 1b 15 a4 39
       -0.034453545 -0.040183965 0.13219075 0.00031296242
000270 af cd 29 3d 44 ec d8 bc bf d1 28 3c dc 8b af 3d
       0.04145592 -0.026479848 0.010303914 0.08571598
000280 86 e8 16 3e b1 84 86 bd 03 65 02 3e 1c 4d bd bc
       0.14737138 -0.065682776 0.12733845 -0.023108058
000290 25 bd 50 bd 4f 2d 2d bd d2 55 07 3e 29 c8 1c 3e
       -0.050961632 -0.042279538 0.13216332 0.1531073
0002a0 1d 7f 52 bd 1c b2 22 3e ca 96 e2 3d eb 91 b6 bd
       -0.051390756 0.15888256 0.11063917 -0.089145504
0002b0 d3 4d 5b bd d4 53 87 3d 6a 7c 06 3d cd c7 63 3e
       -0.053541016 0.06607786 0.032833494 0.22244187
0002c0 ee 37 cd 3d 3c 7c 10 bd 96 22 0f bd 92 62 aa b7
       0.10020433 -0.03527473 -0.034945093 -2.031148e-05
0002d0 90 a1 a6 3c fe d2 46 3d 87 ec 98 3d f3 87 1b 3e
       0.02034071 0.04854106 0.07466989 0.1518858
0002e0 87 2b 50 bc e5 7b f4 3c 15 6f d6 3d ac 5b f6 3d
       -0.01270569 0.029844234 0.10470406 0.12029204
0002f0 5c cd 70 3c 2b f6 14 bd 7e 74 30 3d e2 83 dd 3d
       0.014697399 -0.036367577 0.043079846 0.1081617
000300 83 e1 f3 3c 77 ba 9e 3d 54 3f 39 3c 04 d4 25 bd
       0.029770618 0.07750409 0.0113066025 -0.040485397
000310 0a 56 e7 bc b2 da 03 bd 3f 88 bb bc c3 ca 10 3e
       -0.028239269 -0.032190986 -0.022892116 0.14139847
000320 aa f9 46 bd a0 15 ef bb 23 5d 01 3e 1f 96 cb 3c
       -0.048577942 -0.007296279 0.12633185 0.024851857
000330 2d 61 14 3b 66 9e 39 bd 40 92 00 3e df ff 07 3b
       0.002264093 -0.045317076 0.1255579 0.0020751876
000340 13 58 d5 3d 9b 17 6c 3d d8 f2 b1 3c 1c a9 cd bc
       0.104171894 0.0576397 0.021722242 -0.025105052
000350 1b d3 25 bd ce 92 6e bd 6d d3 6b 3e 89 14 01 3e
       -0.04048453 -0.058245473 0.23029871 0.1260549
000360 ff af ef 3d 77 5c 03 3e fc 22 d8 bc 1d c0 f1 3b
       0.117034905 0.12828241 -0.02638387 0.007377638
000370 31 11 9e 3a 00 01 36 bd 9e 02 eb 3d 81 37 aa bd
       0.0012059567 -0.044434547 0.114751086 -0.08311368
000380 ad a7 64 bc 19 54 c9 3b 24 a2 a7 3d 3c a9 0f 3e
       -0.013955993 0.0061440584 0.08185223 0.14029402
000390 88 fa ab bc 1d 32 d0 3d 77 65 c9 3d a2 f5 c0 3d
       -0.020993486 0.10165808 0.09833806 0.09421851
0003a0 00 b6 63 3e 46 56 f6 3d fe 63 50 bd 06 2a 90 3d
       0.22237396 0.12028174 -0.05087661 0.07039265
0003b0 0e 60 d6 3d b5 d6 b5 3d 2c db 01 3c 47 5d 73 bb
       0.1046754 0.08878843 0.00792579 -0.0037134455
0003c0 a8 3a 0b 3e 6f 66 17 3d 97 b4 10 bd 78 99 92 3e
       0.13596594 0.036962923 -0.035328474 0.28632712
0003d0 bd 73 fa 3d f0 e5 99 bd 96 52 ee 3d c5 fa 81 3a
       0.122291066 -0.0751456 0.11636846 0.0009916654
0003e0 9c 22 10 bc 51 8f 1a 3e 42 7b 18 3e 0e 88 ab bc
       -0.008797314 0.15093733 0.14890769 -0.0209389
0003f0 a4 75 0f 3d 40 7e 90 3d 6e 71 3a 3e fe 35 cb 3c
       0.0350243 0.0705533 0.18207332 0.024806019

net.4.weight f4 [3, 256]
000000 da 4a 99 bc 3d 64 41 3c 45 61 84 3c 09 c5 0a be
       -0.01871245 0.011803684 0.016159663 -0.13551725
000010 c3 89 19 3d e2 95 30 bc a4 47 95 bd dd 45 b3 3c
       0.037484895 -0.010777922 -0.07289055 0.0218839
000020 ab 00 f3 3c 01 10 96 be 30 23 be bb b1 be c9 bd
       0.029663404 -0.29309085 -0.0058025345 -0.098508246
000030 a7 d3 14 be a5 36 c5 be 59 95 5c bd 55 4e 1d be
       -0.14533864 -0.38518253 -0.053853367 -0.15361913
000040 74 6b ad 3c 4c fc 01 be ca 03 7c be 33 a1 9e 3c
       0.021169402 -0.126939 -0.2461082 0.019363975
000050 da 3a 17 3d fc cb 3c be d7 a1 dd be 77 2a 24 bd
       0.03692136 -0.18437189 -0.43287537 -0.04007956
000060 38 b1 a7 bd 59 a7 9f bd e7 50 fb bd 6a 23 e3 bd
       -0.08188099 -0.07795591 -0.1227129 -0.11090739
000070 9f b7 c3 bc c4 4a b4 39 cc 42 b3 bd 16 ec a6 be
       -0.023891268 0.0003438798 -0.08752975 -0.32601994
000080 56 67 91 bc 9b 44 e1 bb c4 39 85 bc 57 ce e7 bd
       -0.01774947 -0.0068746335 -0.016262896 -0.11318653
000090 37 b4 6e bf dd e9 67 3c 90 7d a6 3f 11 d4 4f 3f
       -0.93243736 0.014154878 1.3007069 0.8118296
0000a0 53 a7 2e bf 23 53 9b bd 6d f6 9f bb a9 27 cb bb
       -0.68224066 -0.075842164 -0.004881671 -0.006199796
0000b0 05 a3 f9 bc 68 38 e7 3c 70 12 a1 bc b3 7b fa 3c
       -0.030473242 0.028225139 -0.019662112 0.030576563
0000c0 3b e4 b7 bd 2e 76 8a bc 1d 56 06 3d 77 55 82 bd
       -0.089790784 -0.016902056 0.032796968 -0.063639574
0000d0 0a 42 1b 3d 29 69 6b 3c b3 50 39 bd 04 4d fd 3c
       0.037904777 0.014368334 -0.045242976 0.030920513
0000e0 8e 85 07 3c 7b 8b 24 3c 0c ca 06 be 30 62 8b bf
       0.008271588 0.01004302 -0.13163012 -1.088934
0000f0 ab 44 f5 bc b0 ad 06 3d 77 fb 00 3d 16 a6 01 be
       -0.02993997 0.032880485 0.031489816 -0.12661013
000100 5f eb 27 3d 58 24 01 bb 5e 05 29 bd ee 0c a3 be
       0.04099595 -0.00197055 -0.041264884 -0.31845802
000110 eb ae 02 bc 4a bc d7 bd d9 62 52 bf 27 28 1f 3f
       -0.007976274 -0.1053396 -0.8218208 0.6217064
000120 4e de df bd 0e db 49 be d4 50 23 3d 36 d3 de bc
       -0.10931073 -0.19712469 0.039872006 -0.027200323
000130 65 fb 56 be 4a d2 82 3c 63 fd d9 3f c5 61 0f bc
       -0.20994337 0.015969414 1.7030452 -0.008751337
000140 14 bd d5 bd 05 76 b6 bc af e6 34 be e6 cd b3 3b
       -0.104364544 -0.022273073 -0.17666124 0.0054871915
000150 67 10 66 3b 7c 4b 52 be 58 05 85 3d 26 38 c7 3c
       0.0035104991 -0.20536608 0.0649516 0.024318766
000160 15 a3 a4 bd 51 06 d7 bd f8 57 fe bd 58 80 0b be
       -0.08038918 -0.10499252 -0.124191225 -0.13623178
000170 c5 9d 35 3c 8e 8f 89 3b e8 0d 94 bf ed 02 87 bc
       0.0110849785 0.0041980213 -1.1566744 -0.016480887
000180 88 d8 c9 bd f5 64 13 bd 44 3e 30 3c a1 7c cb bd
       -0.09855753 -0.035984952 0.010757033 -0.099358805
000190 fe d2 29 3c ce 8c 09 3d 70 dd 70 3f a5 66 b1 bb
       0.010365246 0.033581547 0.94087887 -0.0054138475
0001a0 71 a5 a1 bc 82 07 b9 bb 35 b6 d7 bc 92 a8 c1 bd
       -0.019732209 -0.005646647 -0.026332 -0.0945598
0001b0 f5 76 80 3b 83 87 fb bd 97 e8 07 be ce 09 e9 3b
       0.003920431 -0.12281706 -0.1327232 0.0071117645
0001c0 f2 ad 3d 3d 08 4b ff bb 35 22 2b 3c f1 eb e1 3f
       0.046308465 -0.007790927 0.010445167 1.7650129
0001d0 a6 88 77 3b e3 e2 c0 bb 7e 55 0d be 6a d3 81 be
       0.0037770658 -0.005886422 -0.13802144 -0.2535661
0001e0 cb c2 16 be f2 57 16 be 8d fd 00 40 92 8c c2 3b
       -0.14722745 -0.14681986 2.0154755 0.0059371674
0001f0 62 87 7b bb ac 0d 0e 3d f3 09 ef bd 1f bf 17 3d
       -0.0038380255 0.034681007 -0.116718195 0.0370475
000200 4d 9e d2 3f bd 91 d1 3b 67 b7 05 be 9a 41 52 be
       1.645456 0.006395547 -0.13058244 -0.20532838
000210 56 51 fa bd 7a af 62 bc 8b cf d3 3c b1 82 b5 bb
       -0.12222545 -0.013835782 0.0258558 -0.0055392613
000220 64 f2 b3 bd e2 77 f9 bd 51 56 bd ba c6 e0 01 3d
       -0.08786467 -0.12181069 -0.001444528 0.0317085
000230 62 43 04 be 7c 1b 43 be a1 26 d1 3b 4f e0 ab bd
       -0.1291633 -0.19053453 0.0063827788 -0.08392393
000240 d5 e1 0a 3c dd d2 a1 3b 56 84 1c 3d 28 a6 9e bc
       0.008476694 0.004938467 0.038212143 -0.019366339
000250 39 d2 16 3d b2 aa fe bd d6 da 3b 3c 20 bd f4 bd
       0.036821578 -0.12434901 0.011465749 -0.11950135
000260 07 7b 87 3c 1e a6 0d 3c fc 88 02 be a8 6c 2e bc
       0.016538156 0.008645562 -0.12747568 -0.010646023
000270 6e e4 70 3f 23 24 0c 3d e0 5e 0e bd 31 89 07 be
       0.94098556 0.03421415 -0.03475845 -0.13235928
000280 55 d2 aa bd 37 9f 3d bc ca 12 d3 bd 72 31 2c 3d
       -0.08340899 -0.011573604 -0.10306318 0.042039342
000290 f6 1e 07 bd 97 e2 9e bc 19 6b b5 bd 7e 3f e7 be
       -0.03298851 -0.019395156 -0.08858318 -0.45165628
0002a0 da 2c ae 3b 71 24 81 bc 72 78 01 be 25 e5 c8 be
       0.0053154053 -0.015764447 -0.12643602 -0.39237323
0002b0 9f f2 30 3c 98 d5 b3 bd b7 58 1a 3d c4 db 74 be
       0.010800033 -0.08780974 0.03768226 -0.23911959
0002c0 f6 4c 08 be c1 54 c7 bc 09 a0 bb be 64 58 ea 3b
       -0.13310608 -0.024332406 -0.36645535 0.0071516503
0002d0 e5 fa 04 3d ae e6 72 bd 0d 57 d4 bc 1a 57 c0 bd
       0.032465834 -0.059302025 -0.025920415 -0.09391613
0002e0 b5 c4 07 3c 8d 6c b9 bc ef 1d 05 be f7 4b ab bd
       0.008286645 -0.022634769 -0.129997 -0.083640985
0002f0 88 a4 ff 3c fc 5b ec bb e6 07 e8 be fc 3f f9 bd
       0.031206384 -0.007213114 -0.45318526 -0.12170407
000300 0c 2e 3d bc 63 3e f3 bd ec b0 de 3b 78 9a 25 3d
       -0.011546623 -0.11877134 0.006795993 0.040430516
000310 14 52 b1 3c 1e d2 b6 bb 39 07 b4 bc d3 80 42 be
       0.021645583 -0.005579247 -0.0219761 -0.18994455
000320 49 a8 69 bc 81 d3 74 bb 21 38 ee bd 8d a0 86 3c
       -0.014261314 -0.0037357511 -0.116317995 0.016433978
000330 b0 82 dd 3b 6e fa cf 3b 8f ed 05 bd b0 2c 12 3c
       0.006759964 0.006346992 -0.032697257 0.008921787
000340 3f cc 8f bd c7 10 23 bd 61 75 70 3f 60 77 a0 3c
       -0.07021379 -0.039810922 0.93929106 0.019588172
000350 d9 db 14 3b 26 92 a4 3c 9a e3 b2 be 39 c4 11 bf
       0.0022714047 0.02008922 -0.3493927 -0.56940037
000360 95 1a f1 bd c8 10 86 bd 9f e3 2d bd 90 6f 15 bd
       -0.11772648 -0.065461695 -0.042453405 -0.036483347
000370 5b 65 b2 3c d5 cb c1 3c 71 f8 4d be 82 53 c4 bc
       0.021776846 0.023656765 -0.20114304 -0.0239656
000380 95 92 d8 3c b2 b9 9a bc 03 3f a8 bd 4e c5 e9 bd
       0.026437083 -0.018887375 -0.082151435 -0.11414586
000390 75 07 3e 3d 5d 01 bc bd ee 52 ab bd 3c 00 06 be
       0.04639383 -0.091799475 -0.08365427 -0.13086027
0003a0 1e 53 4a be 51 34 78 bd 3e d6 34 3c ac 5a 14 be
       -0.19758269 -0.060596768 0.011037407 -0.14487714
0003b0 b7 7c e3 bd 75 55 c6 bd cf d9 2c 3d 0b 02 af bc
       -0.11107772 -0.096842684 0.042199906 -0.021363279
0003c0 16 5b 06 be b2 16 cb 3c 49 5d 0e bb bb 97 95 be
       -0.13120684 0.024791095 -0.0021723083 -0.29217324
0003d0 5e 7f 05 be b6 ee df 3f e8 39 df bd d6 ab 74 bc
       -0.13036868 1.7494724 -0.108997166 -0.014933547
0003e0 c9 8d 1c 3c 3b 74 67 be 6b 4c dc bd 68 68 e3 3c
       0.009555289 -0.22602932 -0.10756763 0.027759746
0003f0 98 7d d0 3b aa 15 ca bd 4e 12 91 be 86 ad b9 3b
       0.006362628 -0.09867413 -0.28334278 0.0056664376

net.4.bias f4 [3]
000000 07 fb 6c bd 8a 63 18 be d7 be 0d be
       -0.057856586 -0.14881721 -0.13842331
