models/DQNAgent/CartPole-v1.pth (torch, 273477 bytes, 6 tensors)

net.0.weight f4 [256, 4]
00000000: 1282 1d3e 60be 9f3e 6ed5 b43e 2dcd 603e
00000010: c0f8 16be 8e78 c6bc 287c cf3e c4b9 ee3d
00000020: 3698 4e3e ceb5 7cbe c1e8 a2bd 6e93 36be
00000030: 414a 9c3e d3e8 953d 1786 993e 097f cbbc
00000040: 1871 c13e 012b 0a3e 9ce8 87ba e15c 213d
00000050: 7be3 f8bd 651d aabc 0b06 d93e e30f 333e
00000060: 4c12 17be 758f e5bd 6da8 b0bd 9efd 9dbd
00000070: 43c8 d3bc 262f 97be bb3a 16bf 1492 67be
00000080: 8039 a03e bfab 783e 3369 2f3f 6444 1f3e
00000090: 8ee9 903e 9fad 6a3e f533 ecbd 4f35 573d
000000a0: 0492 2f3e 68a5 e2bd 0ba0 033f 3d5c 743e
000000b0: ab59 1e3e 8f04 dfbd aa6a 693e ce9a 1b3d
000000c0: ff1b 2a3e 69ef 12be 9d35 08bf f76d 1bbe
000000d0: 5dd5 8abe c3b7 063e eb6b 023f e24e 2c3e
000000e0: be55 7f3a f710 1bbe d19b c23e b954 9cbc
000000f0: 6aa4 b8bd 4612 25be 6d49 fabe a0b1 0dbe
00000100: a22b 4a3e 9a35 bfbd aafe 5ebe 1180 54be
00000110: 370a d6bd 0f01 09be 56f7 8d3e 0ae3 d73d
00000120: ebfe 1d3f a69a a4bd ced6 18bf 69af 1abe
00000130: 90b6 51be c005 253e 9187 b93e 5367 4d3e
00000140: 95e0 32be 6709 41be 2fbe 833d d0e8 5ebd
00000150: 572b 9a3e 67b9 17be 8138 d1be 6565 58be
00000160: 4e51 13be 7ad7 a73d 9ab3 743e 66c0 af3c
00000170: e785 ae3e 6a95 953d 6d66 babe 314b 0aba
00000180: 2093 0b3f caf3 07be 4465 3ebf 8139 22be
00000190: 0a58 0cbe 297c 05bc 3234 b1be 0305 36be
000001a0: 5364 7c3d 2088 25be 19ef abbe 8c95 00be
000001b0: 082d 83be dfcf 53be 4341 813e 6904 89bd
000001c0: cbc4 9e3e 2c4f 1dbe 7229 08bf 2b32 37be
000001d0: a74f 86bd d680 34be fcf4 26bf 2194 26be
000001e0: 3d06 fb3c a0ba e4bd b5dc bfbd f1f9 19be
000001f0: 003a 20be a6d3 64be 601b 22bf 9b58 39be
00000200: 5cd6 f23d d88a 453d 6a0c 533f 7cf2 b03d
00000210: 8024 03be 8a7f 5d3e 06c0 0f3c c126 a8bd
00000220: 58ca 34be b1cf a4be 3075 a73d 133d 25be
00000230: a0f0 d93d bbb3 65be fbcd 4f3e ce75 4dbe
00000240: 58a2 7d3b caaf dd3d 5846 483f c070 683e
00000250: 3498 cd3e 0c49 cebd 5766 c8be f7b5 10be
00000260: 3ffa ccbc 0c9e 76be 284d 593e ae02 1ebe
00000270: 11de eb3d a5bd 873c 6a58 c6bc b065 c6bd
00000280: 0529 fb3e ffcb c6bb 1085 91be f0f1 51bd
00000290: dcf0 cf3d 6854 e6bb 1f6d 66be 340d 113e
000002a0: 8295 7dbd 0030 18be 0cf7 debe d428 d3bd
000002b0: 831b 403e f1f6 ebbd 988d 01bf 967e fbbd
000002c0: e23d 54be 416d ba3d 3b7f c03e 66f7 1cbe
000002d0: 19b2 6e3d 09c0 003e c729 3c3c ee86 3fbd
000002e0: 1722 b53d 7654 133e 0355 80bc fe6f 91bd
000002f0: f38f 8ebd 6c91 463c 7837 fcbc 18b5 e0bc
00000300: a71b 2ebe 2445 443e e26a 043f 87ee 223e
00000310: 4844 083d b051 7a3c 2c8d f93d bacf b73d
00000320: dd7a a6be ced6 4ebd d531 c73e dcae 2a3c
00000330: 5766 2a3c 45ef 32be 77b9 4fbe d815 11be
00000340: 3005 5bbd cc9c 933d 4e01 2e3f ed64 093e
00000350: cdeb 6fbe 6336 283c cbb6 543f 2bc3 e23d
00000360: 71f5 213d f9f8 90bd aa98 e73d c736 d5bd
00000370: 88c5 5dbe 9d6a 683d a34a fbbe 77cd 03bd
00000380: 490d bebe adab e63d 4606 5e3e 18c1 ce3d
00000390: 0734 d8bd a889 3cbe 1aa0 07bf e56a 1abe
000003a0: 8f7b 7d3e 3675 af3e fe35 3c3f b74e 673e
000003b0: f9f3 dc3d 1af1 3bbe 5474 30bf 5cd3 94be
000003c0: fc13 5d3d ccec 75be fddb 1abf 23fb 4abe
000003d0: dd17 22bd 8118 47be 2ff9 1cbe c7e2 9c3d
000003e0: ed9d bfbd 79ac 0e3e d24b 263c f7d0 74bd
000003f0: c9f1 94bd 3703 09be 6f90 413c eaff 65be
0.15381649 0.31199932 0.35319084 0.21953268 -0.14743328 -0.024227407 0.4052441 0.11656526
0.20175251 -0.24678728 -0.079545505 -0.17829677 0.305254 0.07319798 0.29985115 -0.024840849
0.37781596 0.13492967 -0.0010369006 0.039395217 -0.121527635 -0.02076597 0.42387423 0.17486529
-0.14753073 -0.11209003 -0.08625875 -0.07714389 -0.025852328 -0.2952816 -0.58683366 -0.22614318
0.3129387 0.24284266 0.68519896 0.15553433 0.28303188 0.22917794 -0.115333475 0.052541073
0.17145544 -0.11066705 0.5141608 0.23863311 0.15463893 -0.10889541 0.22794595 0.03798943
0.16612242 -0.1434914 -0.5320681 -0.15178667 -0.27115908 0.13156037 0.5094592 0.16826966
0.00097402546 -0.1514319 0.38009503 -0.019083368 -0.090157345 -0.16120252 -0.48884144 -0.1383729
0.19743207 -0.093363956 -0.21776834 -0.20751978 -0.10451167 -0.1337931 0.27727765 0.10541351
0.617171 -0.08037309 -0.59702766 -0.15105976 -0.20479798 0.16115475 0.3623624 0.20058946
-0.17468484 -0.18851243 0.06432759 -0.054421246 0.3011119 -0.14816819 -0.40863422 -0.21132429
-0.14386484 0.08195396 0.23896638 0.021454047 0.34086534 0.07303889 -0.3640627 -0.00052754866
0.5452137 -0.13276592 -0.7437327 -0.15842248 -0.13705459 -0.008147278 -0.34610134 -0.1777535
0.061619114 -0.16165209 -0.33580855 -0.12557048 -0.25620294 -0.20684765 0.25245103 -0.06690294
0.31009516 -0.15362233 -0.5318824 -0.17890231 -0.06558161 -0.17627272 -0.65217566 -0.16267444
0.030642623 -0.111684084 -0.093682684 -0.15036751 -0.15647125 -0.22346362 -0.6332302 -0.18100207
0.11857292 0.048228115 0.8244082 0.0864 -0.12806892 0.21630684 0.008773809 -0.08210517
-0.17655313 -0.32189706 0.081766486 -0.16136579 0.10641599 -0.22431843 0.20293419 -0.2006447
0.00387015 0.10824545 0.78232336 0.2269926 0.40155184 -0.10072526 -0.3914058 -0.14131914
-0.02502167 -0.24083728 0.21220839 -0.1543071 0.11516965 0.016569922 -0.024212081 -0.09687364
0.49054733 -0.0060667987 -0.2842183 -0.05125612 0.10153362 -0.007029105 -0.22502564 0.14165193
-0.06191016 -0.1486206 -0.43547857 -0.10310522 0.18760495 -0.1152171 -0.5060668 -0.12280004
-0.20726731 0.0910287 0.3759707 -0.1532875 0.058275316 0.12573256 0.01148457 -0.04675954
0.08844393 0.14387688 -0.015665537 -0.07101439 -0.0696105 0.012119632 -0.030788168 -0.027430102
-0.17002736 0.19167 0.5172559 0.15911303 0.033268243 0.015278265 0.121851295 0.089751676
-0.32515612 -0.050497822 0.38905206 0.010417666 0.010400376 -0.17474087 -0.20285593 -0.14168489
-0.053471744 0.07207641 0.6797074 0.13417406 -0.23429795 0.010266873 0.8309142 0.110723816
0.03954071 -0.07078738 0.11308415 -0.104108386 -0.21657383 0.0567423 -0.4908038 -0.03217837
-0.3711951 0.11263213 0.2168208 0.100954235 -0.105567984 -0.18411887 -0.5297867 -0.1507984
0.24754165 0.34269112 0.73519886 0.22588621 0.107887216 -0.18353692 -0.689275 -0.29067504
0.053974137 -0.24016112 -0.60491925 -0.19822364 -0.03957354 -0.19442941 -0.15329431 0.07660442
-0.09356294 0.1393298 0.010149913 -0.059769597 -0.07272679 -0.13380133 0.011814221 -0.22460905

net.0.bias f4 [256]
00000000: 9d59 643e 3d1e 99be 77fb 853e f0c1 1e3b
00000010: c124 133e 7620 aebe 0212 a03e 668c 3bbe
00000020: 214c 09be e49d 88be fcd6 143b 5491 e13e
00000030: fbda a23e 5cc3 0f3e 1ca1 253d 7c41 85be
00000040: b56f 85be de02 bb3e 7f7d 9b3c 19ad 3e3e
00000050: 8629 b5bd f9c2 62be 7db7 553e 39ae 2d3e
00000060: 13bd 1d3e 6cec 80be c0ce de3e 7d8a f1bd
00000070: 9170 4cbe 6c75 64be 42e4 dc3e 54d4 d1bd
00000080: f9af 10be 286d a3be e709 c5bd 71bd 6bbe
00000090: 25a7 91be 9d93 883e 3288 ba3e 2cf6 db3e
000000a0: ff97 54be a588 be3e 5234 3ebe ff21 923e
000000b0: 153d b63e b1ea b53e 1c08 bb3e 7d5f aa3e
000000c0: 01cb 43bd f5b8 923e 306f 13be 0236 973e
000000d0: 34e2 72be 9b9a 5fbe dc9d 73be 56b5 cdbd
000000e0: b1f2 ccbd 84e4 99be df34 09be e9e5 a7be
000000f0: 4f70 efbc 2c9b 9a3e 83e4 d03e 548b 953e
00000100: 3850 95be 3a6a 8abe 18a2 523e 5e84 a13e
00000110: dde1 45be 54bc 4f3e b5f9 bd3e 109e 0ebe
00000120: 8c49 76be c558 bb3e 2f11 8c3e 13aa b13e
00000130: fbcf 0b3c 6ae4 b23e 507c 44bc 6baf ba3e
00000140: 824e 9cbe c820 a13e 4571 893e e6d5 5b3e
00000150: 1779 ecbb 4f6f 853e 5188 423d 4f73 b0be
00000160: 67cd 1abd 3623 d53e a067 363b 2e57 413e
00000170: af8a 1abe c2f4 bb3e 877c a83e 3e48 953e
00000180: b6a7 fcbc 6fd8 79be 1cb8 433d 23bb b9be
00000190: 1a61 c23e 672d c0be 1262 953e 0929 df3e
000001a0: a569 8e3e 753a 703e 215b 6bbe 7734 dc3e
000001b0: 7233 e6bd 50ed 85be 067c e13e 3fb1 8abe
000001c0: 5550 9abe 1127 d43e f0b9 43be 95ca 9bbe
000001d0: a17c 103d 6e5b c9bd 561e 3c3e 4821 abbe
000001e0: 0d86 353e 2a2c 52be b056 f5bd cd24 80be
000001f0: 8f45 9f3e b172 653e f545 52be 5f0d b53e
00000200: 9a6e f6bc fe03 f93c 8f1a 90be e339 543e
00000210: 8575 d73e 4933 b03e 70d2 b6be de27 d63e
00000220: bea5 533e 2c38 7c3e cecb b03e b35b e43e
00000230: 92b0 5ebe 09e4 bf3e 0084 a6be 9a45 dc3c
00000240: f23a 84be a33d 2dbe 844e 04be 0fd6 89be
00000250: 4e31 75be 0a89 3dbd e1a4 e33e 72f6 a53e
00000260: cab1 a73e 33bb 873e c62f d63e ecac 3fbe
00000270: 61b4 4c3e ead3 21bc 23f0 54be 912a 0cbe
00000280: 7fe1 73bd 8e32 93bd 41c5 1a3e 79c3 a1bd
00000290: 0547 9dbd 1a2f ae3e da40 afbd a26a b03e
000002a0: 5bb0 a13e a881 6fbe d03c 2dbe ac3d 9cbe
000002b0: 661f 6cbe 2642 eabc b417 093e fa4c 32be
000002c0: 4f90 87be 4ffb b6bd ab66 a6bd 72a1 e13e
000002d0: b7c2 77be 8304 79be 8cd9 473e 7c60 5fbe
000002e0: 27a1 ca3e 27e6 af3e 449b d13e 83eb 81be
000002f0: a1eb ac3e 9f64 c63e 77a3 78be 96f8 d63e
00000300: 9830 c33e e8fa 1b3d b9b4 9b3e eb69 78be
00000310: eabc b0be 8e49 513e 166c f03d a60b bbbe
00000320: 9a9f 9c3e 62df b4be 3989 cc3e 7d6c d23e
00000330: 0beb 353d 0d90 40be 4b67 873e f2ae 8d3e
00000340: 4603 4b3e 6887 6f3e 793e ba3e b934 81be
00000350: f8b5 afbd b5c6 683e a956 c8bb def8 c03e
00000360: 9fd3 28be fd01 10be 8990 373e fd8b 28bd
00000370: dee7 b83e b335 96bd 12ea adbe 8f55 3ebe
00000380: 9aad 6fbe c07f 163e 6a38 15be 1678 d2be
00000390: 0de4 c7bd d183 a43d 6747 45be c7f2 e43e
000003a0: 5752 e2bd 09e6 a93e cd25 803e e8e2 95be
000003b0: 83a2 46bd edf7 c83e 419d 2cbd 6b0d d4be
000003c0: 73b3 e13e 50e3 c03e 1b01 66be 8eac a73e
000003d0: 23bc 06be a332 adbe e136 6d3d bacc 8d3e
000003e0: c816 efbb f2f4 503e f602 9abe 4f97 a43e
000003f0: 3ba2 d03e f4ba 9b3e 072d 543e ea8d 853e
0.2229981 -0.29905882 0.26168415 0.0024224482 0.14369489 -0.3400914 0.3126374 -0.18315277
-0.13407947 -0.2668296 0.0022711148 0.4405619 0.31807694 0.14039367 0.04043685 -0.26026523
-0.26061788 0.36525625 0.01898074 0.18620719 -0.088458106 -0.22144689 0.20870776 0.16960992
0.15404157 -0.25180376 0.43517113 -0.11793993 -0.19964816 -0.22310418 0.43142897 -0.102455765
-0.14129628 -0.31919217 -0.09621029 -0.23021485 -0.28447834 0.2667512 0.36432034 0.42961252
-0.20761107 0.37213627 -0.18574646 0.28541562 0.35593477 0.35530618 0.36529624 0.33275977
-0.04780102 0.28656736 -0.14397883 0.29533392 -0.23719102 -0.21836321 -0.23790687 -0.10044353
-0.10007227 -0.30057156 -0.13399075 -0.32792595 -0.029228358 0.30196512 0.4079934 0.2920786
-0.29162765 -0.2703417 0.20569646 0.315463 -0.19324441 0.20286685 0.37104574 -0.13927484
-0.24051493 0.36591163 0.2735686 0.3470007 0.008533473 0.3493989 -0.011992529 0.36461958
-0.30528647 0.31470323 0.2684423 0.21468315 -0.0072165835 0.26061484 0.047493283 -0.34462973
-0.037793543 0.41628426 0.0027832761 0.18880913 -0.15091966 0.36710173 0.32907507 0.2915668
-0.03084169 -0.24398969 0.047783002 -0.36275586 0.37964708 -0.3753464 0.29176384 0.43585995
0.27814975 0.234598 -0.22983982 0.43008777 -0.11240281 -0.26157618 0.44039935 -0.27088353
-0.30139413 0.41436055 -0.19113898 -0.30427995 0.035275105 -0.09831892 0.18370947 -0.3342383
0.17726918 -0.2052466 -0.11979425 -0.25028077 0.31107756 0.22407033 -0.20534499 0.35361764
-0.030082036 0.030397411 -0.28145263 0.20725207 0.42081848 0.34414127 -0.35707426 0.4182729
0.20668694 0.24630803 0.3453049 0.4460121 -0.21747044 0.37478665 -0.32522583 0.026888657
-0.25826222 -0.16918044 -0.12920576 -0.26921126 -0.2394459 -0.04627327 0.4446173 0.32414585
0.3275283 0.2651001 0.41833323 -0.18718308 0.19990684 -0.009877184 -0.2079473 -0.13688113
-0.05954122 -0.07187377 0.15114309 -0.078986116 -0.076795615 0.3402031 -0.08557291 0.34456354
0.3157986 -0.23389304 -0.1691773 -0.30515802 -0.23058853 -0.028595995 0.13387948 -0.17412177
-0.26477286 -0.08934652 -0.08125051 0.44068485 -0.24195372 -0.24318127 0.19516581 -0.2181415
0.39576074 0.3435528 0.4093877 -0.25374994 0.3377352 0.38748643 -0.24281107 0.4198653
0.38123012 0.03808108 0.30411318 -0.24259154 -0.3451913 0.20438215 0.11739366 -0.36532325
0.30590516 -0.35326678 0.39948443 0.41098395 0.044413608 -0.18804951 0.26445994 0.27672535
0.19825467 0.23391497 0.36375788 -0.25235537 -0.0857963 0.2273205 -0.0061138463 0.3768987
-0.16486977 -0.14063258 0.1792623 -0.04114913 0.361144 -0.07334461 -0.33967644 -0.18587326
-0.23406067 0.1469717 -0.14572302 -0.41107243 -0.09760294 0.080329545 -0.19265519 0.44716474
-0.11050861 0.33183315 0.2502884 -0.29274678 -0.048494827 0.39251652 -0.042142157 -0.41416487
0.4408222 0.37673426 -0.22461359 0.32748836 -0.13157706 -0.33827695 0.057913665 0.27695256
-0.007296417 0.20405939 -0.30080384 0.3214669 0.40748772 0.3041607 0.20720302 0.26084834

net.2.weight f4 [256, 256]
00000000: a3e2 f7bc ea7d 44bc f79d 08bc 41c2 9bbc
00000010: bc28 fcbc f0f8 ce3c 33e3 8a3c 5e33 febc
00000020: 596f fb3b ace7 903c f7c6 e93c 17ff 663c
00000030: ba73 cf3c e045 37bc 48be 893c 76ab e33c
00000040: 2f29 04bd 8f26 06bd 9a45 ec38 84fc 623c
00000050: 030f 8bbc e660 313b 6d32 ddbb 121f f73a
00000060: e663 cebc 1c86 863c 6890 883c 76b4 e0bc
00000070: 9089 ad39 7ecf c638 4f73 9d3b 845b ca3c
00000080: acb0 df3b be7f 25bc 2c0f e13c f104 55bc
00000090: 308c 22bc c52f 6cbb e57b 03bd 1356 2abb
000000a0: 0c6e c7bc 248d c5ba 3688 563b 03e9 bbba
000000b0: 3ae1 10bd 16e7 1ebd 37bf 1a3c 4228 bd3c
000000c0: 9b4a 19bd 25b0 ea3b 3db6 e7bc 3df9 8ebb
000000d0: fd90 0b3d 136d b43c 18a5 ccbc 4361 8f3c
000000e0: e931 923c 4e22 6abb e493 073d e455 5ebc
000000f0: 2eeb 71bc d3a3 b8bc c810 ccba cf4f 293b
00000100: 4326 8038 347b 9dbc 4315 b4bc 3241 ad3b
00000110: 7c6c f5bc 9a3f 46bc 624c debb 90f8 91bc
00000120: 58b8 4b3c d22e 70bb 8b77 913c 8083 17bc
00000130: 56a7 b0bc 314d 993c 3e59 9c3b 66a5 82bc
00000140: c485 c2bc 309b d93a 69ec 19bd 47f6 333b
00000150: f91e 273c 5f0d 16bd 3e3e b7bc da39 c9bc
00000160: 32c5 fd3c 184f c33c e007 283b 3947 cf3c
00000170: c2d1 55bc 4950 21bd b47d ac3b 16a8 f63b
00000180: a31b f43c ebea 25b7 389b 9c3c f090 ab3c
00000190: 8d60 983c 7be0 0abd c252 b13c 2914 11bd
000001a0: 4493 c43c b7e8 cabb 12ac e6bc f98a 613b
000001b0: 13a1 24bc 1167 fbbc 1756 94bc 409b 9939
000001c0: 08b5 9f3c a4d1 85bc 836e 9c3c 5f1b f23b
000001d0: 9289 b5bb 7393 173c bc4b dfbc 82a6 e8bc
000001e0: 2c76 74bc f469 02bd 8388 82bc ec07 ce3a
000001f0: 43dc eebc d1e5 97bc 5782 7cbb 3931 29bc
00000200: b203 d0bc a235 45bb c325 9dbb b7fc ad3b
00000210: f790 99bb 7b88 bfbc 3ebb 40bc 4e2a cabb
00000220: 6242 d0bc 9bb7 21bb aa87 11bc cd89 023c
00000230: 989f 9a3b f11c a03c 09a1 93ba 6ad2 03bd
00000240: 1f93 933c 8a67 dabc b3ef 42bc 3eb4 70bc
00000250: bdc9 a4bc a1a8 8abc b1b8 cd3c b809 643c
00000260: d192 363b d820 d23c 3129 13bd 98c3 d6ba
00000270: 2931 913c c36f 823c 647d c4bc fc39 473c
00000280: 04cf c1bc b3fc aeba 3334 6bbc 8e6f 02bd
00000290: d3d4 16bd e0f5 e5bc f004 7e3c 5b83 293c
000002a0: 6dff 10bd 263a 52bc 8a4d 123a 1708 d8bc
000002b0: fbaf 823c 4383 fd3c 6401 413b 65cc 04bd
000002c0: ab78 0f3c 5772 703c 860b c13c 0cb2 c4bc
000002d0: 5456 e8bc 03f7 873c 0496 8fbb 0ee2 7cbc
000002e0: 6206 9ebc c8a3 babc 3868 b03c 582c c1bb
000002f0: f40e 963c 0a1f cd3c 045a e53b f23d 4d3a
00000300: bcad 08bc 8689 9b3c b0ec 16bd dd39 2a3c
00000310: af69 b6bb 7a33 233c 24eb dabb 37fa 80bc
00000320: cd3a 18bc 8ac5 a93c ad82 f0bc 1c66 e3bc
00000330: 23af 55bc e192 72bc a591 e43b 02f0 903c
00000340: 5dd4 07bc fb26 d33c a3d0 a7bc 9111 9dbc
00000350: dfd1 b7bc 6fcb ebbc fa07 e8bc 220b 15bd
00000360: 4c11 f8bc 9605 a93b 973c 673c 4465 033d
00000370: 9371 c03c 5a3b 12bc ae40 d93b 809e c4bc
00000380: 1d60 583c 9335 22bd 7141 243c ad1c 0c3c
00000390: 7fe8 5d3b 4f95 af3b c781 80bc f06d c33c
000003a0: 274e a23c 6c90 863c 9e05 0ebb 32c6 af3c
000003b0: 2447 843c 6e6f 163c 748e b73c ab11 cbbb
000003c0: c569 863c 8d76 cb3a 826a a83c cce4 e03c
000003d0: 82d1 813b f93e 2bbc a074 02bc a118 973b
000003e0: d0c5 bc3b e1cd 83bc 5a4e db3c 59ce 6d3c
000003f0: 9657 e1bc 6538 04bc 9301 06bc 6132 e4bc
-0.030259436 -0.011992911 -0.008338443 -0.019013526 -0.030781142 0.025265187 0.01695404 -0.031030353
0.007673186 0.017688595 0.028537257 0.014098904 0.025323737 -0.011186093 0.016814366 0.02779172
-0.03226584 -0.032751616 0.00011266321 0.01385415 -0.016974932 0.0027065813 -0.006750396 0.0018853864
-0.02519412 0.01642137 0.01667042 -0.0274298 0.00033099623 9.480024e-05 0.0048050056 0.024701841
0.006826481 -0.010101257 0.027473055 -0.013001666 -0.009921119 -0.0036039215 -0.032100577 -0.0025991246
-0.024344467 -0.001507197 0.0032734997 -0.0014336411 -0.035371043 -0.0387946 0.009445003 0.023090485
-0.037424665 0.0071621113 -0.02828514 -0.0043632076 0.03407382 0.022024667 -0.024981067 0.017502433
0.017846065 -0.0035726014 0.033100024 -0.013570283 -0.014765544 -0.022539055 -0.0015568966 0.0025834923
6.1106424e-05 -0.019223787 -0.021982795 0.005287313 -0.029958956 -0.012100125 -0.006784008 -0.01781872
0.012434088 -0.0036649 0.017757198 -0.009247661 -0.021564167 0.018713566 0.0047713807 -0.015948009
-0.023745425 0.0016602036 -0.037578974 0.0027460025 0.010200256 -0.036633845 -0.022368547 -0.024563719
0.03097782 0.023841426 0.002563946 0.025302516 -0.013050498 -0.039383207 0.0052640084 0.0075273616
0.029798334 -9.8894625e-06 0.019116983 0.020943135 0.018600727 -0.033905488 0.021645907 -0.035419617
0.023996003 -0.0061922926 -0.028158221 0.003441511 -0.010048169 -0.030688794 -0.018107457 0.00029298104
0.019495502 -0.016335316 0.019095665 0.007388517 -0.0055400813 0.009251463 -0.027257793 -0.02839971
-0.0149207525 -0.031839326 -0.015934234 0.0015718914 -0.029157763 -0.018542202 -0.0038529837 -0.010326677
-0.025392387 -0.0030091782 -0.0047957613 0.005309667 -0.0046864706 -0.023380509 -0.011763392 -0.006169594
-0.025422279 -0.0024676088 -0.0088824425 0.007967425 0.004718732 0.01954505 -0.0011263202 -0.03218309
0.018014489 -0.0266607 -0.011897969 -0.014691411 -0.020115728 -0.016926112 0.025112482 0.013918333
0.0027858505 0.025650427 -0.035927955 -0.0016385196 0.017723637 0.015922433 -0.023985572 0.012159821
-0.023658283 -0.0013350457 -0.014355707 -0.031844668 -0.03682406 -0.028071344 0.015504107 0.010346259
-0.035399843 -0.0128312465 0.0005581012 -0.026371045 0.015953055 0.03094638 0.0029450292 -0.03242149
0.008756797 0.014675698 0.023565065 -0.02401068 -0.028361477 0.016597277 -0.004381897 -0.015434755
-0.019290153 -0.022783175 0.02153407 -0.0058951788 0.018317677 0.025039215 0.006999256 0.000782936
-0.008342203 0.018986475 -0.036846817 0.010389772 -0.0055667977 0.009961003 -0.006680863 -0.015744312
-0.009291363 0.020724077 -0.029359186 -0.02775865 -0.013042244 -0.0148055265 0.00697537 0.01769257
-0.008290377 0.025775423 -0.020485228 -0.019173415 -0.022438942 -0.028783528 -0.028324116 -0.03638757
-0.030281685 0.0051581366 0.014113567 0.032078996 0.023491656 -0.008925283 0.006630025 -0.02400136
0.013206509 -0.039601874 0.010025368 0.008551759 0.0033860502 0.005358375 -0.015686883 0.023856133
0.019812657 0.016426288 -0.0021670829 0.021456812 0.016147204 0.00918184 0.022406794 -0.0061971745
0.016407857 0.0015523002 0.0205586 0.027452849 0.003961743 -0.010452026 -0.007962376 0.0046110903
0.005760886 -0.016089382 0.02677076 0.014514529 -0.027507585 -0.008070086 -0.008179086 -0.027856054

net.2.bias f4 [256]
00000000: e4d5 213c 947e bc3c 117d c4bc 6746 18bd
00000010: 7011 14bd 2d62 183e 222e d13d 991c a5bb
00000020: 2c32 c83c a86f d53c d1af 3a3e cbd1 b23c
00000030: dd43 a5bb 6a32 eb3d 8cd6 213e 3a02 c8bc
00000040: 84f6 483e 70c6 0b3e 4e63 7ebc ed4d b53d
00000050: 7cbd 2f3e a348 cc3d b7d3 81bc 9ddf 0dbd
00000060: fe2e 443e b484 0bbd 075a e53d 0c01 c03c
00000070: 9b33 8f3c 80da 9ebc c087 4fbc 44b9 34bc
00000080: 443d 203c df72 ea3d b554 fd3d 8ab7 b9bc
00000090: 162c f1bc 1de2 5e3c 649d 3a3e e236 12bd
000000a0: 68e4 bfbb 4c25 263e cccb 263e cbc4 3d3e
000000b0: 049f 4e3a 4eed 4d3e 2b9a 2c3e 37af 433e
000000c0: 84aa 583b 480a 1d3e 1ffc 1c3e 04d4 b93c
000000d0: 722a d93b 4cd1 05bd 3cdf 1d3e 7050 c83c
000000e0: 8afd 583e d7f1 cf3d 0f3a d6bc e956 1f3b
000000f0: 7853 f8bc 8c88 373e 3af5 023e 3e55 dd3c
00000100: 47cd 083e cf74 4e3c b009 b33a ad30 583e
00000110: 1a6b 62bc b525 103e 49da 1c3e 7717 00bd
00000120: c651 95bb f031 763c 9f72 073c 84ce bf3c
00000130: 50bb 263e b290 153e c373 393e b07e 133e
00000140: bbca 5cbd 059a 4c3e 20f1 123e 0a6b 4abc
00000150: 710b ec3d aef4 f53c 5a6a a5bc 40cc adbc
00000160: 8d92 50bc fb9a ec3d 91a7 a0bb 8a56 06bd
00000170: c22a 973d ae1a 5d3e d2dd 263e d120 283b
00000180: 6626 c2bc 5384 413e afd2 beba 8b62 603b
00000190: 551d 143c dac6 b9bc 29c0 86bc 18f8 083e
000001a0: fafd da3c 103e 603c 8c2f 513b 14cf 0c3e
000001b0: f358 183e 5880 ce3b 22e9 d43d dbe2 3e3e
000001c0: d023 afbc b914 3bbd 0e52 7c3b 8352 343e
000001d0: 467f 193e 22bf ea3c 75b6 f6bc 0dcd 423c
000001e0: 0d38 d73c 9794 1b3e 6158 193e 1444 5fbb
000001f0: bb8c 0abc 9e20 66bc adb9 363e e165 e83c
00000200: 29c9 183e f58b 96bc 2105 423e b3e5 03bd
00000210: 7529 2ebb e7ba 523e b674 233e de14 c4bc
00000220: 5d0d 863c 58c1 fabc af12 2d3e 54ce f13d
00000230: 4d35 c93c 1087 39bc 2e04 413e ada9 193e
00000240: 88e1 2b3e fc51 c33a d56d 0d3e 5628 13bd
00000250: 0b32 333e 9e84 1f3e 831d 01bd 4414 303e
00000260: eae9 03bc cb3c e93d fa29 133e 6a3d a7bc
00000270: 0afb b8bb 5415 77bc 8efa 233e 83fd e33c
00000280: 33e1 1abc 6b75 cf3c d49d 103e 76e7 753c
00000290: c833 f0bc 0837 fcba bc7a 3a3e 8183 4b3e
000002a0: 83c8 bdb9 ab18 003e 81b7 203e 6650 173e
000002b0: 954a 11bd b946 ddbc da04 cdbb 7077 483e
000002c0: 1b42 ad3b 732e 83bd 38db 683c 4e3e eabc
000002d0: 0da3 4d3e 0d8c 423c 2888 3b3c 76ae 453e
000002e0: 886d 2e3e 3c4b b5bd 9825 dabc 8dca d93d
000002f0: af8e e03c d45b 043e 3acc 323e 7e72 173e
00000300: 19d3 ea3d 2254 493c dd84 943c 4c52 253e
00000310: ce47 083b 94b2 3a3b 1027 e53c c5cf 55bc
00000320: 4a15 c4bc 3752 2a3c b6a4 a2bc 819e 1a3e
00000330: dccc 25bd 65c2 c2bc ba81 713b cf23 c83d
00000340: a694 0b3c 25a9 9b3c e8dc 1abd 64c2 e13c
00000350: 4308 2fbc 9331 9f3c 95d9 1dbc ab48 cc3c
00000360: 3d8e 0b3e c828 543e ad55 8cbd c64d 0c3e
00000370: a9ef 193e 4b2c d7bc d376 243e d271 343e
00000380: 4581 ce3d 3b6b 5dbc 1c07 df3c 7434 0f3e
00000390: 8b5f 9dbb 10c1 0d3c 1ffd 293e 50ab d8bc
000003a0: dd58 173e acbd be3d b0be 47bc 6273 02bd
000003b0: 8d64 1c3e 41a2 14bd d1a9 1f3e cc36 77bb
000003c0: aa93 45bd a419 3a3e f3c9 febd 2d9f f7bb
000003d0: 798e 423c 75e7 18bd d5da 173e 0eb7 0a3e
000003e0: e9c6 fe3d ea86 a9bb 7998 123e 5e5f 523e
000003f0: fef7 cdbc 325d 9a3c 8904 83bc 1126 123c
0.009877656 0.023009576 -0.023985418 -0.037176516 -0.036149442 0.14881201 0.10213877 -0.0050388095
0.024437986 0.026054218 0.18231131 0.021828553 -0.0050434903 0.11484225 0.158045 -0.024415124
0.19625288 0.13649917 -0.015526606 0.08852754 0.17162126 0.09974792 -0.015848024 -0.034637082
0.19158551 -0.034062102 0.11198812 0.023438 0.017480662 -0.019391298 -0.012666643 -0.011030499
0.009780232 0.11447691 0.12369672 -0.022670526 -0.029439967 0.013603714 0.18224102 -0.03569687
-0.0058560856 0.16225165 0.1628868 0.18532102 0.00078819715 0.20110056 0.16855685 0.19109808
0.003306062 0.15335953 0.15330552 0.022684105 0.0066273743 -0.032670304 0.15417188 0.024452418
0.21190467 0.10153549 -0.026150731 0.0024313277 -0.030313239 0.17923182 0.12788859 0.027018186
0.13359557 0.0126010915 0.0013659503 0.21112318 -0.01381948 0.14076884 0.15317644 -0.031272378
-0.0045568673 0.015026554 0.008267074 0.023413904 0.16282392 0.14605978 0.18110566 0.14403796
-0.053904276 0.19980629 0.14349794 -0.012354622 0.1152562 0.030023899 -0.020192314 -0.021215558
-0.012730253 0.11552998 -0.004902788 -0.032797374 0.07381202 0.21592209 0.16295555 0.0025654326
-0.02369995 0.18898134 -0.0014558638 0.0034238424 0.009040196 -0.022677828 -0.016449051 0.1337589
0.026732434 0.013686672 0.003191921 0.13750869 0.14877681 0.006301921 0.10396029 0.18641226
-0.021379381 -0.04567406 0.0038501057 0.176096 0.14989957 0.028655592 -0.0301163 0.011889708
0.026271844 0.15193401 0.1497512 -0.0034067677 -0.008456404 -0.0140458625 0.17844267 0.028368892
0.14920487 -0.018377284 0.18947269 -0.03220148 -0.0026575003 0.2057911 0.1596249 -0.023935732
0.016363794 -0.030609772 0.16901658 0.11806932 0.024561549 -0.011323705 0.1884925 0.15006132
0.16785252 0.0014901753 0.13811429 -0.03592714 0.17499559 0.15577933 -0.031522285 0.1719523
-0.008051375 0.113885485 0.14371482 -0.020415027 -0.0056451606 -0.015080769 0.16013548 0.027830845
-0.009453106 0.025324544 0.14122707 0.015008798 -0.029321566 -0.0019242475 0.18210882 0.19874384
-0.00036198282 0.1250941 0.15695001 0.14776763 -0.035471518 -0.027011262 -0.006256682 0.19576812
0.0052874214 -0.06405344 0.014212422 -0.028594162 0.2008173 0.011874211 0.011446036 0.19304833
0.1703397 -0.088522404 -0.026629254 0.106343366 0.027411787 0.12925655 0.17460719 0.14789769
0.11466045 0.012288125 0.01812976 0.16144675 0.0020794752 0.0028487789 0.027972728 -0.013050024
-0.023935933 0.010395578 -0.01985393 0.15099527 -0.040478572 -0.023774335 0.0036851005 0.09772455
0.008519327 0.019001553 -0.03780833 0.027558513 -0.010683122 0.019432819 -0.009634395 0.024936995
0.13628478 0.20718682 -0.06852279 0.13701543 0.1503283 -0.026266238 0.16060953 0.17621544
0.1008325 -0.013514335 0.02722507 0.13984853 -0.0048026494 0.008651987 0.16600464 -0.026448876
0.14779992 0.09313521 -0.01219146 -0.03184832 0.15272732 -0.03628755 0.15592124 -0.003772187
-0.048236527 0.18173844 -0.124408625 -0.007556817 0.011874788 -0.03733011 0.14829572 0.13546392
0.12440283 -0.0051735537 0.14315976 0.20544192 -0.025142666 0.018843267 -0.015993373 0.008920209

net.4.weight f4 [2, 256]
00000000: a0ea 653c 524c f0ba 17da 6e3c 1905 943b
00000010: 11f8 0e3c 50fc 313d 5151 7c3e 6e10 5e3a
00000020: 7317 81be 1894 17bc eb27 163e 91ff b9bc
00000030: 304a f6bc db0c 763e b269 403e 6fa7 b2bc
00000040: 36be 583d 2b78 983e a681 d03c b3cd 023f
00000050: db99 8c3e a517 893e 55e5 d6b9 e1cf 803c
00000060: 00f5 8d3e b73f 093d 1e94 843e b405 8bbe
00000070: 06c4 7f3a 7645 62bc ec3f c03c f61c 7b3c
00000080: c196 2bbc 2ab8 8b3e 3c31 723e 7958 593b
00000090: 6272 13bc 916b 3fbc 4b5d 883e 4023 e5bb
000000a0: a7fe c93c 03a2 5f3e 3343 563e 1f8d 923e
000000b0: 5632 03bc 9c5b 613e 2554 553e 7ed2 9e3e
000000c0: f73e 84ba 1b57 5d3e 85b6 403e 4b08 853a
000000d0: 4dbb 14bc e140 91bc 1dc7 8c3e c32d 77bc
000000e0: a234 9b3e 8a7a 833e d78e d0bc 784e 13bc
000000f0: f6ad 863c 73fd 0e3e a098 833e dcdb 033d
00000100: 4c06 743e 69ca a0bc 5942 d7bc a367 8a3e
00000110: bdfd 52bc 37dd 8e3e 7b41 553e 96d5 21bc
00000120: 7e18 5aba 7916 2c3c 897c b03c 503d 0a3d
00000130: a1cd 883e 9598 8f3e 3637 843e b6de 893d
00000140: fcc7 27bf a55e 863e 1308 903e 961b f8bc
00000150: 64c9 7d3e af70 b5bb bd2f ab3c 9700 093d
00000160: e333 0d3d b34c 663e 77be 4e3b ce40 18bd
00000170: a38c b83e 0454 2b3e b5f9 7a3e 46c2 81bc
00000180: 1474 f1bc 0292 7c3e b4cf b8bc 443e 7f3c
00000190: 4d0a 473c 9ba8 ecbc 3e3f 033d 7152 763e
000001a0: e46a 8ebc 57b3 a43c 087a 903c 480f 7f3e
000001b0: 0630 343e ec46 923b 7612 883e 7c3c 8d3e
000001c0: fef2 f4be 5a87 1ebf 0cc0 2ebc f758 8f3e
000001d0: c2ff 8f3e 2cb6 15be 85c0 babc fe99 62bb
000001e0: 7d49 56bc 2cb7 613e 97c2 873d e70c 093b
000001f0: 1165 133d cd62 8dbc 6ade 853e 8792 87bc
00000200: f14d 093e c477 203c c959 4e3e cdd7 993c
00000210: aa42 443c db57 893e 0c4f 6b3e 7428 bebc
00000220: ba5a dbbc 6356 c3bc 1f5e 893e d4e7 843e
00000230: f302 503c 1033 d63c 8547 9b3e 5ed3 6d3e
00000240: 427b 473e f167 313b f655 833e 3efa 693c
00000250: 984e 903e f8ae 653e fc6a d5bc 8f0a 593d
00000260: fe59 3bbc 0952 6d3e c735 583e 2cd4 c7bc
00000270: 8a89 213c 1cdf 6b3c e00e 733e 2fdc c1bc
00000280: 092f 04bc 6ed8 cb3c 5ea6 853e a40e a13b
00000290: 7c04 0abc 4073 84bc 7c07 0b3e 3b05 833e
000002a0: c4e5 d13c b8dc 6e3e d6de 713e 7ec8 6c3e
000002b0: 772f 9e3c 89eb ab3b a7cb 353b 52ac 6a3e
000002c0: 4489 8dbc 8caf e83d 8215 cbbc 03a7 5d3c
000002d0: ef1d 3c3e ea63 d5bc b8f1 d9bc 2e84 773e
000002e0: 0211 893e 6718 ecbe 328d 37bb 2822 853e
000002f0: 9037 823e d239 4c3e 1d19 603e 76b8 7e3e
00000300: 564a 833e fcfa 063d 7d44 ca3b 3049 833e
00000310: 8d57 cbbc 85b5 17be 76fa e6bc a3bd 9e3c
00000320: 2bc8 fd3c 41b5 1cbc 986c 20bc 7ae4 283e
00000330: a8f9 bcbb 6726 a9bc 13ce 8dbc 5362 743e
00000340: 39be ddba 7f44 a93a e212 5bbc 49a9 88bc
00000350: 18f3 c8bc 7f16 98bc dc26 ec3c 8e63 66bc
00000360: 8801 663e 0cbe 593e e375 b5be 8b1d 903e
00000370: 7826 803e 72d5 9d3c 7103 803e 2cb4 8c3e
00000380: 646e 893e aa4c 2dbc 6dcc 1ebc cba5 853e
00000390: e8ba 8e3c 9309 c0bc 515a 963e fb9a 51bc
000003a0: e547 943e 6cf7 10be e8eb b93a e19b b73c
000003b0: f182 943e 1e84 863b a908 c43d ebe4 f9ba
000003c0: c075 13bd bcd8 703e 040f 603d b6da a3be
000003d0: 1771 03bd de8d b4bc 938d 863e 7cfd 843e
000003e0: 55c3 823e 317d c7bc 8e26 e83d 0db5 893e
000003f0: 1746 f0bc ae4b d03b efd1 e2bc 9c50 ccbc
0.01403299 -0.0018333292 0.014578364 0.0045172093 0.008726136 0.043453515 0.24640395 0.0008471076
-0.25213203 -0.009251617 0.14663665 -0.022704871 -0.030064672 0.24028341 0.1879032 -0.021808354
0.052915774 0.2977918 0.025452446 0.5109512 0.27461132 0.26775852 -0.00040988126 0.015724124
0.27725983 0.03350803 0.25894254 -0.2715279 0.0009756688 -0.013810506 0.02346798 0.015326729
-0.010472954 0.27288944 0.23651594 0.0033164306 -0.008999439 -0.011683361 0.26633677 -0.0069927275
0.02465756 0.21839146 0.20924072 0.28623292 -0.0080076065 0.22007602 0.2083288 0.31019968
-0.0010089566 0.2161526 0.18819626 0.0010149566 -0.009077859 -0.017731132 0.2749566 -0.015086594
0.30313593 0.25679427 -0.025458736 -0.008990876 0.016440373 0.1396387 0.2570238 0.032192096
0.23830527 -0.019627767 -0.026276754 0.27032194 -0.012877879 0.2790315 0.2082576 -0.009877583
-0.00083196897 0.010503405 0.021543758 0.03374988 0.26719382 0.28046098 0.25823373 0.06731932
-0.65539527 0.26244083 0.2813116 -0.030286592 0.24783856 -0.0055371146 0.020896787 0.03344783
0.03447331 0.22490196 0.0031546631 -0.037171178 0.36044797 0.16731268 0.24509318 -0.015839707
-0.029474296 0.24665073 -0.022559978 0.01557881 0.012148452 -0.028888991 0.032042734 0.24054886
-0.017384954 0.020105047 0.017636314 0.24908173 0.17596444 0.004464021 0.26576585 0.27585208
-0.47841638 -0.6192528 -0.010665905 0.27997562 0.28124815 -0.14620274 -0.022796879 -0.003457665
-0.013079044 0.22042531 0.06628912 0.0020912231 0.035985056 -0.017259026 0.2614625 -0.016549362
0.13408639 0.009794179 0.20151438 0.01877966 0.011978785 0.2682484 0.22979373 -0.023212649
-0.02677666 -0.023844903 0.2682962 0.2595812 0.012696016 0.026147395 0.30328003 0.23225161
0.19480613 0.002707001 0.2565152 0.014280854 0.28184962 0.22430027 -0.02605199 0.052988585
-0.01143503 0.23175825 0.21114264 -0.024393164 0.009859452 0.014396455 0.23736143 -0.023664562
-0.008067855 0.024883475 0.2610349 0.0049150754 -0.008423921 -0.016168237 0.13577074 0.25589928
0.025622256 0.23326385 0.23620161 0.23123357 0.019309742 0.005246584 0.0027739794 0.22917297
-0.017277367 0.11361608 -0.02479053 0.013528588 0.18370794 -0.02604862 -0.026604518 0.24171516
0.26770788 -0.46112368 -0.0028007743 0.26002622 0.25433016 0.19943932 0.2188458 0.24875054
0.2564265 0.0329542 0.006172715 0.25641775 -0.02482202 -0.14815338 -0.028195601 0.019377535
0.030979237 -0.009564699 -0.009791516 0.16493407 -0.005767066 -0.020648194 -0.017310178 0.23865633
-0.0016917653 0.001291409 -0.013371201 -0.016682284 -0.024529979 -0.018565414 0.028827123 -0.014061822
0.22461522 0.21263903 -0.35441503 0.2814754 0.2502935 0.019266818 0.25002626 0.2748121
0.26842034 -0.01057736 -0.009692294 0.26103052 0.017423108 -0.023442065 0.2936578 -0.012793298
0.289611 -0.14156884 0.0014184685 0.022413196 0.2900615 0.004105105 0.09571964 -0.0019065415
-0.036000967 0.23520178 0.05470182 -0.320028 -0.032090273 -0.022040304 0.26279888 0.25974643
0.25539652 -0.024351688 0.11335479 0.26895943 -0.029330296 0.006356678 -0.027687995 -0.024940781

net.4.bias f4 [2]
00000000: 5919 f03d 69a3 263e
0.11723585 0.16273274
