models/DQNAgent/MountainCar-v0.pth (torch, 272489 bytes, 6 tensors)

net.0.weight f4 [256, 2]
000000 41 25 45 be 23 6b c5 40 70 86 0d be e8 bb 0a 3f
       -0.19252492 6.169328 -0.13820815 0.5419297
000010 70 5c 04 be 0d ce f3 3d cd 0d 93 be aa 63 b1 3e
       -0.12925887 0.119045354 -0.28721467 0.3464635
000020 be 68 07 3f 52 91 d7 3e 71 45 03 3f 43 20 e2 3d
       0.528942 0.42103058 0.51277834 0.1104131
000030 bb 80 d9 3e 70 61 af 3f c2 d6 09 3e 4b b2 67 40
       0.42481026 1.370161 0.1346083 3.6202571
000040 48 73 8f bd a4 2c 5c 40 42 93 b4 be fa 82 01 3f
       -0.0700441 3.4402246 -0.352686 0.5059048
000050 91 11 ba be 9b 6f 38 be 6e 04 a2 be 27 78 2b 3f
       -0.36341527 -0.18011324 -0.31644005 0.6698021
000060 08 fe 0b bf 40 54 f6 bb 56 95 2a be 69 9d b5 be
       -0.54684496 -0.0075173676 -0.1665853 -0.35471657
000070 f1 c6 b9 3b 8e d3 e3 be 08 59 37 3f 51 e5 79 3f
       0.0056694676 -0.4449734 0.71620226 0.97615534
000080 29 37 2a 3f fd a8 86 40 67 98 97 be 64 65 75 3f
       0.6649042 4.2081285 -0.2960846 0.95857835
000090 34 e3 a1 bb ed c1 bd 3f 71 14 84 3d 86 84 3e be
       -0.004940415 1.4824806 0.064492114 -0.18605241
0000a0 3e 93 04 3e e6 54 3d be be 9c 4f 3e 80 cb 2e 3f
       0.12946793 -0.18489417 0.20274636 0.68279266
0000b0 b8 52 a4 3e a2 df 20 3f 00 89 dd 3c 71 86 6a 40
       0.3209436 0.62841237 0.027042866 3.6644557
0000c0 5d 64 99 3e 02 1a b8 be 4d e9 28 bf d2 60 11 3f
       0.29959384 -0.35957342 -0.6598099 0.5678836
0000d0 24 1d 1d bf 51 d8 cf be 05 20 20 3e 86 a3 0c 3f
       -0.6137259 -0.40594724 0.15637214 0.54937017
0000e0 b2 0d 3f 3e 75 24 28 bc 1f e1 17 3f d3 9a 81 40
       0.18657568 -0.010262598 0.5932788 4.0501494
0000f0 7f 25 18 3d 59 29 ce be a1 73 11 3e 9b 48 10 3f
       0.037145134 -0.4026592 0.14204265 0.5636079
000100 26 a0 04 3e ad fc 8e 3e e9 85 1e 3f fc cc e5 3f
       0.12951717 0.2792715 0.6192308 1.7953181
000110 7c 39 cd be 73 bf 48 be d3 98 f2 3e c2 db c4 3f
       -0.4008292 -0.19604282 0.4738222 1.5379565
000120 c2 ed 1f 3f 46 52 df bf 1c e2 14 bf 5f 72 76 c0
       0.62472165 -1.7446983 -0.58157516 -3.8507307
000130 e7 b2 d4 bd a9 48 b1 c0 9e bd 0e 3e 57 39 89 3f
       -0.103856854 -5.5401196 0.1393952 1.0720624
000140 81 86 21 bd ab 9c d3 c0 56 8d 94 3e 92 f8 91 3f
       -0.039434914 -6.6128745 0.2901408 1.1403983
000150 97 bb a1 3e b0 31 36 be 42 c9 ac 3e 78 af ea be
       0.31588432 -0.17792392 0.33747298 -0.45836997
000160 34 93 c2 be d7 de 6d 3e fb 3a 2a 3d 59 87 73 3f
       -0.38002932 0.23229538 0.041560154 0.951284
000170 7b 2b 8b 3e c2 8e 05 40 9b 42 f9 be e1 3b dc be
       0.2718161 2.0868382 -0.48683628 -0.43014434
000180 08 ab 08 3f a0 2d 45 bf 5e e4 91 be 86 40 d2 be
       0.5338597 -0.77022743 -0.28494543 -0.41064852
000190 81 e5 e3 be 8f f0 85 3f 92 79 9f bd 5e 41 db be
       -0.44511035 1.0464038 -0.077868596 -0.4282331
0001a0 4a b9 62 3c 2b 53 ce be 3b 94 eb be 4c 50 89 c0
       0.013838122 -0.40297827 -0.46011528 -4.291052
0001b0 a2 77 22 bf d9 d7 3c c0 89 b9 0f 3f 5c 75 b1 3d
       -0.63463795 -2.9506743 0.5614248 0.08664963
0001c0 1e 29 3a 3e a5 db 0c bf 05 61 c6 be 36 14 49 be
       0.18179747 -0.5502265 -0.38745895 -0.19636616
0001d0 ce ed bc 3d 4c e4 04 bf 31 25 82 be fc d3 b4 be
       0.09225045 -0.51910853 -0.25419 -0.3531798
0001e0 62 49 d6 3a 22 ca 60 be 72 5d ce bd 1c 27 29 be
       0.0016348774 -0.21952108 -0.10076417 -0.16518825
0001f0 2a bf ec be 17 34 3f bd 58 b1 09 be eb 39 df be
       -0.46239597 -0.046680536 -0.13446558 -0.43598875
000200 27 ee c1 3e c6 e5 8b 40 97 c6 e8 3d a2 4a ba 40
       0.37877008 4.3717985 0.11366003 5.8216105
000210 ce 10 0a bf b6 83 76 c0 47 37 26 be 7f 91 67 be
       -0.5393189 -3.851789 -0.16232024 -0.22614096
000220 a9 78 10 bf 59 2f 47 bf c0 d6 2c 3e 21 f6 03 be
       -0.5643411 -0.7780662 0.16878796 -0.1288686
000230 bb 57 34 be 1a 9a 32 40 01 43 e1 3e 96 49 97 3e
       -0.17611592 2.7906556 0.43996432 0.2954833
000240 54 2c 43 be 5c df b8 3e 59 e3 62 3e 3f ab 93 3f
       -0.19059879 0.3610791 0.22157039 1.1536635
000250 f2 93 09 3f f0 80 ef be 92 54 ee bd be 2d 42 40
       0.5374137 -0.4677806 -0.11637224 3.034042
000260 d8 b1 13 be bf 28 14 bf 9e c2 a8 3c 40 1c 63 40
       -0.14423311 -0.57874674 0.020600613 3.5485992
000270 c3 5f 70 3e 9a f9 fe 3f 76 94 14 3e 50 af 8f be
       0.2347403 1.9919922 0.14509758 -0.2806344
000280 67 46 09 3f bb c0 04 3e de 31 ac 3d 9d 53 0e bf
       0.5362305 0.12964146 0.08407949 -0.55596334
000290 78 98 7d 3e a1 41 b5 bd 81 60 8a be 13 b9 01 3f
       0.24765193 -0.08850408 -0.27026752 0.50673026
0002a0 31 b4 d4 3d 4f ff b2 be 24 e1 98 be 6d cb e6 bc
       0.10385931 -0.3496041 -0.2985927 -0.028173173
0002b0 8f ae 91 3e 5b 83 68 3f 92 cb cf be b8 e9 71 be
       0.2845349 0.9082543 -0.40585 -0.23624313
0002c0 19 8c af be 44 40 a9 c0 e3 40 09 3f f8 8d d6 bf
       -0.34286574 -5.289095 0.53614634 -1.6762075
0002d0 d7 4d 0c 3e 51 09 9c 3e 43 15 db 3d 3e 23 57 be
       0.13701569 0.30475858 0.10697415 -0.21009538
0002e0 2b ee 86 3e 5c 5d 8a 3e f6 e3 61 3e 85 4e d4 bd
       0.26353583 0.27024353 0.22059616 -0.10366539
0002f0 9e f7 1f be 65 41 81 3d a7 46 ae bd 3a cb 33 be
       -0.15621802 0.06311301 -0.085095696 -0.17557994
000300 2d 87 c0 3e 67 2c d7 3f 55 0c 00 be 01 da 97 3e
       0.3760313 1.6810426 -0.12504704 0.2965851
000310 3f 1e 43 bd 3c fc a6 bb 90 3b 11 3e 34 4a 29 3e
       -0.047636267 -0.0050959866 0.14182878 0.16532212
000320 02 c5 b1 be b9 e9 d0 c0 bd 2a f6 3e 12 bf d2 3f
       -0.34720618 -6.5285306 0.48079482 1.646456
000330 f0 b3 b3 bd 97 b4 d4 3c b1 44 d9 be c1 d8 46 bd
       -0.08774555 0.025965018 -0.4243522 -0.048546556
000340 fa 01 96 be 0d e0 10 3f 25 98 c0 3e 79 74 8b 3e
       -0.29298383 0.56591874 0.37616077 0.272373
000350 00 63 09 bf 3f 5b 64 c0 3b 14 23 be 72 3e 4a 3f
       -0.53666687 -3.5680692 -0.15925686 0.79001534
000360 bb c6 ae 3d ae 71 1c be 42 10 2d 3e 8c 72 71 40
       0.085339986 -0.1527774 0.16900733 3.7726164
000370 00 81 c3 be ca 76 dc 3e dc 57 89 be ba 34 f2 bd
       -0.38184357 0.4305938 -0.26824844 -0.11826463
000380 8a f8 2e bf 12 30 aa 3f 25 d8 e4 3e 4b 2a 5c 3e
       -0.6834799 1.329592 0.44696155 0.21500508
000390 65 cf ff be 2c 9a 2d be b3 e6 0f bf aa 20 9c 3e
       -0.49962917 -0.16953343 -0.56211394 0.3049367
0003a0 34 04 91 3e 78 2d fe 3e 4d e8 60 3e e7 9d 9b 3f
       0.2832352 0.49644065 0.21963616 1.2157563
0003b0 d7 4d bd bb 92 b6 e5 be c3 63 a1 be 40 b1 d8 c0
       -0.0057771015 -0.44865853 -0.31521425 -6.771637
0003c0 9d 9a 74 3e 8d 4a a2 3e be e7 17 be 58 cf c1 be
       0.23887105 0.31697503 -0.14834496 -0.37853503
0003d0 21 2a dc bd c9 97 d4 be 58 13 8c be db cc 90 c0
       -0.10750223 -0.41522053 -0.27358508 -4.525007
0003e0 7b 89 33 be 02 78 ba 3e 45 cd 41 be 00 93 dd be
       -0.17532913 0.36419684 -0.1892596 -0.43276215
0003f0 af 2c d5 bd 32 6b 92 be 14 9f fc bd 69 9f 05 bf
       -0.10408913 -0.2859741 -0.12335029 -0.52196366

net.0.bias f4 [256]
000000 03 fa fe bd 9e 6d e6 be dd 1e bf be f4 1e fb be
       -0.1245003 -0.45005506 -0.37328234 -0.49047053
000010 07 e5 12 3f 6f 03 0f bf a0 e1 f7 3e 76 5b a9 bc
       0.5738072 -0.55864614 0.48414326 -0.020673495
000020 93 30 f9 bd 24 53 d3 3e d0 9e 8a bc 65 7f d4 3e
       -0.12167468 0.4127437 -0.01692143 0.41503444
000030 45 a3 f3 3e 4a 1f 03 bf 84 18 8d 3e 97 2d cb 3e
       0.47585502 -0.5121962 0.27557766 0.3968322
000040 1d fb 01 3d 9f 2c fa 3d 4a 32 4d 3e 6e 4e 91 be
       0.03173362 0.12215542 0.20038715 -0.2838015
000050 8d 3a d6 bd 27 75 18 3f 84 47 de 3e d8 b3 9c 3c
       -0.104603864 0.5955376 0.43413937 0.019128725
000060 5c 0b 0e bf e8 17 b6 3b b8 29 ad be 35 f0 fd 3e
       -0.55486083 0.005557049 -0.3382089 0.49597326
000070 f3 5e b7 be ad 42 d8 bd dc 13 06 be dd c9 28 3e
       -0.35814628 -0.105595924 -0.13093513 0.16483255
000080 c9 60 1b 3f 9a 69 a9 3e 40 25 bd 3e dc ed 08 3f
       0.6069456 0.3308838 0.36942482 0.53487945
000090 58 72 10 3f 65 6a d4 bc 4f 15 d5 3d 62 8f a8 3e
       0.56424475 -0.02592964 0.10404455 0.32921892
0000a0 44 09 dc bc a8 04 a8 3e 9a 7c 2d be a1 dd cc be
       -0.026859887 0.32816052 -0.16942063 -0.4001284
0000b0 a1 5b 92 3e 8b a6 04 3e 7a e4 a3 3e 24 8a 22 3f
       0.28585532 0.12954156 0.3201025 0.63492036
0000c0 0b ed 06 3f 45 7d 1b 3f 4d 7f 11 3c f7 e9 01 bf
       0.5270545 0.6073802 0.0088804485 -0.5074763
0000d0 b9 e5 d3 be 44 14 91 be ec d9 d6 be 44 fb a5 be
       -0.41386202 -0.28335774 -0.41963136 -0.32418263
0000e0 9b 07 0b bf 85 56 0b bf a1 7d b4 be ba e2 14 bf
       -0.5430848 -0.54428893 -0.35252097 -0.5815846
0000f0 f4 66 b9 be 77 6e 89 3e 9a 54 08 3f 33 df 79 be
       -0.3621136 0.2684209 0.5325409 -0.2440155
000100 11 35 c7 bd 34 d8 81 3d 1b 24 39 be dc d1 8e be
       -0.097269185 0.063400656 -0.1808018 -0.27894485
000110 89 62 d3 3e e4 96 03 bf 88 96 37 bd 1e b3 0f 3f
       0.41286114 -0.51402116 -0.044821292 0.56132686
000120 e1 8f 17 3e 08 59 84 3e 48 e9 af be 8e 52 b9 bd
       0.14800979 0.25849175 -0.34357667 -0.09048949
000130 8d 06 8e 3d 96 8c 34 3c d5 d2 8f 3e 00 a3 0e 3f
       0.06934843 0.011019846 0.2809054 0.5571747
000140 80 8e e6 be 79 6a 37 bd 8e ea 96 be 18 f1 ee be
       -0.45030594 -0.044779275 -0.29475826 -0.46668315
000150 3c cf 99 bd 67 f0 04 bf 5f 74 e9 3e 6b cb 07 3e
       -0.0751023 -0.51929325 0.45596597 0.13261192
000160 35 96 f1 bc d5 58 da 3e 8a ef 0e bf 82 aa 69 be
       -0.02949057 0.42645898 -0.5583426 -0.2281895
000170 4f cf 21 be 74 55 00 bf 1e 12 c0 be c9 3b ed bd
       -0.15801738 -0.5013039 -0.37513822 -0.11583669
000180 44 10 ef 3e b4 dd 1d 3f 34 8c d7 3e 78 5c b4 be
       0.46692097 0.6166642 0.42099154 -0.35226798
000190 dc 07 68 be 4f 96 0d 3f ac 0a 7c 3e 38 37 66 3c
       -0.22659248 0.5530748 0.24613446 0.014051251
0001a0 76 2b 01 3e a6 c2 f2 be e8 a6 a6 bb 01 be 1b 3f
       0.12614235 -0.4741413 -0.0050858147 0.608368
0001b0 b2 fd 14 be 36 f3 88 bd c0 cd fa be 33 f8 a8 be
       -0.14549902 -0.06687014 -0.489851 -0.3300186
0001c0 af 59 03 bd 5d 9f bb be 3a 26 82 bc ea 0c 93 3e
       -0.03206795 -0.36645022 -0.015887368 0.2872079
0001d0 e7 ba 13 bf 8f df 80 3e f5 b7 c7 be 8e 26 14 be
       -0.57707065 0.25170562 -0.39007536 -0.14467832
0001e0 6e c0 8b 3e 36 b3 fc 3e 0c 1b 25 be 45 81 83 3d
       0.2729525 0.49355477 -0.16123599 0.064211406
0001f0 0f 90 08 bf 88 c1 9b be 4b 3e 04 bf 2b 3c 4e be
       -0.53344816 -0.3042109 -0.5165755 -0.2014014
000200 57 9f 68 3e 1e 7e 0d bf 34 81 07 3f 8c d4 e3 3e
       0.22717033 -0.55270565 0.52931523 0.44498098
000210 af d8 13 bf 29 45 90 be f4 55 6a 3e dd ba 18 be
       -0.5775251 -0.28177765 0.22884351 -0.14915033
000220 94 31 6d bd 49 b7 96 be 78 88 f7 3e 92 d8 a8 be
       -0.05790861 -0.2943671 0.48346305 -0.3297773
000230 14 de 09 3f ea ab 3a 3d 8a 53 05 3e 5e 3c 03 3f
       0.5385449 0.045574106 0.13020149 0.5126399
000240 21 67 af bd 93 f8 ab be 90 f5 46 bd 6f 00 06 3f
       -0.08564592 -0.33588085 -0.04857403 0.5234441
000250 f4 87 ee be 86 b8 2a 3e 02 6d 14 bf 21 f9 ad 3e
       -0.465881 0.16671953 -0.5797883 0.33979133
000260 5a 0d 87 3e ae 99 e7 bc a4 94 9b 3e d1 1e 9d bd
       0.26377374 -0.028271522 0.3038684 -0.076718934
000270 32 17 b6 3e 2e 1c ef be cb 92 8d bd 73 27 87 3e
       0.35564572 -0.46701187 -0.06912764 0.26397285
000280 b1 cb 21 3f d7 cf be 3e 96 f0 e2 be a4 54 f9 3e
       0.63201433 0.37267944 -0.44324178 0.48697388
000290 cf c0 87 bd eb 36 be bd 61 58 10 bf ff fe 89 bd
       -0.06628572 -0.092878185 -0.56384856 -0.0673809
0002a0 76 b6 ee 3e 29 58 0e 3e 22 ee af be 07 df 6c 3e
       0.46623582 0.13900818 -0.34361368 0.23131953
0002b0 aa cc 00 bd 57 94 19 3f 66 15 03 bf 20 d2 3e be
       -0.031445183 0.59991974 -0.51204526 -0.18634844
0002c0 80 d3 11 bf 13 6e f0 bd 3c 63 9b 3e 6a 37 1b 3f
       -0.5696335 -0.11739745 0.30349147 0.6063143
0002d0 77 b2 00 3e d5 c9 20 3f 58 b7 99 be 58 38 c7 3e
       0.12568079 0.6280797 -0.30022693 0.38910174
0002e0 0f 51 fd 3e cf fd 0d 3f ab be f0 bd 9d d2 16 3f
       0.49475905 0.55465406 -0.11755117 0.5891512
0002f0 a3 a5 cd 3e 70 3b 8d be af 23 90 be 92 58 fd be
       0.40165433 -0.2758441 -0.28152224 -0.49481636
000300 2e 6f 30 3e 9c 3c ad be 5e 90 a1 3e 59 81 6e 3e
       0.17229912 -0.33835304 0.31555456 0.2329153
000310 32 36 03 bf 1a 4f 43 3e 3b 78 f2 bc c6 03 9a 3e
       -0.5125457 0.19073144 -0.029598346 0.30081004
000320 e7 02 be 3e c6 23 16 bf 7c 8b 11 3f 10 e8 0b 3f
       0.3711159 -0.58648336 0.5685346 0.54650974
000330 0b a1 74 3e 00 08 0a bf 2e ac e6 bd ce 71 4b be
       0.23889558 -0.5391846 -0.112633094 -0.19867632
000340 cb 84 5e be 70 59 c3 3e 96 b0 79 3e 6f 16 03 3f
       -0.21730344 0.38154173 0.24383768 0.51206106
000350 3c 91 7d be ed 7a 7c 3e fa 95 7a 3e 4a 7c fb be
       -0.24762434 0.24656267 0.24471274 -0.49118263
000360 80 7f 12 bf 03 72 a4 be 67 e6 e8 3e 1a 2f 0e bf
       -0.572258 -0.32118234 0.45488283 -0.5554062
000370 56 75 03 bf 28 74 c1 3e 9f 9e fa 3e 60 48 08 3f
       -0.51350915 0.37783933 0.48949143 0.53235435
000380 ef 07 e4 be 35 12 dd be 56 c3 b3 3e 60 f0 0e 3f
       -0.44537303 -0.43177953 0.35109967 0.55835533
000390 99 2a bb 3e 0d 76 09 3e 17 83 71 3e f9 75 11 3f
       0.36555937 0.13423939 0.23585163 0.56820637
0003a0 8b e2 c2 be 1f 6d 76 bd 40 5c c9 3e d8 ac ce be
       -0.38063464 -0.06016266 0.39328194 -0.40366244
0003b0 e1 8d a6 be 36 44 e8 3e 20 5a 71 3e 90 fe 72 3e
       -0.3253012 0.4536454 0.23569536 0.2372992
0003c0 b2 05 80 be a3 c1 96 bc 56 7c 16 3f 3e 4c b5 be
       -0.25004345 -0.01840288 0.5878347 -0.3540973
0003d0 ea e4 aa bd 0d 83 a6 3e cb 85 d0 be 49 09 1f 3f
       -0.08344443 0.3252186 -0.40727076 0.62123543
0003e0 93 e8 96 be 2e ed 41 be dc b9 34 bd 8d d5 c4 be
       -0.29474315 -0.18938133 -0.04412256 -0.38444176
0003f0 5a 32 14 bf a6 15 b5 3e 86 8b 32 3e 71 73 0d bf
       -0.5788933 0.3536808 0.17436036 -0.55254275

net.2.weight f4 [256, 256]
000000 22 21 78 bd c1 18 53 3d 38 47 a3 3c 6d 65 ab 3c
       -0.060578473 0.05153728 0.01993142 0.020922387
000010 26 77 64 bd 87 44 bb bc c2 b8 05 bd fd 3c 1c bc
       -0.05577769 -0.022859825 -0.032646902 -0.009536025
000020 71 5b 12 bd 25 01 9d bc 36 b4 8e bc a8 78 f6 bc
       -0.035731737 -0.019165585 -0.017419916 -0.03008683
000030 b6 5b 84 bc a1 4e a9 bc 43 8d 26 bc db 19 a1 3c
       -0.016157012 -0.020667376 -0.010165515 0.01966565
000040 e3 01 e1 bc 89 a6 99 bd e8 d5 5c 3b f0 c9 4b 3c
       -0.02746672 -0.07502467 0.0033696834 0.012438282
000050 b4 40 d9 bc 3e 92 d7 3c b2 24 44 bd 0e 54 10 3d
       -0.02652011 0.02631485 -0.047886558 0.03523641
000060 9c b6 d8 3c 6a 86 88 bd 8d cf 6b 3d 72 22 93 bd
       0.026454262 -0.066662624 0.057570983 -0.07184304
000070 c5 a7 ec bc 87 6d 0e bc 8d f6 0f bd 67 b4 d7 3c
       -0.028888592 -0.008693106 -0.03514724 0.02633114
000080 92 7d 0c bd 6a aa a9 3c a1 46 8f bd c8 a9 29 3b
       -0.03429944 0.020711143 -0.06995893 0.002588855
000090 bc b9 32 bd 02 fd 7b bd 24 23 42 bc 7f 56 97 3a
       -0.04363416 -0.061520584 -0.0118491985 0.0011546164
0000a0 d4 0c de 3c ca 1e 67 bd bf 35 d2 bc 7e 41 24 3c
       0.027105726 -0.056425847 -0.025660394 0.01002538
0000b0 f3 4b 17 bc ff 8a 89 bb c8 31 9d 3a 78 7c 10 bd
       -0.009234416 -0.004197478 0.0011992985 -0.035274953
0000c0 07 a8 ca 3a 17 32 74 3c 92 6b 16 bd 98 f4 17 3d
       0.0015461453 0.0149045205 -0.03672368 0.037098497
0000d0 36 b4 d0 3c 6e af 93 3d 5d 5c a4 bb cb ef d2 bc
       0.025476556 0.07211195 -0.0050158934 -0.025749108
0000e0 41 05 77 bc 1e 59 2d 3b 33 31 00 3d 53 da f3 bc
       -0.015076936 0.0026450823 0.03129692 -0.029767191
0000f0 75 dc d5 3c 2a 29 2d bd cf 20 04 3c 3d 66 79 3c
       0.026106099 -0.042275585 0.008064463 0.015222129
000100 da 1d 3b bd 4a ce 65 bd db 43 6b bd ab db d3 3c
       -0.045682766 -0.056104936 -0.05743776 0.025861582
000110 52 d2 6e bd 74 5c 8e bb b4 77 80 bc 72 b3 58 bd
       -0.058306046 -0.0043445174 -0.015682079 -0.052905507
000120 86 89 09 bc ab 98 9b bd d7 d1 18 bd 3e 88 41 bd
       -0.008394605 -0.075974785 -0.037309494 -0.04724907
000130 29 40 20 bd f7 81 3b bd 8c 73 a3 bc 71 37 09 bd
       -0.039123688 -0.04577824 -0.019952558 -0.03350014
000140 5b cd c8 3c 50 cf 43 3d 43 43 99 3c d7 49 a8 bc
       0.024511984 0.04780513 0.01870883 -0.020543022
000150 d8 fe 47 bd 06 b8 9a 3c 47 fa 4c bd db e1 5d 3b
       -0.048827022 0.018886577 -0.05004337 0.0033856544
000160 29 4e 8d 3c 52 48 ef bb e0 67 48 3d 40 dc 4a 3d
       0.017249184 -0.0073023224 0.048927188 0.049526453
000170 3f e5 34 3c f4 9f 1b bd b1 d2 3e 3d 42 b0 ca bc
       0.011040985 -0.03799434 0.04658765 -0.02474225
000180 18 5f 48 bd b5 cd a3 3c e1 04 89 3c b8 11 81 3c
       -0.048918813 0.01999555 0.01672596 0.01575552
000190 a3 b9 71 bc 0f 3c 8c bd 72 c5 ed bc 47 5c dd 3c
       -0.014753732 -0.06847393 -0.029024813 0.02702154
0001a0 ba 4f 24 bc cc 4a 92 3b ea 21 06 bd b8 45 2b bd
       -0.010028774 0.004464483 -0.032747187 -0.041814536
0001b0 bc 99 fe 3c 94 bd 52 3b 9c f3 0a 3d 01 37 17 bc
       0.031079166 0.0032156454 0.03392373 -0.009229423
0001c0 07 0a 1f b9 17 52 b0 3c b7 34 6c bc fe 53 1b 3c
       -0.00015167157 0.021523518 -0.014416865 0.0094804745
0001d0 47 d7 05 3d 57 67 ab 3c 5f 32 24 3d ad 8a 02 bd
       0.032676008 0.0209233 0.0400871 -0.031870533
0001e0 87 5d 8c bd 79 47 66 bc 2a 9e ee b9 e4 ec 07 bd
       -0.068537764 -0.014055126 -0.0004551274 -0.0331849
0001f0 14 10 0f bc ba b9 20 3b 2a d6 1b 3d 6b 8f 21 3d
       -0.008731861 0.0024524764 0.03804604 0.039443415
000200 76 b9 3a bd 14 a9 af bc 9b ab 18 bd d3 9a 3a bd
       -0.045587026 -0.021442927 -0.03727303 -0.045557808
000210 e1 0e 40 3d ab 3e e2 3c 5b 8b c1 3c ff 9d 2e 39
       0.04688919 0.027617773 0.02362602 0.00016652791
000220 62 4b 2c 3c 71 20 94 3c 92 01 95 bd d1 93 98 3b
       0.01051602 0.018081876 -0.0727569 0.004656293
000230 0d a8 dd bc dc ad 57 bd aa 8d 82 bd 8b ad ba 3c
       -0.027057672 -0.05265604 -0.063746765 0.02278783
000240 4a a8 2d 3d 4c fa c5 3c 80 b5 dd 3c 4e a2 38 bd
       0.04239682 0.024167202 0.027064085 -0.04507666
000250 e4 8f 13 bc 53 5b 6c bb 33 28 0d bc 23 16 0a bd
       -0.009006474 -0.0036065176 -0.008615541 -0.033712517
000260 36 ed 87 bd b4 cb 15 bc 30 21 61 bd 13 8d f8 3a
       -0.06637041 -0.009142805 -0.05496329 0.0018962942
000270 2f 6a e1 3c 0c 7d 83 bc 51 a3 86 bc e7 f2 00 3c
       0.027516453 -0.016050838 -0.016435297 0.007870412
000280 e9 9e 2e bd da a4 02 bd 15 6e 47 3d 71 7f 37 bd
       -0.042632017 -0.031895496 0.048688967 -0.044799272
000290 18 d1 74 bd 72 0f ef bc d3 db 6c bc 99 b0 ca bc
       -0.05976972 -0.02918217 -0.014456707 -0.024742411
0002a0 00 94 4f bd f1 71 0d bb bf 2e 11 3c 67 d7 23 bd
       -0.050678253 -0.0021582807 0.008861243 -0.040000346
0002b0 1d 08 80 bd be d4 28 bd a2 47 b4 bc 08 02 8b bc
       -0.062515475 -0.04121851 -0.022006813 -0.016968742
0002c0 59 ad 40 bd 4d 03 2e bc 0b 9e 86 bd 3b 49 83 bd
       -0.047040317 -0.010620904 -0.06573113 -0.06410452
0002d0 fb dc 86 bd 76 7a d8 ba 40 4c 6f bd 0a bd 39 bd
       -0.065851174 -0.0016515988 -0.058422327 -0.045346297
0002e0 ec 58 8f 3c f2 0a 30 3b aa 4c 61 3d 50 67 95 bd
       0.017498456 0.0026861993 0.055004753 -0.07295096
0002f0 5d b7 7a bd 65 42 a1 bc 98 70 30 3d 0e cc ae 3b
       -0.061210025 -0.01968498 0.043076128 0.005334384
000300 0d 7c 80 bd fa 7d d7 3c e1 18 8b bd d8 ef 0e bd
       -0.06273661 0.026305187 -0.06791855 -0.0348967
000310 e9 eb 6a bc 33 4c a9 3c 2e cf da bb ab b5 07 bd
       -0.014338472 0.020666217 -0.00667753 -0.033132236
000320 35 41 71 bc 9e 9d 76 bc ef e7 4a bb 18 4d 34 bb
       -0.014725019 -0.015052227 -0.0030960997 -0.0027511772
000330 67 73 19 bc a1 7f a6 bc a0 37 36 3d eb ad f6 bb
       -0.009365893 -0.02032453 0.044486642 -0.007528057
000340 48 9b 4b 3b fd 25 18 3c 62 8d 9a 3c 44 4c e9 3c
       0.0031067897 0.009286401 0.018866245 0.02847875
000350 f4 1a 7d 3c d1 0d 29 bd 1f 06 49 3b 61 3e 37 3d
       0.015448321 -0.041272942 0.0030673814 0.044737224
000360 da 7c 51 bd c6 ad 99 3c f7 e5 71 bd 19 36 1f 3c
       -0.05114446 0.01875962 -0.059057202 0.009717488
000370 3c ab b0 3c 62 0f 0d bd 0c 28 02 bd b0 4b 2f 38
       0.021566026 -0.0344385 -0.031776473 4.179374e-05
000380 32 96 0f bc 91 5c 33 bd 92 ba 96 3c af 1f 4d bd
       -0.008763837 -0.04378945 0.01839951 -0.050079044
000390 01 c6 ef bc 34 40 9c bc ed 1e db bc 2a 6c 95 bd
       -0.02926922 -0.019073583 -0.026748145 -0.07296021
0003a0 7d fb c3 3c 6b b8 30 bd f9 18 5f bd fe 1c 4c 3c
       0.02392363 -0.043144625 -0.054467175 0.012458084
0003b0 14 ec de bc e8 ce 42 bd b7 76 27 bd 48 2b 30 bd
       -0.02721218 -0.047560602 -0.0408847 -0.043010026
0003c0 85 66 b2 bc b4 d0 17 bd 78 88 22 bc 63 d5 2c bd
       -0.0217774 -0.03706427 -0.009920232 -0.04219569
0003d0 1f 47 01 bd 38 66 be bc 7f 9f ed 3b f7 aa a8 3b
       -0.031561967 -0.023242101 0.0072516794 0.0051473337
0003e0 36 07 16 bd 29 59 88 3c 8e cc f2 3c 37 30 ed 3c
       -0.03662797 0.016644077 0.029638555 0.028953655
0003f0 56 ef 46 bd 7d 26 31 bd cf d3 8b bd 49 28 07 bd
       -0.048568092 -0.043249596 -0.06827509 -0.032997403

net.2.bias f4 [256]
000000 89 93 03 bd 48 e2 9f 3d 51 5a 4c bb 08 89 a2 bd
       -0.032123122 0.078068316 -0.0031181762 -0.07936293
000010 38 5b c3 bc df b2 88 bb 39 a4 8b bb 01 83 49 bd
       -0.023847207 -0.0041717137 -0.00426152 -0.0491972
000020 a9 89 b0 3d 05 14 de 3c 12 b6 08 bc 6b ef fd bc
       0.086200066 0.027109155 -0.00834419 -0.030997952
000030 c7 d5 02 3d 31 94 a2 3b e2 2b 39 bd e2 7e 9a 3d
       0.031942155 0.0049615134 -0.045207866 0.07543732
000040 5c 6f 05 3c 72 db 73 bd e1 a2 12 3a 1c b7 79 bd
       0.008144226 -0.05953545 0.0005593729 -0.060965642
000050 a3 81 32 bc 47 73 f8 3a fe a9 56 bd b7 39 8b 3c
       -0.010895166 0.0018955254 -0.05240821 0.016995294
000060 76 59 6f bc fa f3 4a bc 78 a1 37 bd 76 10 3a 3d
       -0.0146087315 -0.01238727 -0.044831723 0.045425855
000070 77 12 a8 39 42 20 8b 3d cd 27 9b bd 75 c9 9f bc
       0.00032057214 0.06793262 -0.07575951 -0.019505242
000080 67 63 65 3d f8 48 57 bd 65 d2 f8 3c 9c 25 86 bd
       0.056003 -0.052559823 0.030373761 -0.06550142
000090 66 e7 3a bd db e6 30 bd ce 1f 03 bd 05 e2 3d 3d
       -0.045630835 -0.04318891 -0.032012753 0.046358127
0000a0 86 42 cb 3c 96 02 0f bc 2a 2f 43 bd 04 00 41 3c
       0.024811994 -0.008728644 -0.0476524 0.011779789
0000b0 4b fd 00 3e c2 ba be bc d8 9c 30 39 a2 bf db 3c
       0.12596624 -0.023282412 0.00016843097 0.026824776
0000c0 dd c2 69 bc 11 9b 53 bd 42 fb 3a bd 89 42 e2 3c
       -0.01426765 -0.051661555 -0.045649774 0.027619617
0000d0 3c 77 ef 3d ad a8 cb 3d 3f 0e 2a 3d 2f 67 d7 3c
       0.11692664 0.09944282 0.041517492 0.026294319
0000e0 d7 5f 3e bc 69 77 a7 3d 4a 1d 99 3c d1 b7 a6 3d
       -0.01161953 0.081770726 0.018690724 0.08140529
0000f0 d3 58 08 3d fc 65 1d bc 62 10 3d bd db 9c 69 bd
       0.033287834 -0.0096068345 -0.046158202 -0.057034355
000100 5c ef fe 3b 95 fb a2 bc 50 f3 00 bd 29 9a 4c bd
       0.0077799987 -0.019895354 -0.03148204 -0.049951706
000110 cc 33 01 bd f5 05 a4 bb 7a c1 4d bd f3 ca 89 3c
       -0.031543538 -0.005005593 -0.05023334 0.016820407
000120 a6 e5 5a bc a2 37 9a 3c 05 18 03 3b 9f ae 51 bd
       -0.0133604165 0.018825356 0.002000333 -0.051191922
000130 67 a4 cb 3c aa b9 ae 3b 30 de 27 bd 79 ed e4 3c
       0.024858667 0.0053321915 -0.04098338 0.027945267
000140 5d 0f 11 ba 4e 8e 29 3d 74 6f 99 3d d1 08 41 3c
       -0.00055336003 0.041395478 0.07491961 0.011781887
000150 38 67 32 bd e7 c4 51 bd 39 41 4c bd 95 35 05 3d
       -0.04355547 -0.05121317 -0.04986689 0.032521803
000160 92 32 03 3d 36 40 ec 3c af ee 1d bd 12 69 6c 3c
       0.03203065 0.028839212 -0.038557705 0.014429348
000170 19 d2 e8 bc fe 63 32 bd c6 01 1c 3d 6f 73 b8 3c
       -0.028420495 -0.04355239 0.03808763 0.02251598
000180 0f 40 9f 3d 3d a8 0f bc fe 2e 3e 3d fa b3 d3 3d
       0.0777589 -0.0087681385 0.046431534 0.10337062
000190 34 c6 cb bc ed e5 97 bc 7d 72 e3 3d 5f f6 cb 3c
       -0.024874784 -0.018542254 0.11105821 0.024897752
0001a0 88 96 a2 3d 52 cc 31 bd 73 66 0c 3b 41 d2 51 3b
       0.07938868 -0.043407746 0.002142337 0.003201619
0001b0 f6 b7 3d 3b e8 bc 2e bd 08 6e 13 3c bc 66 ac bc
       0.002894876 -0.042660624 0.008998401 -0.021045081
0001c0 71 6f 47 bd 8e 87 75 bd c5 a8 ac ba 71 41 c3 3c
       -0.048690263 -0.05994373 -0.0013172856 0.023834916
0001d0 a3 e1 2c bd 17 d7 ee bc 64 ab 8f 3d 7d eb 5a bb
       -0.04220737 -0.029155297 0.07015112 -0.0033404522
0001e0 69 ed aa 3d 97 0e 20 3b f1 0c cc 3d 34 2a 83 3b
       0.08346064 0.0024422759 0.09963406 0.0040028337
0001f0 06 87 83 bd dd b0 cd bc 24 1b 30 3d 23 02 e2 bc
       -0.06422238 -0.025108749 0.042994633 -0.02758891
000200 3a f7 b5 3d dd ed 18 bd be 69 38 3d cc cd c2 bc
       0.08885045 -0.03733622 0.04502272 -0.023779772
000210 ab b9 a8 3d 35 0e 10 bd 62 48 a5 3c b0 2d 53 bd
       0.08238538 -0.0351698 0.020176116 -0.051557243
000220 ea 8c 9a 3d 86 1f b2 3d 0b 0b 7b bc 56 f8 8d 3c
       0.075464085 0.08697419 -0.015322457 0.01733033
000230 31 13 46 bd 4c 98 81 3c 6b 99 10 bc 6a 1c de 3c
       -0.048358146 0.015819691 -0.00882564 0.027113158
000240 91 c5 52 bd 40 f5 42 bd c7 35 28 3d 3c 47 8e 3d
       -0.051457945 -0.04759717 0.04106691 0.06947181
000250 c8 ca 2b bc f9 67 01 3c 4b 45 98 3d 0b 48 b4 3c
       -0.010485359 0.007898324 0.074350916 0.022007009
000260 d4 92 c8 3c fc c5 b7 3c 67 51 df 3d ed 7f 70 bc
       0.024484076 0.022433273 0.10904198 -0.014678937
000270 94 31 49 3d b0 cb 11 3d ed c3 c5 3d 67 30 c7 3d
       0.049119547 0.035594642 0.096565105 0.09726029
000280 e0 52 a5 3d 53 21 f4 3b ae 45 bf 3d 1c f7 74 bd
       0.08072448 0.0074502616 0.09339462 -0.059805974
000290 88 99 80 3d 11 69 81 3d 1c b4 00 bd 94 8c 52 3d
       0.06279284 0.06318868 -0.031421766 0.051403597
0002a0 5a b5 27 bd e8 71 2c bd fc be 6c 3b b5 f1 4d bd
       -0.040944435 -0.042100817 0.0036124578 -0.050279338
0002b0 f6 cc 6a bd 0d 6a d0 3b c4 dd 6d bd 47 27 81 bd
       -0.057324372 0.0063602985 -0.05807282 -0.0630632
0002c0 3b eb fe 3c 29 1f 34 3d bc 58 5b 3d 00 0a ad 3d
       0.031118026 0.04397503 0.05355142 0.08449173
0002d0 5b d2 47 bc b5 a4 9c 3b e2 65 c0 3d 22 8d cc 3b
       -0.012196149 0.004780377 0.093944326 0.0062424103
0002e0 78 54 85 bc d6 a9 c9 3d 50 88 7a 3d 79 b1 3b bd
       -0.01627563 0.09846847 0.061165154 -0.045823548
0002f0 7a b6 93 bc 77 8c be 3d 3f 35 23 bd 84 b7 bf 3d
       -0.018031348 0.09304135 -0.0398457 0.09361175
000300 48 7c 5c bc f2 f4 dd bc b6 bf c6 bc b1 b5 57 bc
       -0.013457365 -0.027094338 -0.024261337 -0.013165877
000310 22 91 53 3d ad a8 d0 3d 14 be 98 3d 22 83 2b 3d
       0.05165208 0.10188422 0.074581295 0.041873105
000320 76 33 98 3b 15 ab 0b 3c a2 04 81 3c 01 6f 83 3d
       0.0046448065 0.008524676 0.01574928 0.06417657
000330 0d 7c 0e bc ad 4f 0a bd db a6 b7 bb 4d 48 84 3d
       -0.008696568 -0.03376739 -0.0056046075 0.06459103
000340 aa 95 55 bd 4e ab 30 bd 80 8a bc 3d f0 fd 53 bd
       -0.052144684 -0.04313212 0.09206104 -0.051755846
000350 1e 53 50 3d ab 42 80 3d b1 b6 9c bc 5e d1 0d bd
       0.050860517 0.06262716 -0.019130083 -0.034623496
000360 67 a6 86 3d eb d5 ee 3c c1 7f 69 bd e5 ef 9e 3d
       0.065747075 0.029154738 -0.0570066 0.077606
000370 d3 62 64 bd d9 7b 95 3c a8 36 b2 3b 6a 9a 9d bb
       -0.05575831 0.018247532 0.0054386444 -0.0048096674
000380 aa 66 df 3d 78 e2 74 3c 36 6e f2 3c 2c 31 18 bd
       0.109082535 0.0149465725 0.029593568 -0.03715627
000390 42 92 96 3b 9a de 0c bd e1 c7 f2 bc ba a2 4b bd
       0.004595072 -0.034391977 -0.029636325 -0.049715735
0003a0 0d c9 2c 3d f4 2e 87 3c 79 95 cc 3c 82 ac 59 bd
       0.042183924 0.016501881 0.024973618 -0.053143032
0003b0 d8 03 20 3d 9d 97 bd 3c 43 da e6 bc 2b 0d 9b 3c
       0.039066166 0.023143584 -0.028180247 0.018927177
0003c0 ee 8c 4a bd 1c 44 2d bc e5 ea d4 3d 54 97 72 3d
       -0.049450807 -0.010575321 0.10396365 0.05922635
0003d0 42 83 b3 3c 1c c0 39 3c 32 d3 17 bc db ba b6 3c
       0.021913175 0.011337306 -0.0092666615 0.022305897
0003e0 77 c1 95 bc 12 0b ac bc 11 ed 12 3b b9 f9 fd bc
       -0.018280728 -0.021001372 0.0022419135 -0.031002866
0003f0 61 32 80 bc a8 07 e6 3c a1 77 d9 bb 32 41 e3 3b
       -0.015649023 0.028079823 -0.0066365753 0.006935262

net.4.weight f4 [3, 256]
000000 8e 91 c3 3c d4 57 9d be 3c 66 13 3c 1e 15 0e 3d
       0.023873117 -0.3073107 0.008996543 0.034688108
000010 24 82 da ba a1 8b fe 39 ad 25 24 3d c0 67 4c 3b
       -0.0016670865 0.00048550687 0.040074993 0.003118977
000020 89 6c 40 be 37 63 7a bb f0 f3 0c bd d4 a7 40 bd
       -0.18791403 -0.003820611 -0.034412324 -0.047035053
000030 fc a9 43 be a3 30 04 3c 74 4e b6 3c a7 94 3c be
       -0.19107813 0.0080682365 0.022254206 -0.18416081
000040 f4 6a e7 ba b3 5d e4 3c d3 c3 35 ba 27 de 41 3c
       -0.0017655776 0.02787671 -0.0006933782 0.01183275
000050 12 f4 0c bd f9 a8 53 bc 60 a0 43 bd 61 56 bf 3c
       -0.03441245 -0.012918704 -0.047760367 0.023356618
000060 90 0c 46 bc 9c eb af 3b 3e 17 99 bd 1f 58 81 be
       -0.012087956 0.005368663 -0.07475136 -0.25262544
000070 9e 0b b4 3a 3e 34 4c be 36 1c f2 3a cc fe 05 3a
       0.0013736372 -0.19941804 0.0018471542 0.0005111515
000080 cc 7d 69 be 2c 9d 02 bd 82 77 8c 3c c4 df 51 bd
       -0.22801894 -0.031888172 0.01714683 -0.05123879
000090 60 f4 a6 3c e3 ed 2f 3d 98 f6 54 bb b6 fb 7f be
       0.020380199 0.042951476 -0.0032495614 -0.24998364
0000a0 d0 a5 27 3d d7 9f 1e 3d 94 3a 3b bd 7f 7c 11 bc
       0.040929615 0.038726654 -0.04571016 -0.00887978
0000b0 46 bc 84 be e9 13 e2 3c 3c 54 42 3c 17 99 0e bf
       -0.2592489 0.027597385 0.011860903 -0.55702347
0000c0 27 52 b0 3c 68 86 05 3d c7 4e 2c 3d f8 13 36 bd
       0.021523548 0.032598883 0.042067315 -0.044452637
0000d0 25 e6 82 be 81 ca 44 be 89 f4 b5 bc fa 81 e7 3c
       -0.2556621 -0.19217874 -0.02221133 0.02826022
0000e0 62 40 2a 3c 43 55 45 be 67 6d 2b 3d 57 7c 58 be
       0.010391327 -0.19270806 0.04185238 -0.21141182
0000f0 e8 99 8b be 79 b9 97 be 64 f5 2b bd 3e 5b f5 3b
       -0.2726586 -0.29633692 -0.04198207 0.0074876836
000100 01 f0 9e b9 be 14 40 bd 19 be 28 bd ef ab db 3c
       -0.00030314925 -0.04689478 -0.041196916 0.026815383
000110 12 fc ff bc f0 2e 6b bc fd 94 96 3b 00 4e 69 be
       -0.031248126 -0.0143544525 0.0045953975 -0.22783661
000120 82 50 7d bc d8 58 42 3c ac c2 27 bd 85 9c 9e 3b
       -0.015461089 0.011862002 -0.040957138 0.004840436
000130 79 c3 af 3c ff 7a 90 bc 64 9a ac bc b4 a6 3b be
       0.021455513 -0.017636774 -0.021069713 -0.18325311
000140 e1 ae d1 bc 73 38 65 bc 49 c2 3f be ce e5 29 be
       -0.025596084 -0.013990509 -0.18726458 -0.1659157
000150 20 50 ce bc 28 3a 83 bc ce 64 a8 3b 08 88 a1 bc
       -0.025184691 -0.016018942 0.00513897 -0.019718185
000160 7d 0e 46 bc 04 55 4e bd a3 9c cf bb 75 2e 80 be
       -0.012088415 -0.050374046 -0.006335811 -0.25035444
000170 1d d9 68 bc 52 db 0e 3d f5 7d 4e bd 21 11 f7 3c
       -0.01421192 0.03487713 -0.05041309 0.030159535
000180 51 56 7d be 76 b8 2b 3d 16 02 61 ba a4 c0 9c be
       -0.24739958 0.041923963 -0.00085833797 -0.30615723
000190 b9 ff d1 3b 86 75 dd bc c5 76 96 be be e5 1c bd
       0.0064086583 -0.027033579 -0.2938749 -0.038305037
0001a0 30 1b 71 be 6d bd 26 3d d4 2b 85 3c 5f 83 c2 bc
       -0.23545527 0.040707994 0.01625625 -0.023744283
0001b0 c1 54 0c 3c 45 bd 41 3c f4 31 3a 3d a7 a4 b9 3c
       0.008565129 0.0118249105 0.045457795 0.02266152
0001c0 65 94 29 3d 09 38 56 3c 86 91 61 38 58 82 bf bc
       0.041401286 0.013074883 5.377971e-05 -0.023377582
0001d0 b6 9c 12 3d 71 dc 39 3c c4 22 6a be 85 fc bb 3b
       0.035793982 0.011344061 -0.22864825 0.00573689
0001e0 3a 4a 99 3c ac 06 20 bd 1c 1f 75 be 94 a3 ba 3c
       0.018712152 -0.039068863 -0.23937649 0.022783078
0001f0 94 0c 4b ba 92 0b 27 3c 38 65 83 bb f8 df 9c bc
       -0.000774571 0.01019563 -0.004009869 -0.019149765
000200 a1 f4 62 be da 7b 52 bd 1b 71 67 3c d7 23 6d 3c
       -0.22163631 -0.051387645 0.014126088 0.014473877
000210 03 bd 8b be 46 5a 0e bd ff c4 68 bb 24 a9 89 3c
       -0.27292642 -0.03475406 -0.003551781 0.016804285
000220 1b 12 7e be e1 56 55 be a8 dd 74 bb ea e2 22 3c
       -0.24811594 -0.20833923 -0.0037363563 0.009941796
000230 82 5d 82 bc 78 33 95 bf 79 f7 5a bd e0 60 96 bc
       -0.015913729 -1.1656332 -0.053458665 -0.01835674
000240 09 a8 d4 ba 46 fb 00 3d 5b 11 2f 3d d8 78 b3 be
       -0.0016224395 0.031489633 0.04274116 -0.35053134
000250 06 a3 6c bd d4 97 14 3c 21 bb 59 be ac f5 fc bc
       -0.05777266 0.009069402 -0.2126279 -0.030878864
000260 f0 ca 7d be 7c 32 0b bc 3f 13 60 be b7 b2 1f 3d
       -0.24784446 -0.008495923 -0.21882342 0.038988795
000270 0d 49 89 be 53 9c 07 bb 92 81 8d be dc 31 69 be
       -0.26813546 -0.0020692542 -0.27637917 -0.22772926
000280 c8 70 45 be 63 f6 b2 3c b1 e6 98 be 46 85 3e bd
       -0.19281304 0.021846002 -0.29863504 -0.04651382
000290 78 71 75 be 2e 91 80 be 69 d0 2b 3d f7 03 1f bd
       -0.23969066 -0.25110763 0.041946802 -0.03882214
0002a0 62 e2 bb 3c c5 cd 0c bc df 04 0b bd 47 32 b4 3a
       0.022935096 -0.008593981 -0.033940192 0.0013747894
0002b0 36 b1 0e 3d c4 fa 3f be 31 fe 00 3d 75 b1 aa bc
       0.03483697 -0.18748003 0.031492416 -0.020836571
0002c0 a5 7d 48 3d 44 b8 81 bc 15 6f 50 be 81 67 3b be
       0.04894795 -0.015834935 -0.20354874 -0.18301202
0002d0 17 f9 1b bd b3 68 c9 3c 3f 23 61 be ab d2 4c bd
       -0.038079347 0.024586057 -0.21986102 -0.050005596
0002e0 ba 1e e1 3c e7 cc 84 be 4e 94 94 be 7c 69 97 3c
       0.027480472 -0.25937578 -0.29019397 0.018482916
0002f0 8a 42 7f 3f 9d 9c 86 be 13 31 b3 3c bd 44 98 be
       0.99710906 -0.2629136 0.021873986 -0.29739943
000300 08 52 12 bd 13 f7 37 bc a9 b3 ba bb 1b 15 47 3c
       -0.035722762 -0.011228341 -0.0056976867 0.012151028
000310 91 9e 43 3d 3f 80 88 be cf 23 52 be 5f 4d 8c 3b
       0.047758643 -0.26660344 -0.20521472 0.0042816843
000320 9d 52 95 bc 18 d8 7f 3c 6c e5 8a be 3e 85 54 be
       -0.01822787 0.015615486 -0.2712816 -0.20753953
000330 40 96 94 bb 77 f7 2b 3d 58 5d d5 3c 72 b9 89 be
       -0.0045345128 0.041984048 0.026045486 -0.26899296
000340 17 f3 24 bd 02 12 2c 3d 5c 10 80 be 03 2b 27 3d
       -0.04027089 0.04200936 -0.2501248 0.040812504
000350 40 97 6e be 08 bc 79 be 92 4c 19 bb 04 78 18 3c
       -0.23299885 -0.24388134 -0.0023391587 0.009305958
000360 b0 ab 19 3f 5a cc 7a 3c d7 fe 11 3d 6b f2 91 be
       0.600276 0.01530751 0.035643425 -0.28505263
000370 ee 61 b7 3c d4 b3 bb be 45 21 dd ba 55 fd ea 3c
       0.022385564 -0.36660635 -0.0016870877 0.028685251
000380 ba 8a 81 be 95 a3 16 ba 5b e6 4d 3b 77 74 98 bc
       -0.25301152 -0.00057464215 0.003141782 -0.018610222
000390 f7 3a 83 3b 1f c5 36 3d a2 c9 94 bc 57 19 2a bd
       0.004004832 0.044621583 -0.018162552 -0.041528072
0003a0 62 94 50 3d fd 39 f6 3c 4b b1 f3 bc c2 c1 50 3c
       0.05092276 0.030056948 -0.029747626 0.012741508
0003b0 de 6e 13 3d 2e 75 72 be ae b8 2a bd 77 be 32 bd
       0.035994403 -0.23677513 -0.04168003 -0.043638673
0003c0 4f b2 72 3b ce 8e 95 bc 21 b0 5c be 0f c8 50 be
       0.003703255 -0.018256571 -0.21551563 -0.20388816
0003d0 22 b0 e2 3c e9 bd 22 3d 46 7d be bb 12 08 6d bd
       0.027671877 0.039731894 -0.0058132736 -0.057869025
0003e0 05 62 41 3c 61 dc d0 3b bc e2 52 bd f7 71 c6 3c
       0.011803155 0.0063739275 -0.051485762 0.024224265
0003f0 7b db f8 bc 79 f0 01 3d c9 12 b7 3c 0f ef 55 be
       -0.030378094 0.031723473 0.022347825 -0.20891975

net.4.bias f4 [3]
000000 1b 20 e0 bd 9b 96 63 bc d9 61 42 be
       -0.10943624 -0.013890888 -0.18982638
