wandb/run-20251114_012841-toazgqzr/files/models/DDQNAgent/Pendulum-v1.pth (torch, 275525 bytes, 6 tensors)

net.0.weight f4 [256, 3]
00000000: fa4f d93e 739f 76be c74b 82be 4d93 4e3f
00000010: 6376 6dbe 1061 ac3e 6619 94be 164f 783f
00000020: 85eb 853e a110 08bf 99e6 2a3f 9e5f 1dbe
00000030: 72fa 4b3f a526 263f 73ba a13e 486a 253d
00000040: 01ed 423f 236f 7f3c 262c 3dbf e27a 49bf
00000050: c325 91be f7bd b9be 9d02 853f 952e 853e
00000060: 8b0a 12bf abe4 4ebf c290 c6bd dbfd 58bf
00000070: 4c31 a3bf faa7 bdbe 75f6 173f a0e0 1abf
00000080: 6407 f03e 22b4 92bd 5f70 a23e be33 953e
00000090: 4fd1 9b3e a967 2f3f 02e9 883d 7bb9 a4be
000000a0: 9833 5fbf a4fe 70be 3d22 6a3e c7f8 823f
000000b0: c3c2 753e 029c dabe aa69 173f 9f8f 383e
000000c0: 83d2 803f 6219 4dbf 1539 07bf eca2 1fbf
000000d0: 4ad5 553d acaa be3e a19a 2bbe 0793 213f
000000e0: 115a 78bc 098b c8be 11ec 8fbd 2cd1 bdbe
000000f0: de5d 84be 233e a63d 642a 803e 3f85 8bbe
00000100: a36f 233e 5150 b2bd 0aba a63f 57a1 88bf
00000110: ea57 f8be cd0e 1fbf 01d3 1c3f a803 613e
00000120: 3177 813f ccd5 c4bf 4be8 d7be c9bf 31bf
00000130: 8d62 9c3f 59e5 9f3e 9f76 d73e ca6a 323f
00000140: e017 44be 8ef8 acbe cf22 94bf 959f 9ebe
00000150: 109d 0a3f 5c9d a83c 2058 ae3e 319a 26bf
00000160: 0d2e d0bd 8659 213e c0c5 c7be ffb8 1a3e
00000170: 5bd0 993e d04b 893e 5e03 44bf 785f 4fbd
00000180: d31b 5b3f e81f 54bf acd4 a1be 2a4f 29bf
00000190: 0266 18bf 937c 0f3e f490 0ebd 7b73 9cbe
000001a0: f936 73bc 9b5f 48bf c4f6 30bf a57f 54be
000001b0: 826f 0fbf 16a9 ab3e 995e be3e f515 98be
000001c0: d341 b1be e066 e0be 105e 03bf e461 f3be
000001d0: 500c e43d b05b 3fbf 8805 17bf a0ce 8cbe
000001e0: cc01 28bc 91a2 90be 5725 ccbc 69bf e2be
000001f0: d3ec b2bf b45b 7ebe c038 88be bc0c 4d3f
00000200: ffb0 d43e 01ef 8abe 45b2 6b3f 22c6 163e
00000210: 4e1d 0abf bfbd 173f 9748 f2bd a4c8 4dbf
00000220: 919d 90bf 2a4b bbbe dd58 ae3e 966a 2e3d
00000230: 5d60 393e 51f5 89bf 4466 cdbe a6fe 93be
00000240: 1fb1 8fbe f510 0e3f 4d24 1e3e 3460 d83e
00000250: ee99 1e3f d2c8 bbbe b1c2 ce3e 1a96 16bf
00000260: 6fed 0d3d 87c9 d9be eff9 a03e 5350 a1be
00000270: 5909 163f 974a f63e 4e93 c43d 91c8 bbbe
00000280: 4db5 263f f81c 363d 70df e4be 8aa4 22bf
00000290: 12fa 8b3e 5e27 94be 99ec 843e 8499 cc3e
000002a0: c1bd 023f 5a8b 69bf a7ea 80be 2884 11bf
000002b0: e5ea 58bf cec3 88be b15a 40bf 4ca1 21bf
000002c0: 9848 89be d79c 31be 9bf6 9a3f 2719 e7be
000002d0: e07c b4ba a03b 2e3f 896e 973d 6ddb d9be
000002e0: d362 b23f e064 a83e 51d4 fe3d 45a3 c5be
000002f0: 2365 8bbc 03e4 0b3b 5fff 18bf da94 48bd
00000300: 7134 3c3e b82b 34be e0c5 68be fe56 92bd
00000310: 29b1 54bc 8554 663b 3f66 99bd e191 1fbf
00000320: 214f e0be eff6 01bf 659e 453f ef18 3a3e
00000330: 8444 bd3e 6c8e c6bf a2e9 d5be 51f8 30bf
00000340: 6e8d acbd ce5d 333e c7cb 823e 7727 9c3e
00000350: 1e11 e2be 14ea 86be c86f 753f f78d e43e
00000360: b916 273e 67de 1bbe cc23 6c3e 21b7 30bf
00000370: 4ff0 f03e 1541 9a3e 2faa 18bf b404 83bf
00000380: 37c5 c9be 5855 583f 064e 163f c21b 8a3e
00000390: 2b9e 17bf c22d afbf 5bee b5be 725b 773f
000003a0: 8706 723f 93ea bb3e dded 843e 658b 3b3f
000003b0: 0172 43bd bdb1 28bf 558a c0bf e41f d6be
000003c0: ba96 7cbd 1ffe 1cbf cdec d3bc 48ed 0dbf
000003d0: 0cad f3be 78ae 49be 22bb 02bf 926c 8fbe
000003e0: d39d 38be d524 de3e 0845 aabe 614b d5be
000003f0: 94ff 113f 66f5 3fbf ab10 76be 1fec dbbe
0.4244383 -0.24084263 -0.2544844 0.80693513 -0.23189692 0.33667803 -0.28925627 0.96995676
0.2615625 -0.53150374 0.66758114 -0.15368506 0.79679024 0.64902717 0.31587562 0.04038456
0.7614289 0.015590462 -0.7389549 -0.7870313 -0.28349122 -0.36277744 1.0391423 0.26012102
-0.5704734 -0.8081767 -0.09695579 -0.8476235 -1.2749419 -0.37042218 0.5936044 -0.60499
0.4688064 -0.07163264 0.31726357 0.2914104 0.30433127 0.6851755 0.06685068 -0.3217276
-0.871881 -0.23534638 0.22864623 1.0232171 0.24000077 -0.4269715 0.59145606 0.18023537
1.0064243 -0.80116856 -0.52821475 -0.62357974 0.05220536 0.37239587 -0.16758205 0.6311497
-0.015158192 -0.39168575 -0.07027448 -0.37073648 -0.25852865 0.081173204 0.2503234 -0.27250096
0.15960555 -0.087067254 1.3025525 -1.0674237 -0.48504573 -0.6213196 0.61259466 0.21974051
1.0114499 -1.5377746 -0.42169413 -0.69433266 1.2217575 0.31229666 0.42082688 0.696942
-0.19149733 -0.33783382 -1.1573123 -0.30981126 0.5414591 0.020582847 0.3405161 -0.6507903
-0.101650335 0.15756807 -0.3901806 0.15109633 0.30041775 0.26815653 -0.7656764 -0.050628155
0.8558933 -0.82861185 -0.31607568 -0.6613642 -0.5953065 0.14012365 -0.034806207 -0.30556855
-0.0148446495 -0.7827088 -0.69126534 -0.20751818 -0.5602952 0.3352744 0.37181547 -0.29704252
-0.34620532 -0.43828487 -0.51315403 -0.47535622 0.11135161 -0.7474928 -0.58992815 -0.27501392
-0.010254335 -0.28249028 -0.024920149 -0.4428666 -1.3978523 -0.2483967 -0.26605797 0.80097556
0.41541287 -0.2713547 0.9206889 0.14724019 -0.53950965 0.59273905 -0.11830252 -0.8038428
-1.1298085 -0.36580783 0.34052172 0.042582117 0.18103166 -1.077799 -0.40117085 -0.2890522
-0.2806482 0.55494624 0.15443535 0.42260897 0.6195363 -0.3667665 0.40382913 -0.58822787
0.034650262 -0.42536566 0.31440684 -0.31506595 0.58608013 0.48103783 0.09598409 -0.36676458
0.65120393 0.04446122 -0.4470172 -0.63532317 0.27339226 -0.28936285 0.2596176 0.39960873
0.5107079 -0.9122826 -0.25179026 -0.5684228 -0.8473342 -0.26711887 -0.75138384 -0.63136744
-0.26813197 -0.17344986 1.2106508 -0.45136377 -0.0013770126 0.6805973 0.0739413 -0.4255022
1.3936409 0.32889462 0.1244284 -0.38601127 -0.017016 0.0021345622 -0.59764665 -0.04897008
0.1837938 -0.17594802 -0.22731733 -0.07145499 -0.012981691 0.0035145592 -0.07490205 -0.6233197
-0.4381037 -0.50767416 0.77194816 0.18173574 0.36966336 -1.5512214 -0.4177981 -0.691289
-0.08425413 0.17516252 0.25546095 0.3049886 -0.44153684 -0.26350462 0.9587369 0.4463956
0.16317262 -0.15221559 0.2306053 -0.6902943 0.4705834 0.3012778 -0.5963468 -1.023581
-0.39408275 0.84505224 0.58712804 0.26974303 -0.5922572 -1.3685839 -0.35533413 0.9662391
0.9454121 0.36702403 0.25962725 0.73259574 -0.047716144 -0.6589621 -1.5042216 -0.41821206
-0.06166718 -0.6132526 -0.025869751 -0.5544019 -0.47592962 -0.19695461 -0.5106679 -0.2801252
-0.18028955 0.43387476 -0.33255792 -0.41659072 0.57030606 -0.74983823 -0.24029796 -0.42953584

net.0.bias f4 [256]
00000000: 10c9 27bf 3eab 453f 3d6e f33e 2b18 de3e
00000010: e6f1 bdbe e6c0 1dbe 244c 213e 228a 85be
00000020: c287 6cbe bca7 9d3e af6a 943e cd94 19bd
00000030: ce79 dbb8 52bd 0cbe 72b9 f23d c2d3 5e3e
00000040: c1ec 88bf c8c4 38bf fe7e b83e 739b 5dbe
00000050: 5d04 a9be 72ab 243f c3a1 08bf adab c33e
00000060: ae51 eb3d 26ec 20be 339a 2a3f 6758 7fbe
00000070: e098 28bf 9f59 9bbc 083d e7be 6a93 553f
00000080: b203 64be 78f2 c83e 8999 ddbe c123 003f
00000090: 2ec8 88bc f25d bfbe 6b11 983e cc75 093f
000000a0: 7f40 203f f9c1 ef3d 5ef5 36be d72d d23c
000000b0: 0cb6 ce3e 8f41 d43e 36bb 0b3f 77db 563e
000000c0: e830 d43e 8325 193f 8b42 5abe f299 f93e
000000d0: ff26 133f 593a 033f 799d 99be 4f8c b3be
000000e0: afe9 47be 6241 463d d38c fd3e 3e65 1abf
000000f0: 997e 733e 87c7 82bd d0a0 133f 683c 423e
00000100: 2196 3cbf 4d34 90be a9eb 91be 689a 683e
00000110: 9e15 4abf ed73 8a3b 9b94 2e3e e716 8ebe
00000120: fcb1 0d3e 40ec 1ebf a805 d8be 5f39 1abf
00000130: b2e9 9d3d 0fc2 bbbe dda8 3c3e b05a 223e
00000140: 93a3 ea3e 5b72 293f 99b2 d63e 7862 8cbe
00000150: 0bea a0be 0ad2 fa3e c008 78bf f333 f33e
00000160: c681 3a3e 103d 563e 9b8d 533f 4768 e43e
00000170: f5f1 c73e 1025 c6bc 9bd8 0d3f cf25 10be
00000180: bdd7 2dbd 76b4 1e3f d573 333f 942e a93e
00000190: 214b 523e e8d5 e8be 9e0c 913c 598c ee3e
000001a0: 9b10 7f3e 397c ca3d 18af 39be eeb1 2ebe
000001b0: 3538 ef3e a55c bf3e 11f2 e63e a6c1 833e
000001c0: 9b4d 843e 8b12 be3e 1bc3 3c3e 6bd9 d33e
000001d0: eee6 e23e 4dbc 3c3f c52e 003f 0b3b 09be
000001e0: 6a86 0ebf a10f 333e fa1f 4f3d 8f3b bdbd
000001f0: 2057 7abe 2a6b 923d 478e 1f3f 73ea 8d3e
00000200: d46a 16bf ef79 22be ccd6 87be ced9 6dbf
00000210: 665d 1b3f e3ed a93e b0aa 2b3f bdae b03e
00000220: a59d c03e 6d47 b63c d46f 15bf e6d9 9a3d
00000230: 8d01 06bf bc9c cabe b442 0cbf 2c58 1d3f
00000240: 205d e23e 4b1a 873e 17bf 213f d8a3 98be
00000250: 017d 40bd 2b37 da3e 94ff 21bd a6db 8dbe
00000260: f790 cdbd c17c d03e 15f9 40bf a683 973e
00000270: 53a7 153f 541c 04be abe9 1ebe 14c1 083f
00000280: c8b1 0ebf 22f2 d1bd 6fcc 513f 6681 6fbe
00000290: f312 a7be fb7e b5be 85e6 063c 3559 9dbe
000002a0: 4f25 10bf 32d0 c03e 53b9 8c3d 630a 073e
000002b0: 8b0f 2fbf d4ea 8cbe 184f f6be c25f babd
000002c0: c690 44bf cbed 8c3e 5de6 31bf 46e5 09bf
000002d0: 436b a7be c5c1 3f3e bdd7 3cbf c14a e2be
000002e0: df6d 153f 1443 e33e 09eb a13e 7f98 59bf
000002f0: 164c d6be 4fb8 81be 2b15 233f 6b4c 5b3e
00000300: f116 b5be 05b3 613e 956e 6cbe 68d1 b7bd
00000310: 71a9 d2be 2561 c63e a471 913e 3887 803e
00000320: 90bd 573e e1e0 70be f352 9d3e d963 ec3e
00000330: d608 723e c67a 45be 8b22 0b3f 9178 173d
00000340: b0b0 603d fb49 073f 64d2 1e3f fdf0 393f
00000350: ecaa 0a3f ba40 63be 8447 c33e 93d1 143f
00000360: db7c 03bf 2dfb a23e ad6a c3be a4fe 1f3e
00000370: 1bf6 b53e 09c6 dbbc c7ec 95bd cf75 f03e
00000380: f96e 9bbd 044d 7ebf 3156 fa3e f277 57be
00000390: 9b19 a4be bdc5 863e 52d6 cd3c 6a4a 3dbf
000003a0: 7dd9 f13e 5856 13bf 6f79 8fbe b715 9f3e
000003b0: e6de babe 8433 97be ab80 1abe 9d26 d93d
000003c0: 5882 6ebd e746 b9be 4b96 cc3e 9a66 01bf
000003d0: cbdf b3be 5c45 80be 73ce 9abb 1f1b d83e
000003e0: b297 c8bd 5a1a a53e b2e8 2c3f a65b 913e
000003f0: 5692 1dbf 6592 bfbd 43d8 1fbf 70f8 1abf
-0.6554117 0.7721442 0.47545043 0.43377814 -0.37098616 -0.15405616 0.15751702 -0.2608195
-0.23098662 0.30792034 0.28987643 -0.037495423 -0.00010465422 -0.13744095 0.11851777 0.21760467
-1.0697252 -0.72175264 0.36034387 -0.2164133 -0.3301114 0.64324105 -0.5337183 0.38216916
0.114901885 -0.15715083 0.6664154 -0.24936067 -0.6585827 -0.018963633 -0.4516375 0.8342806
-0.22267035 0.3924749 -0.432812 0.50054556 -0.016697016 -0.37376362 0.2970079 0.5369537
0.62598413 0.11706919 -0.17867038 0.025656624 0.40373266 0.41456267 0.54582536 0.20982157
0.41443563 0.59822863 -0.21314447 0.48750263 0.5748138 0.51260906 -0.30002955 -0.35067984
-0.19522737 0.048402198 0.49521503 -0.60310733 0.23778762 -0.06385713 0.57667255 0.18968356
-0.7366658 -0.28164902 -0.28500107 0.22715151 -0.78939235 0.004225245 0.17048876 -0.27751848
0.13837427 -0.6207924 -0.42191815 -0.6024379 0.077105895 -0.36671492 0.18423791 0.15854907
0.45827922 0.6619012 0.41933134 -0.27418876 -0.3142856 0.48988372 -0.9688835 0.47500572
0.18213567 0.20921731 0.8263795 0.44610807 0.39051786 -0.024187595 0.5540864 -0.14076923
-0.042442072 0.6199411 0.7009862 0.3304335 0.20536472 -0.45475698 0.017706212 0.46591452
0.24908678 0.09886975 -0.18133199 -0.17060062 0.4672257 0.3737537 0.45106557 0.2573368
0.25840458 0.37123522 0.18433802 0.41376814 0.4431681 0.73724824 0.50071365 -0.1340143
-0.5567385 0.1748643 0.050567605 -0.092398755 -0.24447298 0.07149346 0.62326473 0.27717933
-0.58756757 -0.15866826 -0.26531065 -0.9291047 0.6068939 0.33189306 0.67057323 0.34508315
0.37620273 0.022250855 -0.5837376 0.07561092 -0.52346116 -0.39572704 -0.5478928 0.61462665
0.44211674 0.26387247 0.63182205 -0.29812503 -0.046994213 0.42620215 -0.03955038 -0.2770664
-0.100374155 0.4072018 -0.7538007 0.29592627 0.5845844 -0.12901431 -0.15518825 0.53419614
-0.5574002 -0.10251261 0.81952566 -0.23389205 -0.32631645 -0.3544844 0.008233671 -0.30732122
-0.5630693 0.3765884 0.06871285 0.13187556 -0.6838309 -0.2752291 -0.4810722 -0.091002956
-0.76783407 0.27525172 -0.6949213 -0.5386547 -0.32699022 0.18726261 -0.7376669 -0.44197658
0.58370775 0.44387114 0.3162463 -0.84998316 -0.41854924 -0.2533593 0.63704175 0.2141587
-0.35369065 0.22040947 -0.23089059 -0.08975488 -0.411449 0.3874599 0.28407013 0.25103164
0.21068406 -0.23523284 0.30727348 0.46169928 0.23636183 -0.19285116 0.54349583 0.036980215
0.054856002 0.5284726 0.6203978 0.72633344 0.54167056 -0.2219266 0.381405 0.58132285
-0.5136239 0.31832257 -0.38167325 0.15624481 0.35539326 -0.026827829 -0.07320552 0.4696488
-0.07589526 -0.99336267 0.48893884 -0.2104185 -0.32050785 0.26322737 0.02512661 -0.7394167
0.47236243 -0.57553625 -0.28022334 0.31071255 -0.36498183 -0.2953149 -0.15088145 0.10603068
-0.058229774 -0.36186907 0.39958414 -0.5054718 -0.35131678 -0.25052917 -0.0047243177 0.42208192
-0.097945586 0.32246667 0.67542565 0.28390235 -0.61551416 -0.093540944 -0.62439364 -0.60535336

net.2.weight f4 [256, 256]
00000000: 52a3 6cbe 8d2d fc3c 4e8f 313d 77c9 203e
00000010: 621b b1be af54 6d3c 583b aebd 86f9 cbbd
00000020: 8c0e 643d 8ccd 19bd cd6d 2b3c 062e 88bc
00000030: bc85 b63d be26 86be 1336 bd3d 4e0f 1f3e
00000040: b4a3 05be 88a0 1dbe 4762 8a3d c638 26bc
00000050: e71b 44be fec1 c73d 61fb d3bd 81d2 213e
00000060: db33 673c d220 5dbe abde cd3d 059f 88be
00000070: f33c 94be 7b9a 48bd 0f90 04be c65c ef3d
00000080: 137a 06be 0b16 ee3d 0813 54bc 3799 c33d
00000090: 0d91 acbd e4b9 9ebd 1b52 3f3e 35f4 3a3e
000000a0: e65c e83d 3060 c13d 4eb7 0ebe 79c2 4a3e
000000b0: 62c5 263e 1f14 a83d 7844 b83d 54f8 adbc
000000c0: 0491 a63d b7d8 b63c f889 973e 96be e73c
000000d0: b0e1 e63d 51d1 ec3d 6212 30be 87dd 05be
000000e0: d66f cc3d 1fe4 9dbd e238 b43d b91a 40be
000000f0: 53c0 9f3d d585 943d 7363 523e 9f96 283e
00000100: 2c35 f8be 5be7 e0bc 8d55 c0bd 0e48 373e
00000110: 6fac b33b 65ee ad3a 34c5 043b ad0f 04be
00000120: 0c39 94bc be5f 1fbe b9f9 f2bd c400 853f
00000130: d2aa 5d3d 5681 34be 1279 65be 82d4 d93d
00000140: a7d3 fa3d 8bb4 1b3e b173 053e 3522 afbc
00000150: 3e17 9a3e 8772 743b 5268 6dbe 17f0 5fbd
00000160: b9a0 a7bd 7718 a73d a6e3 ff3a 2114 0b3c
00000170: 143e a73d 229f 16be 7862 1d3e 5e17 81bd
00000180: 0c2d 503e 1d6f 623d 0130 ca3d 3194 d03d
00000190: 6881 383e b452 47be 9e7e 4bbd 3401 1d3e
000001a0: ef3b 2c3d 1bf2 173d 9bda f9bd 6757 cc3d
000001b0: a350 d93d 2976 a73d fd91 863d 9da4 cabd
000001c0: ebd4 00bc 4acc 423e b3bd ae3c c18a 80bc
000001d0: 93d4 1b3e 58a5 af3d 1d97 ed3d f489 0cbe
000001e0: 8a72 bf3b 5805 7e3d 8784 fb3c e9c4 843d
000001f0: d091 92bd f4e6 953d 9965 91bd 9709 9d3d
00000200: 1b76 56bd da80 963a d40e 0fbe 288d 1fbd
00000210: ed6d 563e 8c4f 4a3d a22c e23d 75e3 313e
00000220: 4542 f03d 7102 393e be13 2b3f dd48 ff3d
00000230: 8f7a c7bc bdfe 083f 43de 803d 4326 263e
00000240: 725f 05bd 668b 30be 1433 e33d 8001 b8bd
00000250: b004 31bd 52d1 9fbc 9619 bb3d bb17 8d3e
00000260: 8f38 6a3a 93de 223e a83c 01bf a686 c93d
00000270: 1c42 eabc 396f 2ebe 800c f8bd 6f70 d63d
00000280: 468c cdbd 57c3 bc3d 8347 113d 766d d6be
00000290: e6dc fb3b 5d29 04bc 3c76 d73d b852 c2bb
000002a0: 97e4 6dbc 5949 cc3d d372 99bd aa54 383b
000002b0: dd45 5ebe 7d21 d6bd ae36 0b3c fdad 1a3c
000002c0: 4f47 653f daa0 00bc 34b7 81bd 03c9 09be
000002d0: 96e9 d93e aa67 94bc aea2 7bbe 2da5 20be
000002e0: d68e 1e3e 5879 433e f6f8 ea3d c91b 11be
000002f0: 8fc7 463d e9a4 cf3d 09d0 ee3d 7a97 213d
00000300: ba0e 2dbe 61d9 d5bc d808 94bc 6240 98be
00000310: 81b7 0b3e 87fe cbbd aaee 6d3e cc1f f13d
00000320: b3d9 723c 4352 0fbe 364f 893d 304d d93c
00000330: 1d00 1b3e c08c 09be 15f6 533e f551 9f3d
00000340: ccc6 0b3e fd94 a7bd 8cf7 403e 5b6b 033e
00000350: 7080 ad3d ae64 a2bd 63ea e4bc 1546 1e3e
00000360: d070 37be f19c 383e 7ae5 8ebe d027 c5bc
00000370: b4b4 fc3c 1a70 993e c209 f4bd 5e6b fb3d
00000380: df54 2ebd 04f3 6d3f c8db aa3d 4f39 3dbe
00000390: 9dba 2bbd b1d3 df3d da3d 043e b98e e3be
000003a0: a709 afbc 5126 9dbd 022e 91bd 8d95 ac3d
000003b0: 8499 aa3e 9772 a2bc 5211 e33e 3ee6 0d3e
000003c0: 8906 e33d a3e0 dcbe 9675 d43c 731e b0bd
000003d0: 7396 1bbe 8ed6 efbd 3b0c cd3d f1c4 103c
000003e0: 682b 20be 03ab 543d b213 a93c 315d 0a3d
000003f0: a10a 06be cc05 933d 697f 3f3c f14f 2ebd
-0.23109177 0.030783439 0.043349557 0.15701853 -0.34591204 0.014485522 -0.08507413 -0.09959702
0.055677935 -0.03754954 0.01046319 -0.016623508 0.089122266 -0.26201433 0.092388295 0.15533182
-0.13050729 -0.15393269 0.06757026 -0.010145372 -0.19151269 0.09753798 -0.10350681 0.15802957
0.014111484 -0.21594551 0.10052236 -0.26683822 -0.2895275 -0.04897545 -0.12945579 0.11687617
-0.13132505 0.11625298 -0.0129439905 0.09550708 -0.08426104 -0.077502996 0.18683665 0.1825722
0.11345844 0.094421744 -0.13937113 0.19800748 0.16286233 0.08206963 0.089974344 -0.021236576
0.08133128 0.022320135 0.2959745 0.02828912 0.11273515 0.115633614 -0.17194512 -0.13072787
0.099822685 -0.07709526 0.08799912 -0.18760194 0.07800355 0.07252089 0.2054575 0.16463707
-0.48478067 -0.027454069 -0.093913175 0.1789858 0.005483202 0.00132699 0.0020259144 -0.12896605
-0.018093608 -0.15563866 -0.11864037 1.0390859 0.054117985 -0.17627463 -0.22409466 0.10636236
0.12247401 0.1520559 0.13032414 -0.021378616 0.30095857 0.003729971 -0.23184326 -0.054672327
-0.08184952 0.08158963 0.00195228 0.008488686 0.08166137 -0.14709142 0.15369594 -0.06303285
0.20329684 0.055281747 0.09872437 0.10184515 0.18018115 -0.19465142 -0.0496813 0.1533249
0.042049345 0.037096124 -0.12199899 0.09977608 0.10611083 0.08176834 0.06570814 -0.09894679
-0.007863264 0.19023243 0.02133069 -0.015691163 0.1521781 0.08576459 0.11601088 -0.137245
0.0058425115 0.062016815 0.030702842 0.0648287 -0.07156718 0.073194414 -0.07099456 0.07667845
-0.052358728 0.0011482493 -0.139705 -0.038952976 0.20940371 0.049392268 0.11043669 0.17371924
0.1173139 0.18067338 0.66827 0.124650694 -0.024350433 0.535137 0.06292393 0.16225533
-0.032561727 -0.17240676 0.11093727 -0.08984661 -0.04321736 -0.019508991 0.091357395 0.27557167
0.00089348195 0.15905218 -0.5048318 0.09840135 -0.028595977 -0.17034616 -0.12111759 0.10470664
-0.10036521 0.092169456 0.03546859 -0.41880387 0.0076862453 -0.008066502 0.10520598 -0.005930271
-0.014519832 0.099749275 -0.07492604 0.0028126636 -0.21706338 -0.10455606 0.008496923 0.009440896
0.89561933 -0.00785085 -0.06333771 -0.13455586 0.42561024 -0.018115837 -0.24573776 -0.1568801
0.15484175 0.19089258 0.11473267 -0.14170755 0.048530158 0.10138876 0.11660773 0.0394511
-0.16900149 -0.02610463 -0.018070623 -0.2973662 0.1364422 -0.099606566 0.23235574 0.11773643
0.014822411 -0.13996224 0.067045614 0.026526064 0.15136762 -0.13432598 0.20699342 0.07779304
0.13650054 -0.08182714 0.18844432 0.12833922 0.08471763 -0.079293594 -0.027943796 0.15456422
-0.17914128 0.18028618 -0.27909452 -0.024066836 0.030847885 0.2996834 -0.11915924 0.12276338
-0.042561408 0.9294894 0.08342701 -0.18478893 -0.041926015 0.10929049 0.1291422 -0.44444826
-0.021366907 -0.07673324 -0.070888534 0.08426962 0.33320248 -0.019830031 0.44349152 0.13857362
0.11085231 -0.43140134 0.025934976 -0.08599558 -0.1519411 -0.11710845 0.100120984 0.008836017
-0.15641558 0.051920902 0.020639274 0.03378028 -0.13089992 0.0717884 0.011688092 -0.042556707

net.2.bias f4 [256]
00000000: 52b4 5d3e b2bf 2cbd 1483 0b3e 7530 213e
00000010: 7fa8 ff3d 00c9 c3bc 98a3 0a3e 033e 42bc
00000020: 068f 833c 7a42 c33e ba45 22bd 57a3 6d3e
00000030: 4677 0d3e f339 e93c 2460 113c 9d9e 123e
00000040: 7c33 4f3e af62 583e 501a 273e cc33 113e
00000050: 610a 5fbc 4588 aa3d fa1e 333d f3cb 193e
00000060: a115 b6bc ae84 2d3e d7e2 e6bc e64c 033e
00000070: 1bea 903c e2b8 423e a0d1 323e 0ba8 f63d
00000080: f20f f4bc 7dce 5d3e f6a1 923c 5899 88bd
00000090: a031 08bc e8e6 053d e121 1dbc 762c 0b3e
000000a0: fdfe 683e 37c3 803e d41f 2cbd 90ea fabb
000000b0: 6f4f e63d 9947 993c 2d41 793e 4c3e 173d
000000c0: ee4c 3d3e f265 083e 8fd6 5f3e a474 27bd
000000d0: 2804 31bd 76ba 353e c97a cb3d 9d26 d13c
000000e0: e0c6 423b 3e09 843c d298 263e c8b5 353e
000000f0: 4f6e 3cbd ded2 c53d 77e2 26bd 1734 29bb
00000100: 02e5 91bb ceb6 82be af5a 243e 8703 d03c
00000110: c058 8e3d 73fc 853b 108c 02bc dcfa 2c3e
00000120: a6f0 ad3d 1d7e 09bc 7318 15bd a00a 213e
00000130: c455 273e aa62 183e c608 a63e 30b4 3d3e
00000140: 48bc d23d 8867 8dbc 942a 063e 4f29 a93d
00000150: 88a2 dcbc 192b 0e3e e6cb d7bb fb9c 2fbd
00000160: 05f8 37bc e446 a83d 3371 ba3d 8a89 c53d
00000170: 18e2 86bc 479d b63c 130e 3ebd c90b 193e
00000180: 03c6 d83d 6025 2d3d a737 043e 817c 7d3c
00000190: cd9f 40bc d2af b63d a608 56bd e0f0 21bd
000001a0: 2ba7 20bd 2d6f 1a3d aaa5 97bc 241e 03bd
000001b0: b1d0 a03a 8167 e23c affa 303e eb8f 4d3c
000001c0: 4c86 dd3c cbc7 143e f47b 77bc e6b8 bbbc
000001d0: a754 4a3e eab6 2a3e b54d f43d 2432 013e
000001e0: 8b14 463e 5fb0 25bd 4af4 353e 61d8 303e
000001f0: 6832 363e 6680 1b3e 6ec6 883d e846 66bd
00000200: 97d7 f9bc 0232 66bd fdfb 193c a560 073e
00000210: 504f 2dbd d10f 25bd 8ad2 713d aa2a 19bc
00000220: dd57 f03d f665 e8bb b33b 1c3e 5fce ae3b
00000230: 0152 383b 83c4 1d3e fcbe 4ebd ac0e 9ebc
00000240: b924 00bc 4e3b 8d3e 9ba5 1d3d d1ac 283e
00000250: 79fa 62bd 0d76 d33d a9c6 d7bc 7c12 493e
00000260: be6b c13d 68b0 10bc bbc4 e73d 68b1 4e3e
00000270: 9ba3 9b3d 92d0 3abc b0e7 0dbd 50e9 3abd
00000280: 12cb ba3b 666a e13e 541c b13d 9bd1 56bd
00000290: 58e4 b63d 2212 e73d e1db 113e ad0c 7cbd
000002a0: 8a09 193e 4236 aabc 99bb 243e 08cb dd3d
000002b0: 3b47 5f3e 05a5 0b3e 25c3 013d 3d09 e2bc
000002c0: d302 433e 321d 99bc 55c1 233e e775 113e
000002d0: 0838 d7bc 9ab9 8e3e c450 053e e192 82bd
000002e0: 458d c33e 8156 ba3d 2ce3 9f3d a263 4f3e
000002f0: d2dd 45bd a1a7 e93d 4c71 823c cb8f 363e
00000300: 5601 cd3d d9ac 6d3e f11e adbb 1f90 a53b
00000310: 1d96 223e 60a6 a33d eefc febc 13d1 323e
00000320: 4750 acbc fdfc 8b3b b1b1 db3d db17 7bbc
00000330: 1d3e e33d d5d0 2d3e f9e5 203e 9647 33bd
00000340: 0e37 003e 473f 123e 17b8 1b3e fb7e eb3c
00000350: b93d da3d 63d7 553e 1a1a db3d 129a 503c
00000360: 0abe 073d 7fce 633c 1de0 253e 9e0f ef3d
00000370: 9306 aa3c a125 063e 8a81 efbc 854f 9bbc
00000380: 4a49 3f3e 4783 233e b953 463e 7a3c 8e3e
00000390: e360 a73b a752 533e 2f1a b8bd 0482 033e
000003a0: e478 3e3e c1b7 793e dc28 ce3d dac2 053e
000003b0: 7857 313e ce80 e33d 35ff 36bd 048e 49bd
000003c0: 2bc4 0b3e fd22 e8bc 8140 163e 47d7 ce3d
000003d0: 0aa0 153e eb78 293e 102c 94bc f4de 4cbd
000003e0: e44f cd3c adfc ed3d afc5 ac3d 1c47 913c
000003f0: 402e c93d 7ef2 013d bac5 1c3e f183 87bc
0.21650818 -0.042175002 0.13624221 0.15741141 0.1248331 -0.023899555 0.13538969 -0.011855605
0.01605941 0.38136655 -0.039617278 0.2320684 0.1381503 0.028470015 0.008873019 0.14318319
0.20234483 0.21131395 0.16318631 0.14179915 -0.013613314 0.083267726 0.043730713 0.15019207
-0.02222711 0.16945145 -0.028184338 0.12822303 0.017689755 0.1901584 0.17462778 0.120437704
-0.02979276 0.216608 0.017899495 -0.06669873 -0.008312613 0.032690912 -0.009590597 0.13591179
0.2275352 0.25148937 -0.04202254 -0.0076573566 0.112456195 0.018710898 0.24341269 0.036924645
0.18486378 0.13320139 0.21859191 -0.04088272 -0.043216854 0.1774691 0.09935529 0.025531108
0.002972059 0.016117688 0.16269234 0.17745125 -0.046003636 0.0965936 -0.040743317 -0.0025818401
-0.0044523487 -0.25530094 0.16050218 0.025392307 0.069505215 0.004088932 -0.007967964 0.1689257
0.08493166 -0.008391884 -0.03640027 0.1572671 0.1634131 0.14881387 0.3242857 0.18525767
0.10289818 -0.017261282 0.1310218 0.08259832 -0.02693297 0.13883628 -0.006585586 -0.042874318
-0.011228566 0.08216646 0.09103622 0.09645374 -0.016465232 0.022291793 -0.04640014 0.14945902
0.10584643 0.04227197 0.12911855 0.015471579 -0.0117568495 0.08920254 -0.05225434 -0.039536357
-0.039221924 0.03770368 -0.018511612 -0.032011166 0.0012269226 0.027637245 0.17283128 0.01254652
0.027041577 0.1452934 -0.015105236 -0.022915315 0.19758855 0.16671339 0.11928884 0.12616783
0.19343774 -0.040451404 0.1776897 0.17270042 0.17792666 0.15185699 0.066784725 -0.056219965
-0.030498309 -0.056200035 0.009398458 0.1322046 -0.042311966 -0.040298287 0.059038676 -0.009348551
0.117355086 -0.007092233 0.15257148 0.00533466 0.002812505 0.15406995 -0.050475106 -0.019294105
-0.007821255 0.27584308 0.03848801 0.16472174 -0.05541465 0.10325251 -0.026339846 0.19635957
0.09444378 -0.008831121 0.1131682 0.20184863 0.07599565 -0.011402266 -0.034644783 -0.04563266
0.0057004774 0.44026488 0.08647981 -0.05244599 0.08930272 0.112827554 0.14244033 -0.061535526
0.14945045 -0.020777825 0.16087188 0.10829741 0.21804516 0.13637169 0.031680245 -0.027592296
0.19044046 -0.01869068 0.15991719 0.14205132 -0.026271835 0.27875978 0.13019091 -0.06375671
0.38193718 0.090985306 0.078070015 0.2025285 -0.048307247 0.11408926 0.015923165 0.1782829
0.100100204 0.23210467 -0.0052832295 0.005052581 0.15877576 0.07990718 -0.031126466 0.17462568
-0.021034373 0.004272102 0.10727251 -0.015325512 0.110958315 0.16974194 0.15712728 -0.04376944
0.12521002 0.14281951 0.15206943 0.028747072 0.10656304 0.20882945 0.10698338 0.012732046
0.03314022 0.013904213 0.16198774 0.116729006 0.020755088 0.13100292 -0.029236574 -0.018958816
0.18680301 0.15968047 0.19367875 0.27780515 0.0051079853 0.20636998 -0.08989369 0.12842566
0.18600804 0.24386503 0.10066387 0.13062611 0.17318523 0.11108552 -0.04467698 -0.049207702
0.13649051 -0.028336996 0.14673044 0.10099655 0.14611831 0.16550033 -0.018087417 -0.050017312
0.025062509 0.1162046 0.08436143 0.017734103 0.098232746 0.0317254 0.15309802 -0.016542407

net.4.weight f4 [5, 256]
00000000: 61d8 6bbd 8cfb 0c3d 71df 65be e6ed 36be
00000010: f3d3 68be c9eb 23bc 7eb1 95bf 3d2a 3ebc
00000020: c462 193b 7526 c23f 64b7 263c b693 61be
00000030: 8fd9 10be a45c 87bc f62c 083d 2f61 0bbe
00000040: 929a bebd be25 adbe f869 23bf 73f5 1ebf
00000050: eb2b 39b9 1372 79be db84 06bf be99 3bbe
00000060: 57e6 113d 72bb 85be 7bc5 bbbc b89e ffbe
00000070: f7cd ad3c 1724 9fbe ea48 85be 43da 07be
00000080: 1a7e a43c d658 8dbe 5902 96bc 1132 06bd
00000090: 7196 1bbd 1653 c33c b9a1 d63c 1723 9cbe
000000a0: c70c 91be 53d8 d73f 57be b838 602b b03c
000000b0: 6ad2 0dbe ce31 9d3c 1b63 bcbe 6431 173c
000000c0: a9ea 72be 636a 2cbe 88bf 94be ac56 cc3c
000000d0: 1062 053c c86a 84be 8368 27be fca0 153d
000000e0: 5b2a 1f3d 4ed7 43bd 8b54 18be 4a2a c3bd
000000f0: 1782 25bd 4b86 473c a796 48bb 5aa1 073d
00000100: 0e8f 82bc 2459 08bf 4808 8fbe 8154 2b3d
00000110: 0c15 01bf 0f5f b1bc 962a 553c 690b ecbe
00000120: d451 a8bd 44bf 5fbf 22aa 963c 0b23 a7bc
00000130: 0460 40bd b9ae 5cbf e0a0 773f 5d70 d6be
00000140: 2a51 1dbe 306b 973c 08f6 38be 5087 1e3f
00000150: 1a19 92bc 48aa 31be a53b b7bc a41b caba
00000160: 254b 0dbd 0af5 2fbe efbd f8bd dac2 2bbe
00000170: a010 c1bc 817a 1b3d 940b 073c a656 e5bd
00000180: 18ec 9cbe 2dd0 e53c ee18 37be 597e 9bbe
00000190: 1d2b 803c 6de3 21be 7c68 c8bc 406a fe3b
000001a0: a39c 103d 515e f53c 916a 793b d660 90ba
000001b0: 2d19 bdbc f220 9cbe f08d 51be 81d7 573c
000001c0: 9c4f 093d 3bed 31be c478 c33b 2138 c13a
000001d0: 8ac6 9ebe 58d8 bbbd 3434 38be a24e 413c
000001e0: 6e13 f5bc 2595 6c3c ef9d 48bf 4760 67be
000001f0: 0005 1fbf fad6 58be 7fd0 57bf d9a0 123d
00000200: bf75 0fbd 339a 08bd baba b53c 810f 34be
00000210: 9b63 bd3c d254 103d 435b 1cbf 3aa6 17bd
00000220: 87f9 3fbe 78b1 acbc 0ed7 44be 130e a0bc
00000230: 1961 083d d2da 0abe 8fcc e03b c10e f83c
00000240: 4fbf f43b f10f 78be d556 8cbc badb 3abe
00000250: cc6c a03c edf6 11be 559b 89bc 5b6e 66be
00000260: 8863 f9bd b638 7abc 41b2 24be ce3f adbe
00000270: 259c 0abe 56b2 cabc c73b 933b 741f 383d
00000280: 3b9c 8ebc 077e 863f 2174 a5be fffc ac3c
00000290: f90c 14be 6c68 56be f1cc 37bd 6223 0e3f
000002a0: 8c8b bdbd e34d 0abd e1f0 323c 7c8f 44be
000002b0: 65d8 d3be 9510 15be f1e7 493b 0fa5 973c
000002c0: 98db 0bbe 0156 1e3d b50d 55be 3321 1ebe
000002d0: 5f5d 1d3e 39f4 cdbe 8e35 91be adf2 203c
000002e0: 1b55 303e 5daa 52be 57c4 29be 0529 35bf
000002f0: a092 38bd 61a6 a1be f20d 033d 92fe 4fbe
00000300: 65b5 0bbf a1f4 89be c1c5 f13c 07e3 213c
00000310: e43e c7bd 752d f6bd 8a8d 5b3d 6091 0cbe
00000320: 2dfd 2bbc 87d1 67bc 87b9 dabd a957 34bd
00000330: dce7 d5be 4695 43be c90c f4bd 6d10 67bd
00000340: e064 58bf 077d 98bd 8576 09bf 5f6d 203d
00000350: 5a09 2cbe c7f1 cebd 2e10 c5bd 3219 923c
00000360: 0738 173c 6710 213d 4ac0 02be dfd8 1cbf
00000370: 530e dd3c 733e 25be e7bc c73b ff43 033c
00000380: 11d9 d5be f7ec 90be 7f14 82be 263d f73e
00000390: a790 4ebc 84ab 43be 4937 f1bc 7c63 76be
000003a0: 62eb d0be 9558 2dbe caaf ebbd f24e 2cbe
000003b0: 1d73 e1bd 78bb 51be e2d7 ccbc 4a14 0abc
000003c0: 61c1 3fbe 22d9 9dbc 4609 cfbe df37 afbe
000003d0: 8421 7ebf 472d 54be 3007 c33c 1ef5 1d3c
000003e0: 0862 c8bb 0ec9 eabd 5f49 48be d6ca 123d
000003f0: d162 27be 88ad dc3c bd0a 20be 11fd 913b
-0.057579402 0.03441958 -0.22448517 -0.17864189 -0.22737102 -0.010004946 -1.1694791 -0.01160675
0.0023404816 1.5167986 0.01017556 -0.22029004 -0.14145492 -0.016523667 0.033246003 -0.13611291
-0.09306826 -0.33817858 -0.6383357 -0.62093276 -0.00017659336 -0.24359922 -0.5254647 -0.18320367
0.03562006 -0.26119572 -0.022921314 -0.4992578 0.021216376 -0.31082222 -0.26032192 -0.13266854
0.020079661 -0.2760684 -0.018311666 -0.03276259 -0.03798527 0.02384333 0.026200162 -0.3049552
-0.2833006 1.6862892 8.809257e-05 0.021505058 -0.13849798 0.019188788 -0.3679436 0.009228084
-0.23722328 -0.16837458 -0.29052377 0.024943672 0.008141056 -0.25862718 -0.16348462 0.03653048
0.038858753 -0.047812752 -0.14876 -0.095295504 -0.040407266 0.012178014 -0.0030607374 0.03311286
-0.015937354 -0.5326102 -0.27936006 0.041828636 -0.5042274 -0.021651773 0.013010642 -0.46102455
-0.082187325 -0.87401223 0.018391673 -0.020402452 -0.046966568 -0.86204106 0.9672985 -0.418826
-0.15362993 0.018483728 -0.18062603 0.6192522 -0.017834235 -0.17350113 -0.022367308 -0.0015419615
-0.03449549 -0.17183319 -0.12145602 -0.16773549 -0.023567498 0.037958626 0.0082425065 -0.111981675
-0.30648875 0.028053368 -0.17880604 -0.30369833 0.015645558 -0.15809412 -0.024463885 0.007764131
0.03530563 0.0299522 0.0038057903 -0.0011015187 -0.023083294 -0.30493885 -0.20464301 0.013173939
0.033523187 -0.17375652 0.005965324 0.0014741459 -0.31010848 -0.09172124 -0.17988664 0.011798533
-0.029916491 0.014439856 -0.7836599 -0.2259532 -0.62117004 -0.21175757 -0.84302515 0.035797928
-0.0350244 -0.03335018 0.022183765 -0.1758404 0.023118785 0.03523714 -0.61076754 -0.03702376
-0.18747531 -0.021080717 -0.19222662 -0.019537961 0.033295725 -0.13560036 0.006860323 0.030280473
0.007469095 -0.24224831 -0.017131248 -0.18247882 0.019583128 -0.14254351 -0.0167977 -0.22503035
-0.12177187 -0.01527231 -0.16083623 -0.33837742 -0.13536127 -0.02474324 0.00449321 0.04495187
-0.01740848 1.050721 -0.32315162 0.021116732 -0.14458074 -0.20938271 -0.04487318 0.5552274
-0.09255132 -0.033765685 0.010921688 -0.1919536 -0.41376033 -0.14557107 0.0030808414 0.018511323
-0.13657987 0.03865624 -0.2080601 -0.15442352 0.1536765 -0.4022539 -0.2836117 0.009823483
0.17219965 -0.20572801 -0.16578804 -0.70765716 -0.045061707 -0.3157225 0.03199572 -0.20311955
-0.5457366 -0.2694445 0.029513242 0.009880788 -0.09728792 -0.12020389 0.05360178 -0.13727331
-0.0104973735 -0.014149076 -0.10679918 -0.04402891 -0.41778457 -0.19099912 -0.11916501 -0.05641215
-0.84528923 -0.07445722 -0.5369647 0.039166804 -0.16800442 -0.10104709 -0.09622227 0.01783428
0.009229667 0.039322283 -0.12768665 -0.6126842 0.02698437 -0.16137104 0.006095517 0.008011817
-0.4176717 -0.2830579 -0.25406262 0.4828884 -0.01260773 -0.19108397 -0.029445307 -0.24061388
-0.40804583 -0.16928323 -0.115081385 -0.1682699 -0.11008284 -0.2048167 -0.025005285 -0.008427689
-0.18726112 -0.019268576 -0.40436763 -0.34222314 -0.9926989 -0.20720397 0.023807138 0.00964096
-0.006115202 -0.114641294 -0.19559239 0.03583797 -0.16346289 0.026938215 -0.15629096 0.0044552167

net.4.bias f4 [5]
00000000: 1e81 a4bd 2046 aebd 01a2 dfbd f4d1 e3bd
00000010: bee8 93bd
-0.0803244 -0.08509469 -0.10919572 -0.1112403 -0.072221264
