wandb/run-20251114_040957-l685s4c8/files/models/DDQNAgent/Acrobot-v1.pth (torch, 276537 bytes, 6 tensors)

net.0.weight f4 [256, 6]
0	0x3eaad15f	0.33362862
1	0x3eeacdd4	0.4586016
2	0xbd53643c	-0.051609263
3	0x3e9779eb	0.29585204
4	0x3b2d385f	0.0026431305
5	0x3d9612a7	0.073277764
6	0xbe97d9a3	-0.2965823
7	0xbea8cd7d	-0.32969275
8	0x3ef2437f	0.4731712
9	0x3e1f3ba7	0.155501
10	0x3eba4a4f	0.36384818
11	0x3d7c3c74	0.06158109
12	0x3ed7abed	0.42123356
13	0xbd550141	-0.05200315
14	0xbe23851a	-0.15968743
15	0x3ec4e06f	0.3845248
16	0x3e78622e	0.24256203
17	0x3e0d954e	0.13826486
18	0xbe8af1fd	-0.27137747
19	0x3ecffd88	0.40623116
20	0xbefae48d	-0.49002495
21	0xbe947cf2	-0.29001576
22	0xbc83c49d	-0.016084963
23	0x3e6a285f	0.22866963
24	0xbda5fe58	-0.08105153
25	0xbd43a043	-0.04776026
26	0x3c4d1a52	0.012518482
27	0xbd5d38f2	-0.054009385
28	0x3d447318	0.047961324
29	0xbeb6a00f	-0.3566899
30	0x3ee66c36	0.45004433
31	0x3d6ebdd3	0.0582865
32	0x3e99c56d	0.30033436
33	0xbe1b19a2	-0.15146497
34	0xbdc3bb14	-0.09557167
35	0x3e0171db	0.12641089
36	0x3e1cb296	0.153025
37	0x3eadc879	0.3394201
38	0x3d4b4f1d	0.049635995
39	0xbe523193	-0.20526724
40	0xbd2a5d7a	-0.041593052
41	0xbd51e335	-0.051242072
42	0x3eaaa256	0.33326977
43	0x3e242aa5	0.16031893
44	0x3e1393b4	0.14411813
45	0xbe92cd2e	-0.28672165
46	0x3e57dffa	0.21081534
47	0x3d9a64eb	0.0753878
48	0xbea877bf	-0.3290386
49	0x3e5def1b	0.21673243
50	0xbf38d66d	-0.7220219
51	0xbdaea89a	-0.08528252
52	0x3d6e2480	0.058140278
53	0x3e65c2ec	0.22437638
54	0x3e29b49f	0.16572808
55	0x3dc57d6e	0.096430644
56	0x3d91fe89	0.07128627
57	0xbe3aa873	-0.18228321
58	0x3e7bfb01	0.24607469
59	0xbd9e247c	-0.077218026
60	0x3d67d437	0.05659887
61	0xbf1e7179	-0.61891896
62	0xbd002726	-0.031287335
63	0x3db2562a	0.08707841
64	0x3c441ff6	0.011970511
65	0xbcb1b5db	-0.02169316
66	0x3ee23305	0.4417955
67	0xbe89552a	-0.26822788
68	0xbdc31219	-0.09524936
69	0xbe3b972e	-0.18319389
70	0x3e2df524	0.16988045
71	0x3e0116e9	0.12606396
72	0x3e4e7515	0.20161851
73	0xbeaeec87	-0.3416483
74	0xbf347751	-0.7049456
75	0xbea92645	-0.3303701
76	0xbe28880f	-0.16458152
77	0x3db48f9f	0.08816456
78	0xbd90d803	-0.07072451
79	0xbdde9402	-0.10868074
80	0xbeca476d	-0.3950762
81	0xbd81e030	-0.063415885
82	0x3e118364	0.14210278
83	0xbdd5d6c5	-0.10441355
84	0x3eb17c3e	0.34665102
85	0x3df244a4	0.118294984
86	0x3e738d42	0.23784354
87	0xbea0d6e8	-0.3141396
88	0xbd9226f3	-0.07136335
89	0xbd799f34	-0.060942844
90	0x3e34aaac	0.17643231
91	0xbf015e46	-0.50534475
92	0x3e8772ed	0.2645487
93	0x3f17ff70	0.5937414
94	0xbe025ac8	-0.12729943
95	0xbe21bf8c	-0.15795726
96	0x3eeb4c83	0.4595681
97	0x3e6ac3bf	0.22926234
98	0x3de162d2	0.110051766
99	0xbe7ae10f	-0.24499916
100	0xbe141994	-0.14462882
101	0xbd268253	-0.04065163
102	0x3df60898	0.12013358
103	0xbe883982	-0.26606375
104	0x3ea2681f	0.31720063
105	0xbe68a798	-0.22720182
106	0xbe7af131	-0.2450607
107	0xbe045610	-0.12923455
108	0xbe13adbc	-0.14421743
109	0xbec33424	-0.38125718
110	0x3ed82741	0.42217448
111	0x3e8c0f73	0.27355537
112	0xbd81ce3b	-0.063381635
113	0xbe2b8dd3	-0.1675332
114	0xbf802f65	-1.0014464
115	0xbd79f9f0	-0.061029375
116	0x3eae8f60	0.3409376
117	0xbee6d148	-0.45081544
118	0xbda9bf5f	-0.08288454
119	0xbe0043d1	-0.1252587
120	0xbec71c9d	-0.38889018
121	0xbd6ac672	-0.05731816
122	0xbba71cf9	-0.0050998894
123	0xbe438ae9	-0.19095959
124	0xbebc4fa7	-0.3677952
125	0xbe855e28	-0.26048398
126	0xbf0b3594	-0.5437863
127	0xbf0f4647	-0.5596661
128	0x3ea20e94	0.31651747
129	0x3e17dae6	0.14829597
130	0x3d7a3ebd	0.06109499
131	0x3dfc45fa	0.123180345
132	0xbf22a34a	-0.6353041
133	0xbac63939	-0.0015123255
134	0xbe9d8c46	-0.30771083
135	0x3e180a88	0.14847767
136	0xbe77924f	-0.24176906
137	0xbeb6036c	-0.35549486
138	0xbdcfee5d	-0.10152886
139	0xbc47ac17	-0.0121870255
140	0x3ee40470	0.44534636
141	0xbe5d1979	-0.21591748
142	0x3e0e0185	0.13867767
143	0xbe1016c0	-0.14071178
144	0xbc309a0a	-0.010778913
145	0x3e348a2a	0.1763083
146	0x3e000406	0.12501535
147	0x3dc936eb	0.09824928
148	0x3e788a96	0.24271616
149	0xbdbdf490	-0.09275162
150	0x3e73e9c6	0.23819646
151	0xbeb42150	-0.35181665
152	0x3dce78d6	0.100816414
153	0xbef34d46	-0.47519892
154	0x3e465373	0.19367771
155	0xbd859c77	-0.06523984
156	0x3ec7de2a	0.39036685
157	0x3e39ecec	0.18156785
158	0x3cb428ff	0.021992205
159	0xbeb9a587	-0.362591
160	0x3e700e70	0.23443007
161	0x3da68c1b	0.08132192
162	0xbf15f5f2	-0.5857841
163	0xbf21b55b	-0.6316735
164	0x3f1a825b	0.60355157
165	0xbc5ab887	-0.013349659
166	0x3cb1121a	0.021615077
167	0x3d83f085	0.0644236
168	0xbe379174	-0.1792658
169	0xbe2e786f	-0.1703813
170	0x3d725d65	0.0591711
171	0xbe5f9160	-0.218328
172	0x3e6965aa	0.22792688
173	0x3c3435e7	0.010999179
174	0xbefb5257	-0.49086258
175	0x3e15fe39	0.1464776
176	0xbf025296	-0.50907266
177	0x3ec95f64	0.3933059
178	0x3e785b76	0.2425364
179	0xbe4a4806	-0.19754037
180	0x3ea8c4cc	0.32962644
181	0x3ec19258	0.37806964
182	0x3e3b5976	0.18295845
183	0xbe6d3216	-0.23163638
184	0x3e157c57	0.14598213
185	0x3db9e74f	0.09077322
186	0x3e8c9d0b	0.27463564
187	0xbe55cff8	-0.20880115
188	0xbd2efb5d	-0.042720187
189	0x3e087b1b	0.13328211
190	0xbd48fdad	-0.04907005
191	0xbdb6d4a7	-0.08927279
192	0x3ea883f5	0.32913175
193	0x3f22b60a	0.6355902
194	0x3dc09ca3	0.09404876
195	0xbbda2174	-0.00665682
196	0xbe5165e1	-0.2044902
197	0xbba1ceac	-0.0049379673
198	0xbdbea81d	-0.09309409
199	0x3e2b0b15	0.16703446
200	0xbf2e9f55	-0.6821187
201	0xbde318c2	-0.110887066
202	0x3e1b6f66	0.15179214
203	0x3d75923c	0.059953913
204	0xbeb77113	-0.35828456
205	0xbd776e3b	-0.06040786
206	0xbe840822	-0.25787455
207	0xbe93c592	-0.28861672
208	0xbe4b9dd8	-0.19884431
209	0x3c89606c	0.01676961
210	0xbe84c596	-0.25931996
211	0x3f080a57	0.5314078
212	0xbec79f12	-0.3898855
213	0x3d7d8d31	0.06190223
214	0x3e4259ea	0.18979612
215	0x3e4b6f4a	0.19866672
216	0x3e228b01	0.15873338
217	0x3f04ed30	0.5192442
218	0x3bd66b58	0.006543558
219	0xbed42544	-0.4143468
220	0xbde28175	-0.11059848
221	0x3e528979	0.20560254
222	0xbf5db839	-0.86609226
223	0x3eb32343	0.3498784
224	0xbf1d7a05	-0.6151431
225	0xbe0c4f84	-0.13702208
226	0xbd91ec5e	-0.071251616
227	0x3e99628c	0.29957998
228	0xbee0f3b2	-0.43935925
229	0xbefcf2b5	-0.4940392
230	0xbf1bfcad	-0.6093243
231	0x3d3b55d8	0.045736164
232	0x3e276513	0.1634715
233	0x3e3082a8	0.17237341
234	0x3e8e4106	0.27783984
235	0x3f3c8abb	0.73649186
236	0x3e158cb6	0.14604458
237	0xbe237dcc	-0.15965956
238	0xbea088d4	-0.31354392
239	0xbe596265	-0.21228941
240	0xbe9bdaaa	-0.30440265
241	0xbde31312	-0.11087622
242	0xbed88afd	-0.4229354
243	0x3d2383d5	0.039920647
244	0xbe047eb5	-0.1293896
245	0xbe568312	-0.20948437
246	0xbec79913	-0.38983974
247	0x3e33da79	0.1756381
248	0xbe9345bc	-0.2876414
249	0x3ebc5635	0.3678452
250	0xbdc579ab	-0.09642347
251	0xbe42f825	-0.19039972
252	0xbf67520e	-0.9035958
253	0xbf7141ae	-0.94240844
254	0xbafa02a7	-0.0019074277
255	0x3e326b8a	0.17423835

net.0.bias f4 [256]
0	0x3e1643e3	0.14674334
1	0xbe1bb6fc	-0.15206522
2	0xbe1dba2d	-0.15403052
3	0xbdae35c9	-0.085063525
4	0xbe9eb7b3	-0.30999526
5	0x3f019791	0.50621897
6	0x3e891012	0.26770073
7	0x3ef3caaa	0.47615558
8	0xbe086330	-0.13319087
9	0x3dc17e9b	0.09447976
10	0x3e27018a	0.16309181
11	0x3e916c54	0.2840296
12	0xbf2eb417	-0.68243545
13	0xbf35b866	-0.70984495
14	0x3e2e79bf	0.1703863
15	0x3e01d3d0	0.12678456
16	0x3e9c5e0e	0.30540508
17	0x3e73186e	0.23739788
18	0x3eae9f70	0.34106016
19	0x3d828f6f	0.06375014
20	0xbde3186b	-0.11088642
21	0xbedc6800	-0.43048096
22	0xbeacb4d7	-0.3373172
23	0xbee3dac4	-0.44502842
24	0x3e1a3456	0.15059027
25	0x3dfae975	0.1225156
26	0x3efbdf05	0.49193588
27	0xbe1ba26f	-0.15198682
28	0xbed95531	-0.42447808
29	0xbec32945	-0.38117424
30	0x3e41f698	0.18941724
31	0x3e3c91cf	0.18414997
32	0x3e27f357	0.1640142
33	0xbd974484	-0.07386115
34	0xbed241df	-0.4106588
35	0xbe8026d6	-0.2502963
36	0xbe6f65bf	-0.23378657
37	0xbe96f985	-0.29487243
38	0x3defd968	0.11711389
39	0x3a9923f0	0.0011683684
40	0xbebdc512	-0.37064415
41	0x3e99b745	0.30022636
42	0xbe9b484b	-0.30328593
43	0xbdf38ba2	-0.11891867
44	0xbea04b61	-0.3130751
45	0xbe2cddd4	-0.16881496
46	0xbf1acdd5	-0.60470325
47	0xbeacd73f	-0.3375797
48	0x3e839b34	0.25704348
49	0x3eba7f79	0.3642538
50	0xbb32811d	-0.0027237602
51	0x3d08cd20	0.033398747
52	0x3d990eee	0.07473551
53	0x3db02898	0.08601493
54	0xbe978a90	-0.29597902
55	0x3e547f54	0.20751697
56	0x3e0096b9	0.12557496
57	0xbefb8744	-0.49126637
58	0xbee43c10	-0.44577074
59	0xbe9c5464	-0.30533135
60	0xbec85ea3	-0.39134702
61	0x3db0045f	0.08594584
62	0xbeba0aa1	-0.36336234
63	0x3f02d787	0.5111012
64	0xbee9dab3	-0.45674667
65	0x3e8393ee	0.256988
66	0xbf40eee9	-0.7536455
67	0x3be428cb	0.0069628707
68	0xbe9f0e8d	-0.3106579
69	0x3e9b4b3f	0.30330846
70	0xbeb2671e	-0.34844297
71	0x3d93f844	0.07225087
72	0x3d92718c	0.071505636
73	0x3e98ec38	0.2986772
74	0xbe524538	-0.20534217
75	0x3ea758f6	0.3268506
76	0xbe910ff2	-0.28332478
77	0xbf1982da	-0.5996529
78	0x3eadbb52	0.33931977
79	0xbeb704bd	-0.35745803
80	0xbea8ea08	-0.32991052
81	0x3d999717	0.07499521
82	0x3f0e0299	0.55472714
83	0xbe8f0437	-0.27932903
84	0xbd9df9cd	-0.07713661
85	0xbe9fd1e9	-0.31214836
86	0x3e89d9da	0.2692402
87	0x3e8b430f	0.271996
88	0x3ecf63dd	0.40505877
89	0xbe4eed47	-0.20207702
90	0xbe611981	-0.21982385
91	0xbf1c8bab	-0.61150616
92	0x3e6aabb4	0.22917062
93	0x3e6a0ea4	0.22857147
94	0x3e16b478	0.14717281
95	0xbf2c894c	-0.67397
96	0xbede9c7c	-0.43478763
97	0x3ea85009	0.32873562
98	0xbf291ebc	-0.6606252
99	0xbee98d17	-0.45615456
100	0xbf5114b3	-0.8167221
101	0x3dae8e4d	0.085232355
102	0x3ea9d6d3	0.3317171
103	0x3e050c3b	0.12992947
104	0xbf05abd2	-0.522153
105	0x3e97317c	0.2952994
106	0xbeeacf6c	-0.45861375
107	0x3e77bbe0	0.24192762
108	0xbd0bf087	-0.03416493
109	0xbeedcf93	-0.4644743
110	0x3ef5e716	0.48027867
111	0xbec52745	-0.38506523
112	0x3e6437f2	0.22286966
113	0xbf4e5f19	-0.8061386
114	0x3e6e7b04	0.23289114
115	0xbe363d1f	-0.17796753
116	0x3e083278	0.13300502
117	0x3dc0d680	0.09415913
118	0xbdef7374	-0.11691943
119	0xbcc2f80e	-0.023799922
120	0x3ea3ab1b	0.3196648
121	0xbf279bcb	-0.65472096
122	0x3e870c9a	0.26376802
123	0x3da41c1d	0.08013175
124	0xbeb61d40	-0.3556919
125	0xbf2b7568	-0.6697602
126	0x3e7576e6	0.23971137
127	0xbe8ce76b	-0.27520308
128	0xbeec1269	-0.46107796
129	0xbce7b4a7	-0.028284384
130	0xbe23c345	-0.15992458
131	0x3ef79bdc	0.483611
132	0x3e93c4c9	0.28861073
133	0xbe623c98	-0.22093427
134	0xbe806eb6	-0.25084466
135	0x3db5ee27	0.088833146
136	0xbf0755c9	-0.5286527
137	0xbe17d258	-0.14826334
138	0x3ea54924	0.32282364
139	0x3e274f3e	0.16338822
140	0x3e8ff26e	0.28114647
141	0xbf3a1187	-0.72682995
142	0x3eca250c	0.3948139
143	0xbe2e55fa	-0.17024985
144	0xbe8d4b91	-0.27596715
145	0x3d66cf7c	0.056350216
146	0x3ec6e61c	0.38847435
147	0x3eaef6bb	0.34172615
148	0x3c63cca7	0.013903773
149	0x3ea02dd2	0.31284958
150	0xbeb06c47	-0.3445761
151	0xbe16fd45	-0.14745052
152	0xbe179132	-0.14801481
153	0xbdc71b13	-0.09721961
154	0x3c70bfcf	0.014694168
155	0xbcd7c95d	-0.026341135
156	0x3ea2a88e	0.31769222
157	0x3e7da450	0.24769711
158	0xbf20db8e	-0.62835014
159	0xbf0a16d2	-0.5394107
160	0xbec36b69	-0.38167885
161	0x3e9bad46	0.30405635
162	0x3e035b67	0.12827836
163	0x3d96b21a	0.07358189
164	0xbeaa5199	-0.3326538
165	0xbe5c4027	-0.21508847
166	0x3ee8fdf6	0.45506257
167	0xbe96fbd5	-0.29489008
168	0x3e4bf7ba	0.19918719
169	0x3d0c5520	0.03426087
170	0xbe264b05	-0.16239555
171	0xbe30de29	-0.17272247
172	0xbdf19e2a	-0.117977455
173	0x3ec66d33	0.38755187
174	0x3e8a1bee	0.26974434
175	0x3f0330cf	0.5124635
176	0xbee7fcda	-0.45310098
177	0x3e8edbfc	0.2790221
178	0x3ed7bf26	0.42138022
179	0xbeb812a6	-0.35951728
180	0x3e38bed3	0.18041544
181	0xbddf9c96	-0.10918538
182	0x3ea2078e	0.3164639
183	0xbe5c065d	-0.21486802
184	0x3e339255	0.1753629
185	0x3e81af84	0.2532922
186	0xbf170330	-0.5898924
187	0xbf5114dc	-0.81672454
188	0xbef9f98b	-0.488232
189	0x3ea8bc24	0.3295604
190	0x3eb1d576	0.3473317
191	0xbf14779d	-0.57995015
192	0xbd2604e6	-0.040532015
193	0xbf1ebe46	-0.62009084
194	0xbf41245e	-0.75446117
195	0x3ec88948	0.39167237
196	0x3e9c2e04	0.30503857
197	0xbeb4faeb	-0.35347685
198	0xbf0eab09	-0.5572973
199	0x3d9efecf	0.07763445
200	0x3de7dbae	0.113211975
201	0xbe7fc94f	-0.24979137
202	0xbf2cfa6f	-0.6756963
203	0x3e9bdf2f	0.30443713
204	0x3cdbd4ff	0.026834963
205	0x3e50ad55	0.20378621
206	0xbf212ceb	-0.62959164
207	0x3ee538bd	0.4476985
208	0x3eaf46d0	0.34233713
209	0x3eb4d198	0.35316157
210	0xbd0ec951	-0.03485996
211	0x3efb6519	0.4910057
212	0xbe25c972	-0.16190127
213	0xbd241c6f	-0.04006618
214	0x3eadd58b	0.33951983
215	0x3edfcf0e	0.43712658
216	0xbf06945c	-0.5257013
217	0x3e96df81	0.29467395
218	0x3de2b4cb	0.1106964
219	0x3df5f904	0.120103866
220	0x3ed0afd8	0.40759158
221	0xbed21ed4	-0.41039145
222	0x3ece9d49	0.40354374
223	0x3f073a3c	0.52823234
224	0xbed02997	-0.4065673
225	0xbea2f5ed	-0.3182825
226	0xbf330011	-0.69921976
227	0xbe748aff	-0.23881148
228	0xbf32276e	-0.69591415
229	0xbdad9737	-0.084761076
230	0x3e1d8c51	0.15385558
231	0x3e872a62	0.26399523
232	0x3e9b883c	0.30377376
233	0x3e89a795	0.26885667
234	0xbdb6cf2a	-0.08926232
235	0xbe84a277	-0.259052
236	0xbebc91b1	-0.36829904
237	0x3e379c29	0.17930664
238	0x3ed00b4d	0.40633622
239	0xbe2c2752	-0.16811875
240	0xbe36fd18	-0.17869985
241	0xbe764b99	-0.24052276
242	0xbda6dbe3	-0.08147409
243	0xbf0c2ca1	-0.547556
244	0x3e996fab	0.29968008
245	0xbe156400	-0.14588928
246	0xbf5c843f	-0.8613929
247	0xbe86d9ba	-0.26337987
248	0x3de42315	0.11139504
249	0xbefaae5b	-0.48961148
250	0x3db23e9e	0.087033495
251	0x3e9feb52	0.31234223
252	0xbf25470b	-0.6456153
253	0xbeeb57b7	-0.4596536
254	0x3d5ddd32	0.054166026
255	0xbefd924f	-0.49525687

net.2.weight f4 [256, 256]
0	0xbd5b6c6d	-0.0535702
1	0x3d0f6883	0.03501178
2	0xbc517138	-0.012783341
3	0xbcc79982	-0.02436519
4	0xbc8a7c7b	-0.01690506
5	0xbd43953d	-0.047749747
6	0x3cf29699	0.029612826
7	0xbca33f90	-0.01992777
8	0xbcf8c158	-0.030365631
9	0xbd3d5f33	-0.046233367
10	0x3ca37a4e	0.01995578
11	0xbc81870a	-0.015811462
12	0xbba9a872	-0.005177551
13	0xbc5273e8	-0.012845017
14	0xbd06b851	-0.03289062
15	0x39da9823	0.0004169355
16	0x3cec30fb	0.02883195
17	0xbce9fe85	-0.028563747
18	0xbbd012ce	-0.006349898
19	0xbd19853e	-0.037480585
20	0xbcbd4ec3	-0.023108846
21	0x3d3130e0	0.0432595
22	0x3a0775d5	0.00051673996
23	0x3d33d194	0.04390104
24	0xbc8bc166	-0.017059993
25	0xbd126d05	-0.0357485
26	0xbd1e7201	-0.03868294
27	0x3d0ece9f	0.034865018
28	0xbd1b3b34	-0.037898257
29	0x3cd3dffe	0.025863644
30	0x3b53407a	0.0032234476
31	0x3be36d34	0.0069405083
32	0x3c9af20f	0.01891425
33	0xbc533fb7	-0.012893609
34	0x3cf9d02d	0.030494774
35	0xbd44f6bc	-0.048086867
36	0xbcd32e1e	-0.025778826
37	0x3d13c5f5	0.03607746
38	0x3c6fa35c	0.01462635
39	0xbc12d944	-0.008962933
40	0xbc3c90d2	-0.011509137
41	0xbcf68667	-0.030093385
42	0x3cf5813e	0.029968854
43	0xbc2e3270	-0.010632142
44	0xbada8df1	-0.0016674382
45	0x3b2ec705	0.0026668918
46	0x3d14f717	0.036368456
47	0xbcf8b64c	-0.030360363
48	0xbccd113f	-0.025032638
49	0x3cd8f44d	0.02648368
50	0x3ce403c7	0.027833832
51	0xbcc69bc7	-0.024244202
52	0xbd6cbf1d	-0.057799447
53	0x3ab1c7f6	0.0013563621
54	0x3cd451db	0.025917938
55	0x3b639efd	0.0034732216
56	0x3d0f2f84	0.034957424
57	0xbd202cb3	-0.03910513
58	0x3c8ea8fe	0.017414566
59	0xbcfafe03	-0.0306387
60	0x3ce3395c	0.027737312
61	0x3d1620bb	0.036652308
62	0x3c7fbcba	0.015608961
63	0x3cfaa65f	0.03059691
64	0xbd050f1b	-0.03248511
65	0xbd586a2d	-0.052835632
66	0xbd4217f8	-0.04738614
67	0x3cfd79ee	0.03094193
68	0x3c8d6e3d	0.01726448
69	0xbd36d05b	-0.044632297
70	0x3cc38490	0.023866922
71	0x3d382f0e	0.04496675
72	0xbd470e03	-0.048597347
73	0x3cdebfdb	0.027191093
74	0x3bf7af09	0.0075587076
75	0x3b96383e	0.0045843413
76	0x3d35a2d7	0.04434475
77	0x3d36ce75	0.044630487
78	0x3c3c4319	0.011490607
79	0x3d1f7fee	0.038940363
80	0x3ca7f603	0.02050305
81	0xba916923	-0.0011093955
82	0xbd5718af	-0.052513774
83	0x3c16d207	0.009205348
84	0xbd0f9dd4	-0.035062626
85	0x3c789772	0.015172826
86	0xba114852	-0.00055420876
87	0xbc03e9e1	-0.008051367
88	0xbd2fc6fd	-0.04291438
89	0xbcf4bd46	-0.029875409
90	0x3d1534b0	0.0364272
91	0x3c777626	0.015103852
92	0x3c911846	0.01771177
93	0xbcc2a4d0	-0.02376023
94	0xbc0b0a93	-0.008486408
95	0xbc4eeeeb	-0.012630205
96	0x3d0ad274	0.03389211
97	0xbcf6015b	-0.030029943
98	0x3cfe4ba5	0.03104193
99	0x3d0b2f06	0.033980392
100	0xbd389ddc	-0.04507242
101	0x399dc925	0.00030095238
102	0xbc80e5d3	-0.015734589
103	0xbcdf3086	-0.027244817
104	0x3cae4bbf	0.021276353
105	0xbbc4343a	-0.005987671
106	0x3d30bbe7	0.043147948
107	0xbd19c21a	-0.037538625
108	0x3c64e24c	0.013969969
109	0xbd2c59e4	-0.042077914
110	0xbcca5b9f	-0.024701891
111	0xbbb01cd1	-0.005374529
112	0x3cfec60c	0.031100295
113	0x3cd4a766	0.025958728
114	0xbd25bf66	-0.040465735
115	0xbb38acd2	-0.002817918
116	0xbd1a36c3	-0.03764988
117	0x3b0bf2e6	0.0021354496
118	0xbd282ac3	-0.041056406
119	0xbcbeb55d	-0.02327984
120	0x3ccc6b3e	0.02495348
121	0xbd39377a	-0.045218922
122	0xbd40762c	-0.046987697
123	0xb9248087	-0.00015688139
124	0xbaf1a257	-0.0018435222
125	0xbc13ac26	-0.009013211
126	0x3d304527	0.0430347
127	0xbcf3148d	-0.029672885
128	0xbcf5189d	-0.029918963
129	0xbd16e3ce	-0.036838345
130	0xbc164900	-0.009172678
131	0xbcb10765	-0.021609971
132	0x3caf08a6	0.021366429
133	0xbb355a0e	-0.0027672085
134	0x3c80ee81	0.015738728
135	0xbca88160	-0.020569503
136	0x3d076de7	0.033063795
137	0x3d2a2ce8	0.041546732
138	0xbd59fff5	-0.053222615
139	0xbc4f848e	-0.012665881
140	0xbd2b47fd	-0.0418167
141	0x3cab838b	0.020936748
142	0xbd305d86	-0.04305794
143	0xbd0498d3	-0.032372307
144	0x3d49b256	0.04924234
145	0xbd40c368	-0.047061354
146	0x3cde276d	0.027118409
147	0xbba3d980	-0.0050002933
148	0x3d216b1a	0.03940878
149	0xbd0b225f	-0.033968326
150	0x3cbea160	0.023270309
151	0x3bc2d871	0.005946212
152	0xbbae2b1c	-0.0053151976
153	0x3d09c741	0.03363729
154	0xbd3fe0c0	-0.046845198
155	0xbd229782	-0.03969527
156	0x3d2191ac	0.039445564
157	0xbcf27034	-0.029594518
158	0xbd1180f5	-0.035523374
159	0xbb1debdf	-0.002409689
160	0xbc813c54	-0.015775837
161	0xbc81ec0e	-0.01585963
162	0xbd2c8fb9	-0.042129252
163	0x3c0d69a7	0.0086311465
164	0xbd2db393	-0.042407583
165	0xbb927d11	-0.0044704755
166	0x3ca1b233	0.019738292
167	0x3c1b2443	0.009469095
168	0xbb0b6a1c	-0.0021272963
169	0xb9f0a850	-0.0004590177
170	0xbc6c8c28	-0.014437713
171	0xbc91b6f6	-0.017787438
172	0xbcaa3fec	-0.020782433
173	0xbd085d58	-0.033292145
174	0xbd0958a8	-0.033531815
175	0x3d21ea04	0.039529815
176	0xbc072241	-0.008247913
177	0x3c0ab850	0.008466795
178	0x3ccb6d3e	0.024832364
179	0xbb7c4ea0	-0.0038499013
180	0xbcd93252	-0.026513252
181	0xbd2d1674	-0.04225774
182	0xbcdeee72	-0.027213309
183	0x3c901ab3	0.017590856
184	0xbd3bec65	-0.04587974
185	0xbbc52ccf	-0.0060173045
186	0x3c9992af	0.018746702
187	0x3d000d7b	0.031262856
188	0x3c72fcfb	0.014830823
189	0x3a3d7d19	0.0007228419
190	0x3cca1b6a	0.024671275
191	0x3cba8eab	0.022773108
192	0x3c040c26	0.008059537
193	0xbc7a5993	-0.015280145
194	0xbd21dff9	-0.039520238
195	0xbca1aea7	-0.019736601
196	0xbc94c526	-0.018160414
197	0x3b6d30cf	0.0036192422
198	0xbbb19b8e	-0.005420155
199	0x3ca33918	0.019924685
200	0x3d062662	0.03275145
201	0xbcebe93f	-0.028797744
202	0xbd3f8a90	-0.046763003
203	0xbccf2332	-0.025285337
204	0xbd056a70	-0.03257221
205	0x3c9a7dbf	0.018858789
206	0xbd0235e7	-0.031789687
207	0xbc602b0c	-0.013682138
208	0xbc982768	-0.018573478
209	0xbcf5094f	-0.029911665
210	0x3c5f28d3	0.013620573
211	0xbcf0b19a	-0.029381562
212	0xbb2715dd	-0.002549521
213	0xbd0ded88	-0.034650356
214	0xbc66c85f	-0.014085858
215	0xbb1640e5	-0.0022926864
216	0xbb036e6f	-0.0020054837
217	0xbccaaf2d	-0.024741733
218	0x3bc8ab9e	0.006123974
219	0xbcafca24	-0.021458693
220	0xbcdfd3c2	-0.027322654
221	0xbd14dc60	-0.03634298
222	0xbc9f432e	-0.019441213
223	0xbd6468f0	-0.05576414
224	0x3d278d69	0.040906344
225	0xbcc0df45	-0.023543963
226	0xbca75008	-0.020423904
227	0x3b95481d	0.0045557157
228	0x3c5151bb	0.012775834
229	0xbc61e72e	-0.013788028
230	0x3cc95636	0.024577241
231	0xbceb5a5d	-0.028729612
232	0x3c0a5398	0.008442782
233	0xb8e91918	-0.0001111498
234	0xbd243608	-0.04009059
235	0xbc9c5c77	-0.01908706
236	0x3c4d7dab	0.012542169
237	0x3a535085	0.00080610096
238	0x3cda2ffd	0.02663421
239	0x3d070bb4	0.032970145
240	0xbcdc341a	-0.026880313
241	0xbcac67ae	-0.021045532
242	0xbc9e6f10	-0.019340068
243	0xbd109edf	-0.03530776
244	0xbcb86718	-0.022510096
245	0xbd25302d	-0.040329147
246	0x3c998e15	0.018744508
247	0x3d0ed4ae	0.034870796
248	0x3b7fba94	0.0039021121
249	0xbd1082d9	-0.035281036
250	0xbd3e2e0c	-0.046430632
251	0xbce86a97	-0.028371138
252	0x3c6ada5c	0.0143342875
253	0xbc00a536	-0.007851889
254	0x3c12d019	0.008960747
255	0x3d3e40f4	0.046448663

net.2.bias f4 [256]
0	0xbd43794e	-0.047723107
1	0xbcd1b931	-0.025601001
2	0xbd03fdd0	-0.032224476
3	0x3e1dc7c9	0.15408243
4	0xbd4870c2	-0.04893566
5	0x3c7c937a	0.0154160205
6	0x3e473542	0.1945391
7	0x3cd17c36	0.025571924
8	0xbc964621	-0.018343987
9	0x3df19668	0.11796266
10	0x3cb7cebc	0.022437446
11	0x3e32dfb5	0.1746815
12	0x3e01bd42	0.12669852
13	0x3caaa3df	0.020830093
14	0x3e320ff5	0.173889
15	0x3e039d39	0.12852944
16	0x3cbe3a3b	0.023221126
17	0x3e392eae	0.18084213
18	0x3e3b3287	0.18280993
19	0xbd1ad8db	-0.037804466
20	0xbc7ee97d	-0.015558598
21	0x3e4227d7	0.1896051
22	0xbc2897af	-0.01029007
23	0xbd570125	-0.052491326
24	0x3e202e47	0.15642653
25	0x3e213472	0.15742663
26	0x3e291cf6	0.16514954
27	0x3e0b8aa3	0.13627104
28	0xbcb74b68	-0.022374824
29	0xbd52ce0d	-0.051466037
30	0x3dd195c6	0.10233645
31	0x3e0b729c	0.13617939
32	0xbcaacd14	-0.020849742
33	0x3b9dc2a4	0.0048144627
34	0x3c2c9a34	0.010534812
35	0x3e417e2a	0.18895784
36	0xbd01388b	-0.031548064
37	0xbdcf4410	-0.10120404
38	0x3b0a5882	0.0021109884
39	0xbde21736	-0.110395834
40	0x3cd880a6	0.026428532
41	0x3e3234a7	0.17402898
42	0x3c898878	0.016788706
43	0xbaf03c56	-0.0018328528
44	0xbd9cae3a	-0.076504186
45	0x3bc59fcd	0.0060310126
46	0x3bccc9f2	0.0062496597
47	0xbd60a79a	-0.054847337
48	0x3dfe5455	0.12418429
49	0x3d23fb27	0.04003444
50	0x3b4eb20a	0.0031539225
51	0x3dfdb48b	0.123879515
52	0xbd985998	-0.07438964
53	0xbd013766	-0.031546973
54	0x3d51240b	0.051059764
55	0x3b76a88e	0.0037637088
56	0xbda54534	-0.0806984
57	0xbb5dde54	-0.0033854442
58	0x3e02ae6f	0.12761854
59	0xbcbee849	-0.023304122
60	0xbbe0a7d1	-0.006855943
61	0xbb06c38f	-0.002056334
62	0x3ccc31d4	0.024926104
63	0x3de51717	0.11186045
64	0xbc0c277a	-0.008554334
65	0xbc87f495	-0.016596118
66	0xbd055ee9	-0.032561217
67	0x3e3d770d	0.18502446
68	0xbd0da201	-0.034578327
69	0x3df15dd9	0.11785478
70	0xbd2c7e2f	-0.042112526
71	0xbd1d1b16	-0.03835591
72	0x3e23ff2e	0.16015312
73	0x3e839a0e	0.25703472
74	0xbd1cab1d	-0.038249124
75	0xbd5189a3	-0.05115665
76	0x3e1bfb7a	0.1523265
77	0xbbba6678	-0.0056884848
78	0xbbe40caf	-0.00695952
79	0x3e4f50ce	0.20245668
80	0x3ddcec88	0.10787302
81	0x3d600d9d	0.054700483
82	0x3e12dbe5	0.14341696
83	0x3ceb2578	0.02870439
84	0x3bccce0a	0.0062501477
85	0x3e77b6b9	0.24190797
86	0xbd5539e9	-0.05205718
87	0x3c0ac6d6	0.008470258
88	0x3dd6390b	0.10460099
89	0x3e24677d	0.16055103
90	0x3e0855c9	0.13313974
91	0x3e448c30	0.19194102
92	0x3e078f45	0.13238247
93	0x3b0a59b1	0.002111059
94	0xbc46d639	-0.012136036
95	0xbd9b4457	-0.07581394
96	0x3e127cbb	0.14305393
97	0xbc21ce64	-0.0098758675
98	0xbc6c5dba	-0.014426643
99	0x3df92aaf	0.121663444
100	0xbd11791c	-0.03551589
101	0xbd1465fb	-0.03623007
102	0xbb68d4de	-0.003552727
103	0xbc75ea39	-0.015009456
104	0xbd93e0c8	-0.07220608
105	0x3bec0c22	0.007203595
106	0xbd99e9d3	-0.075153016
107	0x3e2d9c1a	0.1695408
108	0xbc1f7042	-0.009731354
109	0x3e117343	0.14204125
110	0x3e25b773	0.16183262
111	0x3d67ebd2	0.05662138
112	0xbc8854ea	-0.016642053
113	0xbe0e7bf9	-0.1391448
114	0x3a5f6910	0.00085224304
115	0xbcd797e1	-0.026317539
116	0xbd31618b	-0.043305915
117	0xbd44a6ef	-0.048010763
118	0x3e3148e9	0.1731297
119	0x3dd2c656	0.10291736
120	0x3e12bb0e	0.14329168
121	0x3e359065	0.17730863
122	0x3d1615c8	0.036641866
123	0xbd3c2bda	-0.045940258
124	0xbda3a3fc	-0.07990262
125	0x3c13d32c	0.009022515
126	0x3df17b26	0.11791067
127	0x3c72d5bc	0.014821466
128	0xbd06c5ac	-0.03290336
129	0x3ce66bcc	0.028127573
130	0x3e277b2d	0.16355582
131	0x3e081f23	0.13293128
132	0x3e124951	0.1428578
133	0xbb0d26b5	-0.0021537964
134	0x3b46dfcb	0.0030345793
135	0x3ccd2fa9	0.02504714
136	0x3e44c564	0.19215924
137	0x3e25abfa	0.16178885
138	0xbcccc230	-0.02499494
139	0x3d098203	0.033571254
140	0xbd247d86	-0.04015877
141	0x3e21ea22	0.15811971
142	0xbc18beb6	-0.009322813
143	0x3e47d8ae	0.1951625
144	0xbbfd7cb6	-0.007735814
145	0xbc93222d	-0.017960632
146	0x3cb1e5de	0.021716055
147	0xbd365994	-0.044519022
148	0xbb799420	-0.0038082674
149	0x3e326406	0.17420968
150	0xbc86985f	-0.016430078
151	0x3e4b951a	0.19881096
152	0xbd840661	-0.06446529
153	0xbd252015	-0.0403138
154	0x3e3ab2f0	0.18232322
155	0x3b11b56a	0.0022233375
156	0xbd7b3e0e	-0.061338477
157	0xbcdb2c2d	-0.026754463
158	0xbc6387ac	-0.013887327
159	0x3e05c2d8	0.13062608
160	0x3e51a450	0.20472836
161	0xbd63a3bd	-0.055576075
162	0x3e37c851	0.17947508
163	0xbcbea7ea	-0.023273427
164	0xbd4fa910	-0.05069834
165	0xbd315ee8	-0.0433034
166	0x3e3e9137	0.18610083
167	0x3e3a6c9a	0.1820549
168	0xbd50b3d7	-0.05095276
169	0x3e4f115f	0.2022147
170	0x3e25dc5c	0.16197342
171	0x3c0a0b99	0.008425617
172	0xbd555b15	-0.052088816
173	0x3e08a2a4	0.13343292
174	0x3cfc9130	0.03083095
175	0x3e4f3eaa	0.20238748
176	0x3e1149a5	0.1418825
177	0xbd1189be	-0.03553175
178	0x3c82a38a	0.015947122
179	0xbbacbabb	-0.0052712834
180	0x3ca0984f	0.019603876
181	0x3de99f4f	0.11407339
182	0x3e030b0d	0.12797184
183	0x3e4de107	0.20105372
184	0xbc525598	-0.01283779
185	0x3d01e8bd	0.031716097
186	0x3e2075ae	0.15669891
187	0x3e313370	0.17304778
188	0x3c71114c	0.014713597
189	0xbd41cdda	-0.047315456
190	0xbc856a81	-0.016286137
191	0x3e292e7e	0.16521642
192	0xbc16f0b0	-0.009212658
193	0x3df35173	0.118807696
194	0x3c7a09c0	0.015261114
195	0xbde8a0a9	-0.113587685
196	0xbcfef8c6	-0.031124484
197	0xbcde9976	-0.027172785
198	0xbcbdc152	-0.023163471
199	0x3e2e57e6	0.17025718
200	0xbd4529c5	-0.048135538
201	0xbbe0ae7e	-0.0068567386
202	0x3e2d5b3f	0.16929339
203	0x3ccafd1a	0.024778891
204	0x3b33a36d	0.0027410642
205	0xbd38cf5a	-0.04511962
206	0x3e309f98	0.1724838
207	0xb9de17e0	-0.00042360928
208	0x3e1d737b	0.15376084
209	0x3e160587	0.14650546
210	0xbe12a09c	-0.1431908
211	0xbde472bd	-0.11154697
212	0xbd2e8ba8	-0.042613655
213	0xbd7a99e3	-0.061181914
214	0x3dec78a6	0.11546449
215	0x3e5c4e33	0.21514206
216	0x3e166b80	0.14689445
217	0x3e3691ac	0.17829007
218	0xbcda0d39	-0.026617633
219	0x3e346f63	0.17620616
220	0x3bc6f536	0.006071712
221	0xbd4c6866	-0.04990425
222	0x3e138fca	0.1441032
223	0xbd647a7a	-0.055780865
224	0xbc518581	-0.0127881775
225	0x3c0554b5	0.0081378715
226	0x3e0224f6	0.12709412
227	0x3e3a0745	0.18166836
228	0xbc6f2c88	-0.014598019
229	0x3e19284f	0.14956783
230	0x3e16292d	0.14664145
231	0x3e19eb18	0.15031087
232	0x3e210a4a	0.15726581
233	0x3e261320	0.16218233
234	0xbe1aac55	-0.15104802
235	0x3deb940e	0.115028486
236	0x3e1f7a9b	0.15574114
237	0x3e165764	0.14681774
238	0x3c025ed3	0.007957178
239	0xbb4376c0	-0.002982542
240	0x3e3aa04b	0.1822521
241	0x3d077996	0.033074938
242	0xbd127397	-0.035754766
243	0x3e47a41b	0.19496195
244	0x3e29009d	0.1650414
245	0xbd701c25	-0.05862059
246	0x3e2bf919	0.16794242
247	0x3c09b875	0.008405794
248	0xbd1b927f	-0.037981506
249	0x3de7e729	0.11323387
250	0x3e4a5f41	0.19762899
251	0xbcadcbfa	-0.021215428
252	0x3de7d1fb	0.113193475
253	0x3e12650b	0.14296357
254	0x3e118afe	0.14213178
255	0x3cce9c1b	0.025220921

net.4.weight f4 [3, 256]
0	0xbc1fd6a3	-0.009755763
1	0x3d0e649c	0.034763917
2	0x3c90fec1	0.017699601
3	0xbe113a1b	-0.14182322
4	0x3d1a770c	0.03771119
5	0xbc3071a2	-0.01076928
6	0xbdafebe8	-0.085899174
7	0xbafcdd6e	-0.0019292065
8	0x3d096d33	0.033551406
9	0xbe2a1b99	-0.1661209
10	0xbbbf7f5f	-0.0058440412
11	0xbdb97ed2	-0.09057392
12	0xbe213d27	-0.15745984
13	0xbd5b1ec4	-0.053496137
14	0xbe2875a7	-0.16451131
15	0xbe2dd736	-0.16976628
16	0x3ca6302d	0.020286644
17	0xbdfb9450	-0.12284148
18	0xbe23a090	-0.15979218
19	0x3cc1cb3e	0.023656484
20	0x3d180ba0	0.03712046
21	0xbe2c35e3	-0.16817431
22	0x3cef2862	0.02919406
23	0xbd2556db	-0.040366035
24	0xbd905b10	-0.07048619
25	0xbdea2685	-0.11433128
26	0xbdfbc9fb	-0.12294384
27	0xbdd8da6d	-0.105885364
28	0xbcc65ee8	-0.024215177
29	0xbca8b606	-0.020594608
30	0xbdb4917d	-0.08816812
31	0xbe37730a	-0.17914978
32	0x400e24c9	2.2209952
33	0xbbe2e141	-0.006923825
34	0xbc8812df	-0.016610561
35	0xbe10a06f	-0.141237
36	0xbc498a4b	-0.012301038
37	0x3f3bc797	0.73351425
38	0x3beb2638	0.007176187
39	0xbf5ef744	-0.8709605
40	0xbf020eb9	-0.50803715
41	0xbe41f032	-0.18939283
42	0xbb940013	-0.0045166104
43	0xbb6623f3	-0.0035116642
44	0xbbb0d742	-0.0053967545
45	0x3ce857b0	0.028362125
46	0x3d3e0c73	0.04639859
47	0x3d34c79e	0.044135682
48	0xbdba31d9	-0.09091539
49	0xbed718ae	-0.42011017
50	0x3d074c2b	0.033031624
51	0xbd8e7c04	-0.06957248
52	0x3d873941	0.06602717
53	0x3c706b99	0.014674091
54	0xbd6bc9eb	-0.05756561
55	0x3d31c0b8	0.04339668
56	0x3f80ca69	1.0061771
57	0x3c25744d	0.010098529
58	0xbdf00ea2	-0.11721541
59	0xbc78342c	-0.0151491575
60	0xbc51a6b0	-0.012796089
61	0x3d07a4b3	0.033116054
62	0x3d01c3f4	0.031681016
63	0xbe308957	-0.17239891
64	0x3d291f05	0.04128935
65	0xbb0210c0	-0.001984641
66	0xbd90e5b1	-0.0707506
67	0xbe8d9372	-0.27651554
68	0x3c63643a	0.013878876
69	0xbdc58660	-0.096447706
70	0x3f981812	1.1882346
71	0xbd2cd733	-0.042197417
72	0xbde371f6	-0.11105721
73	0xbe4fdde3	-0.20299487
74	0x3d247be9	0.040157232
75	0xbcfa11c3	-0.030526048
76	0xbe36ae05	-0.1783982
77	0x3c83ce08	0.016089454
78	0x3d192a7e	0.03739404
79	0xbd95cf24	-0.073148996
80	0xbdca1a44	-0.09868291
81	0x3f6a0492	0.91413224
82	0xbe167c23	-0.14695792
83	0x3bb49e88	0.0055120625
84	0xbcab1b5d	-0.020887071
85	0xbe1dea01	-0.15421297
86	0x3cc4b39a	0.024011422
87	0x3cc48d26	0.023993086
88	0xbdac1826	-0.084030434
89	0xbdd5393f	-0.104113095
90	0xbe0ff81f	-0.14059494
91	0xbe131946	-0.1436511
92	0x3fbf2ac3	1.4934925
93	0x3b8a135d	0.004213734
94	0xbc867b12	-0.016416106
95	0xbcb50de7	-0.022101356
96	0xbdf9a6c2	-0.1219001
97	0xbd151b12	-0.03640277
98	0x3c2fda2f	0.010733171
99	0xbdc557ff	-0.096359245
100	0xbc60fb38	-0.01373177
101	0x3d1f6221	0.038911942
102	0x3caf301e	0.021385249
103	0x3c9f24d6	0.019426744
104	0xbf86cb92	-1.0530875
105	0xbca62422	-0.020280901
106	0xbbf62074	-0.007511193
107	0xbda262fd	-0.07929037
108	0x3cc075e6	0.023493718
109	0xbe009050	-0.12555051
110	0xbe259144	-0.16168696
111	0xbeba1893	-0.36346874
112	0x3be2abad	0.006917438
113	0xbec89093	-0.391728
114	0x3c28e4d8	0.010308467
115	0x3c912d3d	0.017721767
116	0x3bcae0b3	0.006191337
117	0xbbb12168	-0.0054055937
118	0xbe433714	-0.1906398
119	0xbe37ad25	-0.17937143
120	0xbe0d1e18	-0.13781011
121	0xbe27f10e	-0.16400549
122	0x3ced0d8a	0.02893712
123	0x3bca3762	0.006171153
124	0xbc57d202	-0.013172628
125	0x3d1018fc	0.035180077
126	0xbdda08e6	-0.106462285
127	0x3d18d2d9	0.037310455
128	0x3f8581b3	1.0430206
129	0x3bd2dbaf	0.0064348797
130	0xbe3ac6b4	-0.18239862
131	0xbe3a7a4b	-0.18210714
132	0xbde34d3f	-0.11098718
133	0xbc8fd3ff	-0.017557142
134	0x3cd49f3e	0.025954839
135	0xbbb82d45	-0.005620631
136	0xbe0c82e7	-0.1372181
137	0xbdfee9b0	-0.12446916
138	0xbace923e	-0.0015760136
139	0x3d026c07	0.031841304
140	0x3bdad751	0.0066784997
141	0xbe8056ed	-0.2506632
142	0xbc2768b6	-0.010217836
143	0xbdc595eb	-0.09647735
144	0xbc20f532	-0.009824084
145	0x3b9fcdb4	0.0048768166
146	0x3d1da2d8	0.038485378
147	0xbbed352a	-0.0072390037
148	0x3d17e649	0.03708485
149	0xbe125883	-0.14291577
150	0x3c3da8df	0.011575907
151	0xbe08993b	-0.13339703
152	0x39e807c9	0.0004425629
153	0x3c147e1d	0.009063271
154	0xbe0944dd	-0.13405176
155	0xbb857864	-0.0040731896
156	0xbd131fe0	-0.03591907
157	0x3d0ced91	0.03440625
158	0xbcf32d94	-0.02968482
159	0xbe1d5453	-0.15364198
160	0xbda359c0	-0.07976103
161	0xbbfa838b	-0.0076450757
162	0xbdc5b797	-0.096541576
163	0x3d2d6cca	0.042340077
164	0xbd09ad23	-0.03361238
165	0xbca0fcd6	-0.019651812
166	0xbdb40a81	-0.08791066
167	0xbe6e2d68	-0.23259509
168	0x3b587533	0.003302884
169	0xbd42a0d3	-0.047516655
170	0xbe1d0076	-0.15332207
171	0x3b76d8b8	0.0037665796
172	0x3cf420af	0.029800741
173	0xbe06daec	-0.1316945
174	0x3cfb78f7	0.030697329
175	0xbe5609d1	-0.20902182
176	0xbdf1429d	-0.117802836
177	0xbcc8c044	-0.024505742
178	0xbd46cad8	-0.04853329
179	0x3bc8d74a	0.00612918
180	0x3d05bda6	0.032651566
181	0xbd92db90	-0.071707845
182	0xbda7592e	-0.081713066
183	0xbdd2261d	-0.10261176
184	0x3c0827c4	0.008310262
185	0xbcbefe67	-0.023314668
186	0xbde8af22	-0.11361529
187	0xbdbf1ebf	-0.09332036
188	0x3d00975a	0.03139434
189	0x3d14098a	0.03614191
190	0xbcebfab6	-0.028806072
191	0xbdf51549	-0.119669504
192	0xbc66948e	-0.014073504
193	0xbde7c19a	-0.113162234
194	0x3ce42966	0.027851772
195	0x3f71a857	0.9439749
196	0x3cb10f41	0.021613719
197	0xba567da7	-0.0008182176
198	0xbcb69b8f	-0.022290973
199	0xbe13c792	-0.14431599
200	0xbc480d35	-0.01221018
201	0xbb80a157	-0.003925483
202	0xbdcae076	-0.09906094
203	0x3c836d4a	0.016043324
204	0x3bdcf43b	0.0067429817
205	0x3c0bae71	0.008525477
206	0xbd6dee9a	-0.058088876
207	0x3b89747a	0.0041947933
208	0xbd9e3c93	-0.07726397
209	0xbd8ab354	-0.067724854
210	0x3f03d7de	0.5150126
211	0xbf6ee06a	-0.9331118
212	0x3c187241	0.009304584
213	0xbb7ed2e6	-0.003888303
214	0xbe1fb16a	-0.15595022
215	0xbe1382ed	-0.14405413
216	0xbe1b3e22	-0.1516042
217	0xbd76d702	-0.06026364
218	0xbd2e5fe4	-0.042571917
219	0x3f5e16a1	0.8675328
220	0x3ce26470	0.027635783
221	0x3bc2f7df	0.0059499587
222	0xbe268ac2	-0.1626387
223	0xbc9c28c8	-0.019062415
224	0x3cd94cc0	0.026525855
225	0xbc8e751e	-0.01738983
226	0xbdbe1047	-0.092804484
227	0xbddb5a16	-0.10710542
228	0x3d3f636c	0.046725675
229	0xbdc6b1c9	-0.097018786
230	0xbda3efe8	-0.08004743
231	0xbe23f7ab	-0.16012447
232	0xbe501508	-0.20320523
233	0xbdb90ccb	-0.09035643
234	0xbf22b062	-0.6355039
235	0xbe2def30	-0.16985774
236	0xbe0de2f1	-0.13856103
237	0xbdb1eb9c	-0.08687517
238	0x3d2e0ab6	0.042490683
239	0xbd15bdae	-0.036557846
240	0xbe05064e	-0.12990686
241	0x3c1a3d0a	0.009413967
242	0xbb162eee	-0.0022916156
243	0xbe7b6e59	-0.24553813
244	0xbdfe2a81	-0.12410451
245	0xbcc2296a	-0.023701388
246	0xbdeea7fa	-0.11653133
247	0x3bc31e3c	0.005954532
248	0x3cbd66ca	0.023120303
249	0xbe0fd12b	-0.14044635
250	0xbdd2e16c	-0.10296902
251	0x3ce44116	0.027863067
252	0xbf5461a4	-0.8296149
253	0xbe0d0f3b	-0.13775341
254	0xbe476db5	-0.19475444
255	0x3baac9d9	0.0052120504

net.4.bias f4 [3]
0	0xbe0cdfad	-0.137572
1	0xbe248e34	-0.16069871
2	0xbe17648e	-0.14784452
