wandb/run-20251114_054918-8o93hrbl/files/models/DDQNAgent/CartPole-v1.pth (torch, 273477 bytes, 6 tensors)

net.0.weight f4 [256, 4]
0.19265635 0.23924926 -0.048591442 0.3016129 -0.16988404 0.19018221 0.7792341 0.25964966
0.29461724 -0.24592759 0.18139055 0.02645439 0.36552364 0.16813768 0.56838 0.11646506
0.24757302 -0.027186899 -0.25039506 0.14432594 -0.25214446 0.040098395 0.48349294 0.17807639
-0.22220401 -0.22442715 0.014883444 -0.10145153 0.050587576 -0.3935974 -0.15199679 -0.3145748
0.3276676 0.16085388 0.4429984 0.119952634 0.19248068 0.26630107 -0.1769921 0.058378056
0.3066226 0.12940842 0.41482913 0.13396905 0.18344629 -0.12231637 0.21551469 0.06320678
0.20709552 -0.20735823 -0.5559675 -0.1031284 -0.27419 0.21673965 0.05213611 0.16540857
-0.20919293 -0.13534458 0.19710934 -0.23371257 0.004729963 -0.22912155 0.066770315 -0.15762907
0.3235068 -0.015873605 -0.18231821 -0.08628923 -0.20907313 -0.20474607 0.38378873 0.1055516
0.41706213 -0.28390652 -0.49427906 -0.23248014 -0.24961708 0.21425405 0.77103305 0.22691122
-0.1546497 -0.22920091 0.33608764 -0.13225618 0.46405 -0.01771818 0.10123863 -0.040267956
-0.27697608 0.05211242 0.5034405 0.0679427 0.17227104 0.16694242 -0.47415254 -0.13706599
0.28981498 -0.22900677 -0.45999292 -0.21170472 -0.09232626 0.10015827 -0.049300984 -0.23453428
0.07418871 -0.21434969 -0.4409 -0.16146663 -0.43576312 -0.11661436 0.7000061 0.03544133
-0.033343535 -0.35672924 -0.38265893 -0.2705365 0.1808287 -0.2105474 -0.63769615 -0.2589106
0.024540933 -0.13318965 -0.099097736 -0.17461263 -0.20484278 -0.24894981 -0.54413164 -0.23862343
0.38637218 0.063861 0.8233822 0.094815634 -0.49188408 0.06554341 -0.044246346 -0.10572755
-0.4160922 -0.30050272 -0.2125294 -0.19699854 -0.067491144 -0.40517208 -0.022268241 -0.287005
-0.091900386 0.1316321 0.7764134 0.26074773 0.32381323 -0.25411427 -0.052312005 -0.12220109
0.036757663 -0.21320453 0.3328817 -0.1788717 0.1370877 0.03688247 0.052623626 -0.118480995
0.5018639 0.0186055 -0.14914745 -0.020711645 0.18043943 0.06002684 -0.19672826 0.18307519
0.08216343 -0.22186191 -0.35989472 -0.0007830476 0.23570716 -0.11371308 -0.44069457 -0.09163996
-0.21201341 0.10377466 0.40785205 -0.1543479 0.07593265 0.12888215 -0.006817881 -0.06969991
0.15950167 0.14663762 0.07067654 -0.0037254717 -0.08164013 0.028595028 -0.07378168 -0.05723414
0.102746025 0.22654842 0.19343348 0.09680397 0.032790177 0.009124566 0.096267246 0.084003925
-0.46491882 -0.02087789 0.63681227 0.04792371 0.07070093 -0.18720736 -0.2960774 -0.21238221
-0.2256221 0.13380267 0.7336647 0.16714354 -0.24695502 0.0047639073 0.5353451 0.27080888
0.04486528 -0.08031994 0.128317 -0.118128166 -0.29572803 0.0048969286 -0.517933 -0.013555027
-0.28048941 0.20114125 0.22199167 0.13424438 -0.4613423 -0.21064228 -0.51619524 -0.06294204
0.2413271 0.30989975 0.36280003 0.18789878 0.24587184 -0.2549015 -0.7924998 -0.3245459
0.21880865 -0.21172029 -0.41387916 -0.18805471 -0.030254502 -0.24847592 -0.14433451 0.18614665
-0.059476078 0.10725549 -0.033995375 -0.099218965 -8.102319e-05 -0.12661773 -0.053983912 -0.22144014
00000000: b547 453e c2fd 743e d207 47bd 026d 9a3e
00000010: 15f6 2dbe 20bf 423e e37b 473f cdf0 843e
00000020: 12d8 963e 71d4 7bbe 72be 393e e0b6 d83c
00000030: ea25 bb3e 492c 2c3e 5a81 113f 3c85 ee3d
00000040: c883 7d3e 0fb7 debc c833 80be 2eca 133e
00000050: 1419 81be 373e 243d 638c f73e a859 363e
00000060: 7389 63be 3bd0 65be b0d9 733c d2c5 cfbd
00000070: eb34 4f3d 9985 c9be 0ca5 1bbe f30f a1be
00000080: 0cc4 a73e e1b6 243e b0d0 e23e baa9 f53d
00000090: a819 453e 9d58 883e 6b3d 35be d41d 6f3d
000000a0: a3fd 9c3e a483 043e 7c64 d43e 2f2f 093e
000000b0: 58d9 3b3e 0181 fabd e2af 5c3e 8e72 813d
000000c0: d910 543e b755 54be e353 0ebf fc34 d3bd
000000d0: a262 8cbe 00f1 5d3e ac8c 553d dd60 293e
000000e0: ac36 56be c597 0abe 08d7 493e 5952 6fbe
000000f0: cefd 9a3b d79e 6abe e0be 883d 8469 21be
00000100: afa2 a53e 5d09 82bc a0b1 3abe 68b8 b0bd
00000110: 4417 56be f4a8 51be f57f c43e 702b d83d
00000120: 2b89 d53e 325c 91be 2512 fdbe 460f 6ebe
00000130: 9f9b 7fbe 6a65 5b3e 6c62 453f 6a5b 683e
00000140: 7e5c 1ebe a5b3 6abe ae13 ac3e 2a6e 07be
00000150: f697 ed3e b725 91bc 3356 cf3d 03f0 24bd
00000160: cfcf 8dbe d573 553d 7ae1 003f 8b25 8b3d
00000170: d267 303e f4f2 2a3e 1fc4 f2be 075b 0cbe
00000180: a162 943e c080 6abe 3184 ebbe 1fc9 58be
00000190: 8d15 bdbd c71f cd3d d4ef 49bd c129 70be
000001a0: 40f0 973d 7c7e 5bbe a5bd e1be 8257 25be
000001b0: 581c dfbe 82d3 eebd 9a33 333f ee2a 113d
000001c0: 3b93 08bd 37a5 b6be dfeb c3be c383 8abe
000001d0: 292b 393e bd99 57be 0e40 23bf ee8f 84be
000001e0: 110a c93c de62 08be c1f3 cabd a7cd 32be
000001f0: 4ec2 51be b3ec 7ebe 364c 0bbf b359 74be
00000200: 93d2 c53e 8ec9 823d 2dc9 523f b32e c23d
00000210: 3bd8 fbbe a03b 863d a83b 35bd b087 d8bd
00000220: 090a d5be 7edb 99be 4fa1 59be fcb9 49be
00000230: cc38 8abd b772 cfbe e36b b6bc 52f2 92be
00000240: 4536 bcbd 91ca 063e 07c3 463f ba80 853e
00000250: d9ca a53e 441b 82be 1d45 56bd 9144 fabd
00000260: 348f 163d 4a52 5abe 786f aa3e 252a 37be
00000270: b860 0c3e 1312 173d df8b 573d 2aa6 f2bd
00000280: 277a 003f 906a 983c 1cba 18be 78ab a9bc
00000290: 1dc5 383e b4de 753d 2273 49be 1078 3b3e
000002a0: 4d45 a83d c52f 63be 1f44 b8be 6f45 4dba
000002b0: 385d 713e 67e2 e8bd b8a2 e1be bbad bbbd
000002c0: 0b1a 59be cf87 d43d fcd1 d03e 600d 1ebe
000002d0: 9482 9b3d aff9 033e 8868 dfbb d4be 8ebd
000002e0: 6854 233e 2c28 163e ddbe 903d 0b27 74bb
000002f0: f132 a7bd 1f40 ea3c d91a 97bd 586e 6abd
00000300: 826c d23d 4ffc 673e 6d13 463e 2941 c63d
00000310: fe4e 063d 347f 153c c327 c53d 400a ac3d
00000320: d709 eebe 1c08 abbc 2106 233f a74b 443d
00000330: a6cb 903d 49b3 3fbe 7597 97be b97a 59be
00000340: 7b09 67be 9103 093e 73d1 3b3f ad27 2b3e
00000350: c7e1 7cbe 8d1a 9c3b 600c 093f 76a7 8a3e
00000360: a8c4 373d c87e a4bd 8865 033e 2eed f1bd
00000370: aa69 97be 6a76 a03b 4297 04bf e715 5ebc
00000380: 4f9c 8fbe f9f7 4d3e c951 633e 5c77 093e
00000390: 0f35 ecbe 9cb2 57be 5f25 04bf c2e7 80bd
000003a0: 741e 773e 2eab 9e3e edc0 b93e 8a68 403e
000003b0: d4c5 7b3e 7382 82be 44e1 4abf e12a a6be
000003c0: 600f 603e 34cd 58be f8e7 d3be 6a91 40be
000003d0: 4ad8 f7bc 7970 7ebe 6dcc 13be 3a9d 3e3e
000003e0: 309d 73bd c4a8 db3d bc3e 0bbd 5033 cbbd
000003f0: feea a9b8 14a8 01be 3c1e 5dbd 34c1 62be

net.0.bias f4 [256]
0.36276463 -0.15730205 0.26715183 -0.11086069 0.11705884 -0.28493154 0.2257031 -0.10942875
-0.10938889 -0.3255711 -0.074315146 0.46893 0.32380298 -0.20363642 -0.13938607 -0.07506948
-0.33062685 0.3527534 -0.23176296 0.22930646 -0.0811751 -0.12919073 0.20273009 0.17308486
0.24913411 -0.2582942 0.4708883 -0.16369753 -0.12931041 -0.20886724 0.47002053 -0.09558065
-0.10556229 -0.19824082 -0.07695825 -0.12450395 -0.3432951 0.34725943 0.44435441 0.4739194
-0.15082254 0.3701463 -0.23324572 0.34910014 0.40566102 0.39694345 0.37811872 0.36282912
-0.06481526 0.31250256 -0.19682917 0.35120907 -0.22034475 -0.16374552 -0.26995343 -0.07111334
-0.21406455 -0.16887915 -0.15912029 -0.32863918 -0.16098703 0.27124527 0.47401777 0.3645194
-0.32740244 -0.30674675 0.23476313 0.29220316 -0.37573677 0.1536445 0.43629164 -0.101894185
-0.13485369 0.30574962 0.29965907 0.37498683 -0.18990533 0.37404087 -0.13669139 0.45807594
-0.25264382 0.292829 0.13183 0.19784474 -0.18339449 0.29904917 -0.07247678 -0.28019378
-0.12548415 0.43606955 -0.08215296 0.1152734 -0.25690445 0.42163727 0.39552125 0.26435065
-0.2444506 -0.23668735 -0.05956542 -0.33538747 0.41410947 -0.15800011 0.32110143 0.46643776
0.3417749 0.26359582 -0.3712407 0.46904728 -0.18826725 -0.25404078 0.48210007 -0.2969394
-0.21315345 0.46053782 -0.2846413 -0.40733454 0.0671954 0.06582861 0.27208507 -0.3819466
0.21490182 -0.1670973 -0.16212088 -0.28398436 0.34091952 0.19170345 -0.28812864 0.4177349
0.08482846 0.11071952 -0.23012517 0.061188232 0.4744652 0.37009162 -0.20647582 0.46350083
-0.13454875 0.2795667 0.41105616 0.4265476 -0.20606588 0.45847085 -0.2237068 0.19936195
-0.32383236 -0.29405376 -0.14512536 -0.29017764 -0.08451282 -0.14468816 0.49132606 0.30406186
0.35016528 0.27083677 0.45703703 -0.115794666 0.08891284 0.02075929 -0.45674425 -0.10223424
-0.04275918 -0.11604384 0.13182235 -0.11497112 0.10578881 0.374975 -0.14824101 0.43548632
0.4182724 -0.12837476 -0.13477248 -0.35512555 -0.34423566 0.03837336 -0.005630324 -0.2372447
-0.27832025 -0.19938128 -0.2562715 0.46998242 -0.28134322 -0.373779 0.24266496 -0.22976975
0.40040305 0.3891894 0.4466281 -0.11898889 0.36411425 0.39844728 -0.21298377 0.4857188
0.40052527 0.04589125 0.24419504 -0.23101589 -0.361105 0.19932505 0.17891005 -0.33406428
0.31821203 -0.39472708 0.40408543 0.4614178 0.2682795 -0.33218634 0.31437823 -0.08229747
0.20845978 0.26670912 0.4123117 -0.07535762 -0.109593496 0.25794154 -0.12705185 0.40616012
-0.11856974 -0.2628865 0.23428482 -0.10526648 0.3593673 -0.057760164 -0.3408423 -0.18329522
-0.08181235 0.106455065 -0.12591827 -0.47885287 -0.10117261 -0.15424006 -0.11863088 0.45950425
-0.10917076 0.36161214 0.21507078 -0.31805933 -0.05482032 0.42142528 -0.25714573 -0.20053168
0.48466852 0.41569424 -0.26721016 0.35688093 -0.17820477 -0.4300121 0.040886227 0.3011343
-0.111533195 0.013556749 -0.30059424 0.40502736 0.4435468 0.3451154 0.14493825 0.11051034
00000000: 49bc b93e ca13 21be 20c8 883e ee0a e3bd
00000010: 8cbc ef3d 8ce2 91be b71e 673e 2e1c e0bd
00000020: 4807 e0bd 41b1 a6be 8a32 98bd 9817 f03e
00000030: 81c9 a53e 1186 50be 39bb 0ebe 07be 99bd
00000040: ec47 a9be 189c b43e 4553 6dbe 50cf 6a3e
00000050: 213f a6bd 934a 04be 7a98 4f3e 283d 313e
00000060: 031d 7f3e 233f 84be 4518 f13e 53a0 27be
00000070: f369 04be 4be1 55be 88a6 f03e cabf c3bd
00000080: 0b31 d8bd a4ff 4abe 499c 9dbd edfb febd
00000090: 60c4 afbe fdcb b13e 6c82 e33e 90a5 f23e
000000a0: 3971 1abe d183 bd3e f7d7 6ebe 41bd b23e
000000b0: cdb2 cf3e 2c3c cb3e c798 c13e bdc4 b93e
000000c0: ddbd 84bd 5600 a03e 968d 49be add1 b33e
000000d0: 0ea2 61be e8ac 27be 5637 8abe dfa3 91bd
000000e0: bd33 5bbe a8ee 2cbe 6ef0 22be 6543 a8be
000000f0: c9d9 24be a9e0 8a3e 75b2 f23e 49a2 ba3e
00000100: 4ba1 a7be e90d 9dbe bf65 703e a79b 953e
00000110: 9260 c0be fc54 1d3e 9e61 df3e e6ad d0bd
00000120: 1617 0abe 378b 9c3e ea6c 993e 46fe bf3e
00000130: 8b76 42be 4982 bf3e d4f8 0bbe ee88 ea3e
00000140: 885a 81be afed 953e 72fe 063e d097 4a3e
00000150: c4cb 3bbe f91c 993e b56e 94bd 8f75 8fbe
00000160: eb7e 00be 8244 df3e d03f a8bd 7614 ec3d
00000170: fb88 83be d7e0 d73e c381 ca3e f858 873e
00000180: 4251 7abe 2b5e 72be dffa 73bd e8b7 abbe
00000190: 2806 d43e c8ca 21be 6867 a43e eed0 ee3e
000001a0: 1ffd ae3e 08f6 863e 4313 bebe f726 f03e
000001b0: 21c9 40be a211 82be d2d5 f63e 7108 98be
000001c0: e644 5abe 9dcb eb3e 81bc 91be 278e d0be
000001d0: be9d 893d 26d1 863d bc4e 8b3e 818e c3be
000001e0: 390f 5c3e 8e1b 2bbe 0403 26be 6666 91be
000001f0: 018d ae3e e94d 443e 9985 93be 59e1 d53e
00000200: 8bba ad3d eac0 e23d efa5 6bbe 83a0 7a3d
00000210: 1aed f23e a67c bd3e 666e 53be fb4f ed3e
00000220: 26c7 09be 5e23 8f3e f475 d23e 7264 da3e
00000230: ef02 53be b1bc ea3e 6513 65be 8a25 4c3e
00000240: 5bcd a5be 378e 96be be9b 14be 2a92 94be
00000250: 0f15 adbd 2229 14be 178f fb3e ffad 9b3e
00000260: dd48 b33e 1eab 8a3e c200 ea3e c125 edbd
00000270: ef17 b63d 630f aa3c 62da e9be 2f60 d1bd
00000280: 4024 2fbd 65a8 edbd 70fc 063e fb75 ebbd
00000290: cea7 d83d b9fc bf3e 7ecc 17be 10f8 de3e
000002a0: cd27 d63e ac74 03be cc01 0abe 04d3 b5be
000002b0: a83f b0be 622d 1d3d 957e b8bb 46f0 72be
000002c0: fe7f 8ebe 9b2a 4cbe 0536 83be 89a1 f03e
000002d0: 380c 90be f65f bfbe 2a7d 783e c348 6bbe
000002e0: a101 cd3e d543 c73e 70ac e43e 72b0 f3bd
000002f0: 2f6d ba3e 4801 cc3e 6b18 5abe 22b0 f83e
00000300: a611 cd3e 77f8 3b3d 440e 7a3e 6e8f 6cbe
00000310: c1e2 b8be de1b 4c3e 3234 373e 790a abbe
00000320: b0ec a23e ab19 cabe 49e4 ce3e f43e ec3e
00000330: ee5b 893e 5414 aabe 2ff6 a03e 938b a8bd
00000340: 7b76 553e 198e 883e 851a d33e 1955 9abd
00000350: 8e72 e0bd ea10 843e e119 02be 38f4 cf3e
00000360: b1d4 f2bd 0f99 86be 5ce8 6f3e f495 d7bd
00000370: fefe b73e ec95 6cbd e282 aebe beb1 3bbe
00000380: 3c8d a7bd 1d05 da3d b8f0 00be 342c f5be
00000390: 9633 cfbd 1bf1 1dbe bff4 f2bd 2444 eb3e
000003a0: eb94 dfbd 3a25 b93e 843b 5c3e acd8 a2be
000003b0: 468b 60bd 0ec5 d73e 9ba8 83be 2d58 4dbe
000003c0: 7926 f83e e0d5 d43e c5cf 88be 19b9 b63e
000003d0: 507b 36be 8c2a dcbe 5178 273d 462e 9a3e
000003e0: 846b e4bd 201d 5e3c 7de7 99be bf5f cf3e
000003f0: 9118 e33e f7b2 b03e b16a 143e 3f53 e23d

net.2.weight f4 [256, 256]
-0.03433395 -0.01360977 -0.009461068 -0.021573877 -0.034925453 0.028667575 0.019239416 -0.03521014
0.008706726 0.020071965 0.032376822 0.015999652 0.028735315 -0.012692478 0.019079493 0.031535357
-0.03661067 -0.03716058 0.00012927239 0.01571999 -0.01926121 0.003074478 -0.007657779 0.002140878
-0.028585503 0.018635102 0.0189174 -0.031126084 0.00037557137 0.00010756629 0.0054538744 0.028029762
0.007742998 -0.011459082 0.03117257 -0.014752464 -0.011257117 -0.004087665 -0.036421224 -0.0029472278
-0.027619112 -0.0017098933 0.003714307 -0.0016246763 -0.04013242 -0.044016797 0.010718787 0.02620217
-0.0424623 0.008128211 -0.032095205 -0.0049491655 0.038661864 0.0249869 -0.0283454 0.01986115
0.020249221 -0.0040567466 0.037556883 -0.015397747 -0.016752973 -0.025573565 -0.0017647294 0.0029331741
6.933516e-05 -0.021812284 -0.024941333 0.006001566 -0.03399393 -0.013728125 -0.0076959026 -0.020221816
0.014108413 -0.0041568168 0.020150261 -0.0104909325 -0.024467926 0.021234198 0.005414002 -0.018093754
-0.026943013 0.0018855279 -0.04263942 0.003117631 0.011574737 -0.041565996 -0.025380835 -0.027871357
0.03515534 0.027052702 0.0029092156 0.028711122 -0.014807956 -0.0446846 0.0059744604 0.0085399235
0.03381354 -1.1221212e-05 0.021692859 0.023763679 0.021107586 -0.03847222 0.024562502 -0.040187612
0.027229084 -0.007026713 -0.031946372 0.0039068917 -0.01140121 -0.03482245 -0.020544248 0.0003324321
0.02212188 -0.018533053 0.021671182 0.0083883405 -0.0062845764 0.010497229 -0.030928787 -0.032224912
-0.016933082 -0.036127016 -0.018080022 0.0017835659 -0.033083662 -0.021041594 -0.004367112 -0.01171551
-0.028810002 -0.0034155587 -0.0054414775 0.006022901 -0.0053155697 -0.026527258 -0.013347471 -0.006998747
-0.028848983 -0.0027993168 -0.010076772 0.009041376 0.0053557954 0.022178868 -0.001278 -0.03651524
0.020445228 -0.030254832 -0.013499146 -0.01667415 -0.022823423 -0.019208206 0.028495941 0.01579458
0.0031626555 0.029106447 -0.040765855 -0.0018579946 0.020107448 0.018068159 -0.027211823 0.013797222
-0.026847009 -0.0015148182 -0.016288755 -0.036134616 -0.041785337 -0.031850602 0.017592473 0.011740548
-0.04016562 -0.014559132 0.00063325523 -0.029917683 0.018101351 0.035114583 0.0033373067 -0.036786463
0.009936051 0.016652288 0.026735662 -0.027242383 -0.03218163 0.018837677 -0.0049701687 -0.017515495
-0.02188767 -0.025850585 0.024435576 -0.0066890577 0.02078651 0.02841222 0.007946685 0.00089021184
-0.009463861 0.021541437 -0.041806463 0.011788851 -0.0063164327 0.0113042155 -0.007578662 -0.017864393
-0.010541382 0.02351512 -0.033311978 -0.031495884 -0.014796895 -0.016797364 0.00791687 0.02007675
-0.009407616 0.029248092 -0.023242166 -0.021755077 -0.025459616 -0.032659736 -0.032141555 -0.041285444
-0.0343604 0.005848371 0.01601633 0.03639864 0.026656479 -0.010125718 0.0075228354 -0.027234579
0.01498491 -0.044933412 0.011376478 0.009703224 0.003842851 0.006080673 -0.017799176 0.027069781
0.022486864 0.018640578 -0.0024572734 0.024346383 0.018323222 0.010420296 0.02542563 -0.0070316824
0.018619403 0.0017633628 0.023326863 0.031151364 0.004492162 -0.011859541 -0.009035693 0.005232164
0.006536683 -0.018254327 0.030375758 0.016471317 -0.031209901 -0.009155771 -0.0092802 -0.031606372
00000000: c2a1 0cbd 83fb 5ebc 9802 1bbc b3bb b0bc
00000010: fe0d 0fbd 43d8 ea3c fb9b 9d3c 8238 10bd
00000020: a8a6 0e3c f66d a43c 8f9d 043d b411 833c
00000030: 5366 eb3c 1cf4 4fbc 994c 9c3c 382b 013d
00000040: 12f5 15bd b135 18bd 4b8d 0739 35c7 803c
00000050: afc9 9dbc 2e7d 493b 1bee fabb f94d 0c3b
00000060: 252c eabc a4a8 983c aaf8 9a3c 21fc febc
00000070: 56e8 c439 3695 e138 6ab6 b23b ac9e e53c
00000080: fab8 fd3b e0be 3bbc 9e5d ff3c 52b4 71bc
00000090: c56f 38bc d2f1 85bb 6c2e 15bd 4726 41bb
000000a0: 7a41 e2bc 801e e0ba bb6b 733b 17f3 d4ba
000000b0: e461 24bd f54a 34bd da9d 2f3c efa5 d63c
000000c0: f3ec 2dbd 302c 053c 4376 03bd 9c2c a2bb
000000d0: e75b 1e3d 54b1 cc3c 9d34 e8bc dab3 a23c
000000e0: b2e1 a53c 75ee 84bb 3fd5 193d d546 7cbc
000000f0: 883d 89bc a77f d1bc 7e4e e7ba 7f3a 403b
00000100: 0868 9138 adaf b2bc c451 ccbc c9a8 c43b
00000110: 383d 0bbd eeeb 60bc e92d fcbb 39a8 a5bc
00000120: f926 673c e835 88bb 2912 a53c 29e2 2bbc
00000130: f670 c8bc 57f3 ad3c f167 b13b 5a39 94bc
00000140: 98b7 dcbc d123 f73a aca6 2ebd 2b51 4c3b
00000150: f7a3 3d3c 1b41 2abd 78eb cfbc 7952 e4bc
00000160: 0cff 0f3d a19d dd3c 8aa8 3e3b 9633 eb3c
00000170: 129d 72bc 3307 37bd 68c5 c33b 09eb 0b3c
00000180: 1180 0a3d bd42 3cb7 39b5 b13c 0cac c23c
00000190: d1e9 ac3c 0c95 1dbd 4d37 c93c c49b 24bd
000001a0: 870f df3c 5740 e6bb 33da 02bd 6205 803b
000001b0: 24cc 3abc fca1 0ebd 694c a8bc 484a ae39
000001c0: f238 b53c a1d2 97bc c387 b13c 406f 093c
000001d0: d9ee cdbb 92fc 2b3c 5e5e fdbc 45fe 03bd
000001e0: 3fb7 8abc ecf9 13bd 8e1c 94bc 8ac6 e93a
000001f0: bc82 07bd 6c5f acbc fe19 8fbb 69f2 3fbc
00000200: f402 ecbc 91d7 5fbb 6c4e b2bb c15b c53b
00000210: 3b2e aebb b14f d9bc 5aaf 5abc bf55 e5bb
00000220: b454 ecbc be74 37bb 0c19 25bc 4822 143c
00000230: ab7f af3b 75b0 b53c 9082 a7ba 0191 15bd
00000240: c07c a73c fbd8 f7bc 862b 5dbc 3a98 88bc
00000250: 30f8 babc 875a 9dbc 5270 e93c a363 813c
00000260: 8e44 4f3b a570 ee3c 19fa 26bd f487 f3ba
00000270: 60b8 a43c ad03 943c 54eb debc be0d 623c
00000280: 42ee dbbc dd8c c6ba ff6f 85bc e401 14bd
00000290: 1a27 2bbd c775 02bd 171e 903c 6d5b 403c
000002a0: b584 24bd 6d89 6ebc 0a01 263a ee15 f5bc
000002b0: 4949 943c 4fd4 0f3d b7b6 5a3b 67ad 16bd
000002c0: d2ca 223c 616a 883c bf04 db3c 6b2b dfbc
000002d0: e3d0 03bd 7951 9a3c ccdc a2bb a87c 8fbc
000002e0: c54d b3bc 9bc4 d3bc 1e2d c83c e22f dbbb
000002f0: 7948 aa3c bec0 e83c d032 023c 1b5d 693a
00000300: 4f0e 1bbc ab77 b03c 413d 2bbd 0626 413c
00000310: 14fa cebb 5135 393c 6d56 f8bb 5958 92bc
00000320: c3b5 2cbc c8a2 c03c 2472 08bd d401 01bd
00000330: ad6e 72bc a09a 89bc c2b5 013c ff77 a43c
00000340: 6722 1abc b299 ef3c 5b66 bebc b437 b2bc
00000350: af90 d0bc 37c6 05bd dda6 03bd ed1a 29bd
00000360: 7ebd 0cbd b1a3 bf3b ae34 833c be16 153d
00000370: b05e da3c 57e6 25bc 1e82 f63b 0d1b dfbc
00000380: 4583 753c 190c 38bd 6864 3a3c 45fa 1e3c
00000390: 57d8 7b3b 6240 c73b 94cf 91bc 72c1 dd3c
000003a0: 5f36 b83c 20b4 983c 350a 21bb 1172 c73c
000003b0: 951a 963c e4b9 2a3c 6949 d03c 076a e6bb
000003c0: b887 983c a320 e73a fa17 bf3c 2531 ff3c
000003d0: fc32 933b 854e 42bc 710a 14bc 9372 ab3b
000003e0: ac31 d63b 198a 95bc 95d6 f83c dbee 863c
000003f0: e8ab ffbc 1602 16bc fb0b 18bc af75 01bd

net.2.bias f4 [256]
0.011209599 0.026090069 -0.027211988 -0.04518037 -0.032962494 0.091383964 0.11803355 -0.005709351
0.020964442 0.029564807 0.1345382 0.024768963 -0.0057227258 0.15259744 0.11538967 -0.027785754
0.17957422 0.12064238 -0.017618077 -0.041830618 0.16415963 0.12618394 -0.017982166 -0.041774493
0.20546268 0.075242855 0.11336909 0.01823355 0.014725702 -0.02200265 -0.014368533 -0.012643343
-0.0032895743 0.14236507 0.15400879 -0.025723265 -0.03340471 0.015525781 0.1896918 -0.040503822
-0.0048726676 0.16674039 0.11019541 0.17649129 -0.0021099749 0.16867699 0.15861861 0.16365612
0.00646106 0.14111492 0.12664329 0.025738599 0.0075197583 -0.036783554 0.1254674 0.026821593
0.17842083 0.10319365 -0.029255792 0.0027714493 -0.035887383 0.14513256 0.12042903 0.030513594
0.10616672 0.014316057 0.00080255285 0.17949732 0.0062217764 0.12610804 0.13116609 -0.048580416
-0.0051569208 0.017035041 0.009176882 0.00683693 0.123142935 0.06518134 0.196133 0.10823581
-0.027976591 0.19286317 0.114806145 -0.014018511 0.11551247 0.033889566 -0.022908958 -0.023704886
-0.037324443 0.109459326 -0.005556229 -0.035597652 -0.02123135 0.20400569 0.14959362 0.0029108953
-0.02689141 0.18257697 -0.0016276815 0.0038779061 0.010245812 -0.025871074 -0.020376664 0.11922169
0.03033206 0.016155388 -0.009078014 0.13160288 0.13510327 0.006582602 -0.10001285 0.1671259
-0.04691996 -0.056763224 0.004819601 0.17975456 0.123477384 0.0040308307 -0.0415289 0.0134941265
0.030051606 0.17523304 0.118233375 -0.0038655242 0.010629529 -0.015883505 0.15938933 0.03219002
0.12832941 -0.03408071 0.17150022 -0.030492956 -0.0029732839 0.2008485 0.13587609 -0.03170033
0.018473148 -0.034733128 0.16376553 0.086839385 0.027870791 -0.012825523 0.1685141 0.16536348
0.09065593 0.0016908454 0.083972685 -0.040765196 0.1776146 0.1369424 -0.03576702 0.14467013
-0.016299581 0.1330345 0.12854373 -0.023144143 -0.0063958024 -0.017180594 0.12537843 0.031628374
-0.010726022 0.028745841 0.13838676 0.017032014 0.07454441 -0.013481649 0.1679474 0.17637673
-0.00047837626 0.11910185 0.14721368 0.13016875 -0.040234618 -0.030920357 0.0061289556 0.13861951
0.005999375 0.025664361 0.016227925 -0.032445554 0.1509689 0.0120103145 0.012987386 0.18309537
0.1471723 -0.040316127 -0.030839942 0.11887425 -0.039876074 0.1560828 0.112420574 0.11250181
0.14831509 0.01394276 0.023812778 0.16565096 0.0023793387 0.0037161834 0.031743307 -0.014807421
-0.026374906 0.012156219 -0.0023318988 0.13529879 -0.042895146 -0.026560208 0.0044060564 0.10355461
0.00918267 0.02156233 -0.042888295 0.031270634 -0.012121681 0.022050813 -0.01023819 0.028219229
0.17195119 0.17838876 -0.02666105 0.049879633 0.17565899 -0.029803272 0.10669854 0.17630734
0.12144953 -0.018310035 0.030923784 0.10285746 -0.0063965623 0.009816678 0.13763951 -0.036309406
0.09822826 0.028021388 -0.083446674 -0.034346633 0.08587112 -0.041139007 0.14110476 -0.0042802976
-0.047038075 0.1488507 -0.0186768 -0.00935719 0.013303306 -0.04361982 0.1317266 0.15405883
0.16244501 -0.012019465 0.102537096 0.20124832 -0.028528405 0.021706076 -0.018122358 0.009798791
00000000: 77a8 373c d7ba d53c adeb debc 0d0f 39bd
00000010: ae03 07bd 8427 bb3d 93bb f13d 8215 bbbb
00000020: 9fbd ab3c e531 f23c 62c4 093e 48e8 ca3c
00000030: b485 bbbb 8142 1c3e 6b51 ec3d f39e e3bc
00000040: 4ee2 373e 5a13 f73d c953 90bc 9556 2bbd
00000050: 7619 283e 5d36 013e 564f 93bc bb1b 2bbd
00000060: cf64 523e ed18 9a3d 0e2e e83d 875e 953c
00000070: 1244 713c e73e b4bc ff69 6bbc 0626 4fbc
00000080: e695 57bb 26c8 113e 7bb4 1d3e 99b9 d2bc
00000090: 61d3 08bd d85f 7e3c 913e 423e 56e7 25bd
000000a0: e6aa 9fbb febd 2a3e 22ae e13d 22ba 343e
000000b0: 8147 0abb a9b9 2c3e eb6c 223e 7895 273e
000000c0: 4db7 d33b 6e80 103e c7ae 013e c1d9 d23c
000000d0: 4e68 f63b 5aaa 16bd 877a 003e f5b8 db3c
000000e0: f3b3 363e 3157 d33d d8a9 efbc 34a1 353b
000000f0: a6fe 12bd a19d 143e 7fa3 f63d a5f7 f93c
00000100: f06d d93d e58d 6a3c 6962 523a 25ce 373e
00000110: 0be0 cb3b 7722 013e 6750 063e 42fc 46bd
00000120: 63fb a8bb 128d 8b3c a25a 163c 5308 e03b
00000130: 5d32 fc3d cb7d 853d 17d7 483e bdaa dd3d
00000140: 2a2f e5bc ec7d 453e 7c1f eb3d e6ad 65bc
00000150: cd91 ec3d c9cf 0a3d 91ab bbbc c030 c2bc
00000160: 84e1 18bd 362c e03d 0711 b6bb d8ce 11bd
00000170: 5eed adbc dee6 503e 122f 193e b8c4 3e3b
00000180: 604b dcbc 75f5 3a3e ee57 d5ba 7824 7e3b
00000190: 0dde 273c 93ef d3bc f6ec a6bc 802a f43d
000001a0: f17a f83c 4e58 843c f3bb 14bc e8c2 063e
000001b0: 8358 0a3e deb2 d73b 89d3 ccbd 0d23 2b3e
000001c0: 252f 40bd 8e80 68bd beed 9d3b 9411 383e
000001d0: b6e1 fc3d 0f15 843b 351a 2abd 7816 5d3c
000001e0: c92e f63c 4a70 333e 5724 f23d bc54 7dbb
000001f0: 7a27 2e3c 201e 82bc f536 233e afd9 033d
00000200: c968 033e 3798 0bbd c19d 2f3e 5dcc f9bc
00000210: 6ddb 42bb 3bab 4d3e 1a23 0b3e 35d8 01bd
00000220: 0055 973c 5344 0ebd 27b2 273e d9d8 b13d
00000230: 4951 e43c 2422 52bc f68e 2c3e 0b55 293e
00000240: d1a9 b93d 5b9f dd3a dff9 ab3d 68f9 26bd
00000250: 9ae0 353e a13a 0c3e 7080 12bd 6824 143e
00000260: b386 85bc 323a 083e f8a0 033e c998 bdbc
00000270: e193 d1bb 51be 8cbc 3463 003e c18c 013d
00000280: 32bc 2fbc 667c eb3c 42b5 0d3e b986 8b3c
00000290: bdaa 983d 22e2 5cbc 67fa 2b3e 1a9c 343e
000002a0: 93ce fab9 aceb f33d 2fbf 163e f54a 053e
000002b0: 0ecd 24bd b04c fdbc 68d5 c83b 46f2 0d3e
000002c0: 6896 c43b 113e d23c 6df0 843c a1e5 04bd
000002d0: 9797 1a3e e9c6 443c 0cc9 543c 5a7d 3b3e
000002e0: 56b4 163e 8622 25bd 0ca4 fcbc 5874 f33d
000002f0: 1855 23bd 2bd4 1f3e c23c e63d 5967 e63d
00000300: e9df 173e 2d70 643c 0413 c33c 68a0 293e
00000310: aeee 1b3b 368b 733b 4505 023d d39a 72bc
00000320: 3010 d8bc e12a 473c c5d2 18bb c48b 0a3e
00000330: d2b2 2fbd cb94 d9bc ae60 903b 7014 d43d
00000340: e972 163c 7ca3 b03c a3ab 2fbd a315 003d
00000350: 049a 46bc e8a3 b43c 15be 27bc 032c e73c
00000360: f913 303e 8bab 363e 4668 dabc 964e 4c3d
00000370: f3df 333e fe25 f4bc c484 da3d e989 343e
00000380: 88ba f83d edfe 95bc e053 fd3c efa6 d23d
00000390: 419a d1bb 22d6 203c 5ff1 0c3e 2cb9 14bd
000003a0: e62b c93d 1c8d e53c 17e6 aabd 0eaf 0cbd
000003b0: 33dd af3d 6081 28bd c47d 103e bd41 8cbb
000003c0: ffaa 40bd 516c 183e 1700 99bc e64e 19bc
000003d0: 1cf6 593c b2aa 32bd 56e3 063e 99c1 1d3e
000003e0: fc57 263e 4aed 44bc f8fe d13d 0a14 4e3e
000003f0: 67b4 e9bc f1d0 b13c 5775 94bc 1c8b 203c

net.4.weight f4 [2, 256]
0.015923193 -0.0022215128 0.01654577 -0.0025582947 0.015183927 0.07103894 0.23994268 0.0009474324
-0.4783218 -0.010500601 0.13924529 -0.025860444 -0.03411458 0.24538668 0.15694425 -0.024745127
0.12942576 0.28867275 0.02888004 0.0056537464 0.2971244 0.25576437 -0.0004650742 0.019688433
0.30539387 0.203944 0.2521715 -0.01776102 0.012713102 -0.015670648 0.026629962 0.017391251
-0.12227182 0.293809 0.23778991 0.0037630373 -0.0102112815 -0.013255338 0.25124964 -0.007934507
0.028557869 0.23698579 0.18997036 0.2781229 0.011667564 0.19527125 0.21018253 0.30421847
0.0062225442 0.21445419 0.12887186 0.0011516346 -0.010300181 -0.022469396 0.2942904 -0.01698826
0.26748177 0.26786375 -0.028239312 -0.010203298 0.0066392045 0.097423784 0.23234995 0.036504596
0.22330609 -0.022286994 -0.03060816 0.28138548 -0.014612079 0.29986554 0.20113353 -0.0112077
-0.0009425009 0.011900912 0.024433631 0.09329542 0.24119605 0.25039238 0.26032406 0.004987096
0.029864023 0.28019032 0.2898951 -0.03436596 0.21761456 -0.005945233 0.023714945 0.031177016
0.017388757 0.22229691 0.003565132 -0.03809912 0.016655268 0.13386233 0.24552526 -0.017972723
-0.033444025 0.23670605 -0.025611296 0.017675808 0.013777808 -0.032778814 0.036357544 0.2199618
-0.019725958 0.0035526955 0.005531127 0.24109358 0.22140138 0.0045590675 0.25414497 0.2785054
-0.85231537 -1.0961084 -0.012021176 0.29915205 0.28675276 -0.08401744 -0.025526214 -0.0039338223
-0.016719628 0.2322637 -0.02204814 0.0023728637 -0.035285346 -0.019583208 0.28197536 -0.018777708
0.114135884 0.02406869 0.20456453 0.021554025 0.013577969 0.28707495 0.21574907 -0.028138401
-0.030397952 -0.0270559 0.30081293 0.23213993 0.014378551 0.029678334 0.29335982 0.20880555
0.02904071 0.0030715298 0.21632068 0.016194263 0.25691074 0.2190863 -0.029560415 0.110440664
-0.058115683 0.24914522 0.2117413 -0.027683057 0.011175748 0.017051086 0.22022244 -0.02685157
-0.009154272 0.028233653 0.3022123 0.005577119 0.28026712 -0.034498062 0.14109975 0.2640803
0.028995369 0.24216573 0.2007923 0.23239666 0.021906761 0.0057322853 0.035565432 0.18217777
-0.019603837 0.010187002 -0.028137568 0.015350441 0.16389872 -0.022258822 -0.030187452 0.20406398
0.2930944 -0.024490971 -0.0031779278 0.2661157 0.0041084453 0.23370783 0.1854185 0.21059825
0.2698912 0.037392244 0.0017493652 0.29335555 -0.028181667 -0.2001767 -0.031996064 0.021987177
0.020997215 -0.010849056 0.00869648 0.10576686 0.010368559 -0.023045434 -0.019757392 0.24573983
0.013191218 0.0014561287 -0.015174224 -0.018930139 -0.027833214 -0.021067906 0.032736156 -0.016291076
0.24808443 0.16985223 0.04238645 0.20047213 0.25816718 0.021861285 0.22228312 0.28691447
0.2727206 -0.021435931 -0.011026579 0.2131278 0.01824466 -0.026598658 0.29720378 -0.008890134
0.28615984 -0.018193912 0.12674096 0.027030312 0.26167834 0.004624757 0.21190417 -0.0021633457
-0.024043433 0.20962194 0.0052302144 -0.029406194 -0.036461834 -0.025000196 0.21790586 0.24065948
0.2697109 0.019407555 0.08406706 0.28291237 -0.03328079 0.0072082616 -0.03143053 -0.0300387
00000000: 5b71 823c cd96 11bb ff8a 873c 10a9 27bb
00000010: 01c6 783c dd7c 913d 89b3 753e 1d5d 783a
00000020: 98e6 f4be b60a 2cbc 5196 0e3e 48d9 d3bc
00000030: bbbb 0bbd a546 7b3e feb5 203e 4bb6 cabc
00000040: 3088 043e eacc 933e d595 ec3c 1043 b93b
00000050: b020 983e 8cf3 823e 34d5 f3b9 a349 a13c
00000060: 965c 9c3e b2d6 503e 9f1c 813e 8f7f 91bc
00000070: 9d4a 503c bb5f 80bc 1427 da3c 1978 8e3c
00000080: a669 fabd 226e 963e 337f 733e 4a9d 763b
00000090: 384d 27bc eb2c 59bc cba3 803e bcff 01bc
000000a0: 31f2 e93c 67ac 723e 9787 423e 2066 8e3e
000000b0: 4f29 3f3c 30f5 473e 173a 573e 86c2 9b3e
000000c0: 7ce6 cb3b e199 5b3e fcf6 033e 72f2 963a
000000d0: 17c2 28bc bd11 b8bc 3bad 963e f72a 8bbc
000000e0: 5ff3 883e 7025 893e 2156 e7bc bc2b 27bc
000000f0: af8d d93b 1f86 c73d 25ed 6d3e d885 153d
00000100: 5aaa 643e 3793 b6bc f7bd fabc c211 903e
00000110: 8067 6fbc fa87 993e f3f5 4d3e 80a0 37bc
00000120: 2a12 77ba 0bfc 423c 0a29 c83c ab11 bf3d
00000130: 19fc 763e 6e33 803e 3249 853e cb6a a33b
00000140: 65a5 f43c 1b75 8f3e 216d 943e 52c3 0cbd
00000150: 5ad6 5e3e 3bd0 c2bb d845 c23c f166 ff3c
00000160: de72 8e3c cda1 633e fda4 693b d30d 1cbd
00000170: a170 883c 3513 093e f96a 7b3e 883b 93bc
00000180: 9afc 08bd 1263 723e c8ce d1bc dbcc 903c
00000190: 51bc 613c 1443 06bd a6eb 143d ab3d 613e
000001a0: 5598 a1bc 57d4 683b 753e b53b 3ce1 763e
000001b0: 0bb7 623e 3b64 953b 4a1f 823e 4398 8e3e
000001c0: 5731 5abf 484d 8cbf 77f4 44bc 752a 993e
000001d0: 42d1 923e 5611 acbd 5a1c d1bc 4be7 80bb
000001e0: 9af7 88bc 89d6 6d3e 4d9e b4bc 0c82 1b3b
000001f0: 5e87 10bd f76c a0bc 135f 903e b5d3 99bc
00000200: 13c0 e93d b42b c53c 5d79 513e 1192 b03c
00000210: 2176 5e3c 7dfb 923e 53ed 5c3e 8182 e6bc
00000220: 2005 f9bc 56a4 ddbc 2704 9a3e 17b6 6d3e
00000230: 0494 6b3c fa1f f33c 4233 963e 1fd1 553e
00000240: c8e6 ed3c b84b 493b 2b83 5d3e d5a9 843c
00000250: ce89 833e 2958 603e af28 f2bc b72e e23d
00000260: b60a 6ebd ed1f 7f3e b6d2 583e 94c7 e2bc
00000270: 7c1a 373c b8ae 8b3c fe81 613e d3f7 dbbc
00000280: cdfb 15bc 434a e73c 92bb 9a3e 44c0 b63b
00000290: 2c7f 8f3e d74d 0dbd 747c 103e 8835 873e
000002a0: b287 ed3c 4bfa 773e 7f9c 4d3e 64f9 6d3e
000002b0: cf75 b33c e5d5 bb3b 0fad 113d cf8c 3a3e
000002c0: 3a98 a0bc 62e7 263c c280 e6bc 6b80 7b3c
000002d0: 11d5 273e 2258 b6bc ad4b f7bc 26f6 503e
000002e0: 7810 963e 4aa1 c8bc c844 50bb 5140 883e
000002f0: 23a0 863b 1b51 6f3e 59de 3d3e 11a7 573e
00000300: 2e2f 8a3e 9c28 193d f54a e53a b332 963e
00000310: 3ddd e6bc 1ffb 4cbe 4e0e 03bd 741e b43c
00000320: 5a02 ac3c 3dc0 31bc ae7b 0e3c 4c9c d83d
00000330: e3e0 293c c7c9 bcbc 41da a1bc 39a3 7b3e
00000340: fa1f 583c 92db be3a 4f9d 78bc 6113 9bbc
00000350: 7b02 e4bc 9a96 acbc 5916 063d dd74 85bc
00000360: d809 7e3e beed 2d3e 6a9d 2d3d 9148 4d3e
00000370: 7d2e 843e 7016 b33c 309e 633e 74e6 923e
00000380: 09a2 8b3e 689a afbc d3a8 34bc 2d3e 5a3e
00000390: d375 953c 6ee5 d9bc 182b 983e eda7 11bc
000003a0: 8b83 923e 660b 95bc 62c8 013e ac6e dd3c
000003b0: b4fa 853e 468b 973b 68fd 583e ebc6 0dbb
000003c0: bcf6 c4bc 22a7 563e 3862 ab3b 42e5 f0bc
000003d0: 0159 15bd 36cd ccbc b722 5f3e 706f 763e
000003e0: 8c17 8a3e 98fc 9e3c 5a2b ac3d e4d9 903e
000003f0: 7051 08bd 4833 ec3b 4dbd 00bd b813 f6bc

net.4.bias f4 [2]
0.108355 0.14162518
00000000: 3ae9 dd3d 3106 113e
