wandb/run-20251114_055418-lagvi8qd/files/models/DDQNAgent/Acrobot-v1.pth (torch, 276537 bytes, 6 tensors)

net.0.weight f4 [256, 6]
0.5360548 0.3606401 -0.22490874 0.24781492 -0.1001264 0.050398696 -0.11870654 0.11618639
0.41364852 -0.37220523 0.4150343 0.10703007 0.12710041 -0.3371806 0.52984744 0.057810493
0.275802 0.023962304 -0.21860561 0.087843336 -0.3044467 -0.028623395 -0.12460509 0.25674662
-0.3181357 -0.09978432 -0.065355375 -0.30634025 -0.018864246 -0.35819533 0.4141851 -0.26079443
0.33898774 -0.1720415 0.069493264 0.16043952 0.24779905 0.29908156 0.0053123306 -0.18156062
-0.036268875 -0.061300606 0.27480415 0.22647132 0.19933474 -0.16170391 0.19972797 0.14121868
0.19171196 0.39483136 -0.7973371 -0.37216836 -0.15047047 0.19530426 0.21847007 -0.0006577921
0.14423285 0.12568857 0.091682315 -0.14591643 0.060652893 -0.36330956 0.17642073 -0.052210446
0.023696993 -0.11327378 0.55754507 -0.2609801 -0.3480282 -0.1955906 0.25679666 -0.0166359
0.42152232 -0.2425339 -0.19508496 -0.6705545 -0.20905429 0.16451994 -0.13597685 0.38020378
-0.28000164 0.063985676 0.21095194 -0.11359977 0.25528035 -0.5574073 0.49380043 -0.7787303
-0.116146155 0.060081616 0.38662514 -0.30170074 0.3084169 0.423045 -0.12204112 -0.13386984
0.53881484 0.1343279 -0.23022369 -0.24974827 -0.051884178 0.058825247 0.28364766 -0.21494423
0.09425295 -0.110513404 -0.3299404 -0.10019183 -0.17512412 -0.5222061 0.52269125 0.23266412
-0.048254278 -0.23549955 -0.35849577 -0.41852602 0.33540604 -0.102750555 -0.18832253 -0.2351151
-0.25641662 -0.2385569 -0.06467109 -0.18283819 -0.29860112 -0.25850776 -0.53977585 -0.46599662
0.05136816 0.38944358 0.16862154 0.0901387 -0.34811708 -0.096048646 -0.17020163 0.023919728
-0.24217738 -0.31975114 -0.11909939 -0.51132596 0.38916615 -0.22100821 0.11155319 -0.18559854
0.03050103 -0.035467327 0.2396494 0.8675629 0.17235906 -0.1562201 0.070840746 -0.31098828
0.003739149 -0.30053008 0.29259872 -0.14723977 0.39230323 0.08435982 0.103914514 -0.23279919
0.2713014 0.09130884 0.10920238 -0.45655724 0.44095606 -0.45642206 0.029656306 0.2416232
0.057965126 -0.39337128 -0.78689706 -0.19408512 0.22567146 -0.1542384 -0.39853075 -0.02110583
-0.36920014 0.2963219 0.21867451 -0.27756017 0.1162079 0.43113592 0.41081306 -0.426365
0.09277863 0.14499441 0.28957492 -0.15415724 0.07867578 0.03571816 -0.07874462 -0.0877091
0.35678023 0.29602376 -0.025486084 -0.25316676 -0.07462229 -0.05887321 0.006081516 0.29629543
-0.7645983 -0.21882167 0.08799261 0.091865234 -0.11374007 0.5103125 -0.753412 -0.49492353
-0.009871629 0.22050084 0.31815815 0.41043007 -0.55301344 -0.5514974 -0.17045292 0.18099967
0.1581677 0.047610823 0.0488564 -0.54248995 -0.17942615 0.15121539 -0.66725737 0.031135753
-0.56875694 0.32374182 0.16494863 0.13824506 -0.27030313 -0.49562722 -0.3732829 0.29164922
0.3455905 0.24534671 0.22651371 0.61373353 0.13397956 -0.42579818 -0.2655651 -0.2509995
0.114099674 -0.40215033 -0.025665639 -0.09221746 -0.14615548 -0.2461533 -0.3851406 0.18993133
-0.25341746 0.4374098 -0.0045116683 -0.20793357 -0.23545603 -0.84670573 -0.6623726 -0.2655182
00000000: e33a 093f d2a5 b83e 7a4e 66be 32c3 7d3e
00000010: 120f cdbd dd6e 4e3d 6a1c f3bd 21f3 ed3d
00000020: bdc9 d33e af91 bebe 607f d43e 9532 db3d
00000030: 9c26 023e f0a2 acbe 15a4 073f b2ca 6c3d
00000040: eb35 8d3e 984c c43c 26da 5fbe 35e7 b33d
00000050: 70e0 9bbe 9c7b eabc f430 ffbd 4b74 833e
00000060: afe2 a2be b95b ccbd 0ad9 85bd a1d8 9cbe
00000070: 3189 9abc 6165 b7be 1210 d43e d986 85be
00000080: cd8f ad3e a62b 30be 7c52 8e3d 424a 243e
00000090: 09bf 7d3e 3821 993e 0f13 ae3b 07eb 39be
000000a0: ac8e 14bd 5816 7bbd 21b3 8c3e 19e8 673e
000000b0: 681e 4c3e b695 25be 7d85 4c3e a19b 103e
000000c0: 2450 443e 5627 ca3e 491e 4cbf da8c bebe
000000d0: ee14 1abe d7fd 473e 9eb6 5f3e ae6f 2cba
000000e0: c7b1 133e 81b4 003e f0c3 bb3d 1e6b 15be
000000f0: 2b6f 783d b603 babe a3a7 343e 9fda 55bd
00000100: 3220 c23c 15fc e7bd 46bb 0e3f 2f9f 85be
00000110: c130 b2be e748 48be da7a 833e 0348 88bc
00000120: c6d1 d73e cf5a 78be 5ac4 47be 76a9 2bbf
00000130: 5412 56be ea77 283e 843d 0bbe 12aa c23e
00000140: 605c 8fbe ec0a 833d c903 583e ffa6 e8bd
00000150: 1bb4 823e 3fb2 0ebf 69d3 fc3e de5a 47bf
00000160: 09de edbd 2418 763d bbf3 c53e 8578 9abe
00000170: d2e8 9d3e 5b99 d83e b2f0 f9bd 2d15 09be
00000180: c5ef 093f 418d 093e c2bf 6bbe 03be 7fbe
00000190: 8184 54bd bef2 703d 443a 913e 571a 5cbe
000001a0: b107 c13d da54 e2bd f3ed a8be 6031 cdbd
000001b0: bd53 33be 4daf 05bf 18cf 053f 813f 6e3e
000001c0: 47a6 45bd cb26 71be c28c b7be 0b49 d6be
000001d0: 57ba ab3e e26e d2bd 9fd7 40be 03c2 70be
000001e0: 0a49 83be 4348 74be 4772 84bd ef39 3bbe
000001f0: 3fe2 98be 215b 84be c02e 0abf 1c97 eebe
00000200: 6b67 523d 2665 c73e 20ab 2c3e a49a b83d
00000210: 673c b2be 27b5 c4bd 5649 2ebe 4ef3 c33c
00000220: 59fd 77be 6cb6 a3be 62ea f3bd 42e6 02bf
00000230: c940 c73e fa4f 62be 0076 e43d 8b0d 3ebe
00000240: 4cdd f93c 3046 11bd a766 753e 9a18 5e3f
00000250: e57e 303e 29f8 1fbe f414 913d db39 9fbe
00000260: 830c 753b 14df 99be 80cf 953e 06c6 16be
00000270: f8db c83e d7c4 ac3d 22d1 d43d e962 6ebe
00000280: 04e8 8a3e 2100 bb3d 7fa5 df3d dfc1 e9be
00000290: fec4 e13e 27b0 e9be c8f1 f23c 126c 773e
000002a0: d76c 6d3d f667 c9be 1672 49bf 40be 46be
000002b0: 6b16 673e acf0 1dbe 390c ccbe 22e6 acbc
000002c0: cd07 bdbe 81b7 973e 36ec 5f3e 5e1c 8ebe
000002d0: 68fe ed3d d9bd dc3e 1756 d23e 834c dabe
000002e0: b902 be3d 6a79 143e 2a43 943e 65db 1dbe
000002f0: c420 a13d 354d 123d dc44 a1bd d4a0 b3bd
00000300: e6ab b63e 6d90 973e 31c8 d0bc 139f 81be
00000310: 92d3 98bd 0925 71bd 7447 c73b 09b4 973e
00000320: b7bc 43bf ca12 60be 7835 b43d d723 bc3d
00000330: 8ef0 e8bd d7a3 023f 9cdf 40bf 9e66 fdbe
00000340: 9dbc 21bc f9ca 613e a0e5 a23e e423 d23e
00000350: 4a92 0dbf ef2e 0dbf 368b 2ebe fa57 393e
00000360: b7f6 213e 9103 433d a61d 483d 9fe0 0abf
00000370: 7dbb 37be 35d8 1a3e 61d1 2abf 6810 ff3c
00000380: 0e9a 11bf 7dc1 a53e 4be8 283e 1d90 0d3e
00000390: 2c65 8abe dac2 fdbe f01e bfbe 0c53 953e
000003a0: 3df1 b03e 2b3c 7b3e 36f3 673e a41d 1d3f
000003b0: f031 093e 3802 dabe 26f8 87be 0283 80be
000003c0: 17ad e93d a6e6 cdbe bf40 d2bc 82dc bcbd
000003d0: c8a9 15be 9c0f 7cbe 2631 c5be 5c7d 423e
000003e0: efbf 81be 2df4 df3e 9ed6 93bb 8aec 54be
000003f0: 631b 71be b5c1 58bf 4091 29bf 00f2 87be

net.0.bias f4 [256]
0.1942096 -0.31380934 -0.17521375 -0.19675614 -0.17992535 0.53769946 0.28618455 0.49825445
-0.07591033 0.1844085 0.18367136 0.15262377 -0.42102385 -0.36799216 0.13434394 0.25378075
0.39052308 0.39578348 0.38900274 0.17436633 -0.2339285 -0.44102147 -0.5463186 -0.3647925
0.2290093 0.24881968 0.53725886 -0.12112754 -0.3143304 -0.37612632 0.23153053 0.2974499
0.16996503 0.0035419294 -0.14051856 0.1536091 -0.19376068 -0.1880691 0.31247497 -0.10657436
-0.22422414 0.14710252 -0.18190399 -0.22314192 -0.28354058 0.101314254 -0.3515576 -0.32543913
0.24937744 0.42569003 -0.114292376 0.15460722 0.2217443 0.37131432 -0.14694506 0.24978864
0.13410415 -0.4781577 0.04458972 -0.26458713 -0.13661648 -0.20889604 -0.17567135 0.37239414
-0.505156 0.2720764 -0.50551087 -0.06279107 -0.17603467 0.43587095 -0.14760448 0.26386207
0.13897306 0.33737925 0.05269587 0.3535479 -0.22228566 -0.36820713 0.45843557 -0.3007207
-0.40322277 0.08959147 0.43867 -0.22284654 -0.03632621 -0.16948767 0.29235822 0.32429704
0.35021093 -0.33663225 0.10897694 -0.36648208 0.059381288 0.17404027 0.080668345 -0.35477147
-0.28501782 0.24296252 -0.33513927 -0.1704838 -0.40260243 0.060169857 0.34108287 0.31247595
-0.048624903 0.19200604 -0.27962664 0.22566402 0.052213684 -0.33005032 0.4108992 -0.19567893
0.16773467 -0.5822817 0.10538424 0.011935837 0.18453929 0.010787764 0.1254374 -0.12998275
0.36962736 -0.49977648 0.46196607 -0.09302412 -0.26971507 -0.31840372 0.42922062 -0.16975859
-0.19168518 -0.12480226 -0.46388265 0.40622804 0.113889635 -0.19180949 -0.26302317 0.18103872
-0.16428994 -0.034255784 0.34813696 0.22006051 0.1581239 -0.46180514 0.47035697 -0.21919031
-0.23529701 0.026019271 0.4694868 0.35822818 -0.1686194 0.26893562 -0.14224125 -0.1745743
-0.1829476 -0.3534764 -0.023235701 -0.09465071 0.32839411 0.4116272 -0.13158007 -0.22163145
-0.053099845 0.2799009 0.049719874 0.12861925 -0.3815955 0.11314639 0.43706825 -0.13100512
0.27846825 -0.04944446 0.03986274 -0.061031245 0.10892629 0.4100752 0.3394736 0.5477851
-0.1260439 0.3177384 0.48217955 -0.32806367 0.009481864 -0.008021785 0.36353418 -0.6233792
0.1347498 0.23884863 -0.41059992 -0.30138674 -0.47505316 0.48894867 0.40172294 -0.41224584
-0.118985824 -0.5391513 -0.17967863 0.60344183 0.39952135 0.060443494 0.036507104 0.02800575
0.13939612 -0.23046184 -0.38882437 0.2976164 0.07416778 0.31065214 -0.28919193 0.32243055
0.42882252 0.16719833 0.1811934 0.5096501 -0.14821611 -0.2135233 0.51952326 0.5486482
0.1047615 0.40830252 0.30760875 0.09435731 0.44807392 -0.3774639 0.3392332 0.562095
-0.30938783 -0.24450411 -0.54865843 -0.27846834 -0.40029645 0.11630573 0.26653367 0.4100759
0.44135806 0.26188463 0.06546464 -0.5008353 -0.42343423 0.102072306 0.46961537 0.14046918
-0.31114894 -0.33305705 -0.017421871 -0.2709173 0.43780503 -0.24629137 -0.6139978 0.06065711
0.09106656 -0.18221043 0.21760757 0.30260187 -0.3429624 -0.41413173 0.13668911 -0.49624524
00000000: e2de 463e 9eab a0be 3c6b 33be 717a 49be
00000010: 5a3e 38be aca6 093f c886 923e 351b ff3e
00000020: e076 9bbd 95d5 3c3e 5814 3c3e 6849 1c3e
00000030: 7090 d7be 7869 bcbe 7591 093e 8def 813e
00000040: a4f2 c73e 22a4 ca3e 5e2b c73e 168d 323e
00000050: f48a 6fbe 91cd e1be 89db 0bbf 15c6 babe
00000060: 6a81 6a3e 96ca 7e3e cc89 093f b711 f8bd
00000070: eaef a0be a193 c0be 5716 6d3e 5a4b 983e
00000080: 500b 2e3e b71f 683b 19e4 0fbe b44b 1d3e
00000090: 3369 46be 3095 40be b8fc 9f3e a843 dabd
000000a0: 039b 65be 0ba2 163e 0a45 3abe 517f 64be
000000b0: 3b2c 91be d97d cf3d 5cff b3be f59f a6be
000000c0: cd5c 7f3e 0bf4 d93e 1f12 eabd 5b51 1e3e
000000d0: f010 633e e91c be3e c478 16be 98c8 7f3e
000000e0: 9952 093e 16d1 f4be b6a3 363d f777 87be
000000f0: 31e5 0bbe d8e8 55be 31e3 33be 72aa be3e
00000100: e751 01bf 994d 8b3e 2969 01bf 9b98 80bd
00000110: 6f42 34be 7a2a df3e a125 17be ee18 873e
00000120: f44e 0e3e f9bc ac3e a0d7 573d 3b04 b53e
00000130: da9e 63be a585 bcbe 11b8 ea3e 10f8 99be
00000140: 3773 cebe bc7b b73d 5b99 e03e e231 64be
00000150: cbca 14bd 2d8e 2dbe faaf 953e 430a a63e
00000160: d94e b33e 105b acbe 4d2f df3d 8aa3 bbbe
00000170: cb39 733d 9d37 323e 7235 a53d 9ba4 b5be
00000180: dbed 91be 2bcb 783e 6097 abbe 4e93 2ebe
00000190: e821 cebe ab74 763d 6aa2 ae3e d9fc 9f3e
000001a0: e82a 47bd 3b9d 443e 392b 8fbe 7814 673e
000001b0: 04de 553d 5bfc a8be 6161 d23e 0f60 48be
000001c0: a3c2 2b3e 6a10 15bf b1d3 d73d 878e 433c
000001d0: def7 3c3e 29bf 303c a972 003e 331a 05be
000001e0: cc3f bd3e b4e2 ffbe d186 ec3e 6e83 bebd
000001f0: 1818 8abe d005 a3be cec2 db3e 32d5 2dbe
00000200: 1f49 44be 5498 ffbd 0782 edbe 1ffd cf3e
00000210: f83e e93d b569 44be f9aa 86be 3762 393e
00000220: 9f3b 28be cb4f 0cbd 023f b23e 8b57 613e
00000230: 3beb 213e b971 ecbe a1d2 f03e 6d73 60be
00000240: b3f1 70be 5e26 d53c 9360 f03e af69 b73e
00000250: 90aa 2cbe eeb1 893e b1a7 11be 9bc3 32be
00000260: 9e56 3bbe dcfa b4be cc58 bebc 3bd8 c1bd
00000270: 4623 a83e cdc0 d23e edbc 06be 5bf3 62be
00000280: 397f 59bd 2c4f 8f3e 11a7 4b3d c4b4 033e
00000290: 7c60 c3be 4bb9 e73d 69c7 df3e 3526 06be
000002a0: 6493 8e3e 4686 4abd 1d47 233d e6fb 79bd
000002b0: bf14 df3d 60f5 d13e 7ccf ad3e a53b 0c3f
000002c0: a711 01be 9cae a23e 3de0 f63e f6f7 a7be
000002d0: d259 1b3c ce6d 03bc 2721 ba3e c795 1fbf
000002e0: dafb 093e bc94 743e 273a d2be 5d4f 9abe
000002f0: 2b3a f3be 7b57 fa3e a1ae cd3e e311 d3be
00000300: d7ae f3bd d205 0abf adfd 37be 2a7b 1a3f
00000310: 108e cc3e 9993 773d 7988 153d 516c e53c
00000320: dbbd 0e3e 30fe 6bbe fd13 c7be 2d61 983e
00000330: 47e5 973d cc0d 9f3e f710 94be 9e15 a53e
00000340: a08e db3e 0a36 2b3e c38a 393e 6e78 023f
00000350: f7c5 17be daa5 5abe 7aff 043f 3574 0c3f
00000360: 338d d63d 070d d13e e57e 9d3e 683e c13d
00000370: f269 e53e f342 c1be f9af ad3e 75e5 0f3f
00000380: 1568 9ebe 495f 7abe e174 0cbf 6793 8ebe
00000390: a8f3 ccbe b331 ee3d 1a77 883e 78f5 d13e
000003a0: aff9 e13e be15 863e 5312 863d be36 00bf
000003b0: 5fcc d8be 490b d13d 6d71 f03e 27d7 0f3e
000003c0: ea4e 9fbe 7486 aabe 50b8 8ebc acb5 8abe
000003d0: fb27 e03e ce33 7cbe f62e 1dbf 9773 783d
000003e0: 1b81 ba3d 5f95 3abe 85d4 5e3e a2ee 9a3e
000003f0: c598 afbe 1309 d4be 3bf8 0b3e db13 febe

net.2.weight f4 [256, 256]
-0.053353053 0.026182277 -0.024588464 -0.041321814 -0.018148456 -0.061901253 0.035969377 -0.032066084
-0.044825844 -0.060591195 0.010433471 -0.027878376 -0.005558371 -0.013789631 -0.046093654 0.0041942485
0.020189246 -0.030664615 -0.0027813513 -0.040237013 -0.024807997 0.02617575 0.00055474276 0.030608099
-0.014583995 -0.049397208 -0.052206077 0.026419183 -0.055878926 0.027765337 -0.00740398 0.010464733
0.024543874 -0.034049306 0.01753277 -0.062620014 -0.023675114 0.023523921 0.00046481017 -0.007045929
-0.012355493 -0.03230536 0.016965756 -0.022173975 -0.0017901692 -0.00804068 0.03904157 -0.042021535
-0.023387233 0.030772438 0.0154406475 -0.041259453 -0.07290357 -0.010667903 0.027823912 -0.007863821
0.037527725 -0.05717392 0.006229582 -0.047695328 0.014549875 0.024111448 0.0015544062 0.022205012
-0.034874897 -0.052637376 -0.065917775 0.033216562 0.0033061453 -0.044000976 0.010400377 0.03304914
-0.05217125 0.017944457 -0.012173974 -0.010302871 0.04760656 0.047911678 0.0017104667 0.041804597
0.022010796 -0.011945516 -0.067094415 -0.00534559 -0.052326333 0.016288588 -0.011257272 -0.01937989
-0.05676067 -0.047107324 0.019564582 0.020467985 0.007437347 -0.021108001 -0.009110547 -0.028376801
0.036384545 -0.0281038 0.033324473 0.021243373 -0.048387017 -0.0047372505 -0.015278438 -0.029249556
0.022841128 -0.00642805 0.046321504 -0.05347679 0.004021319 -0.06025661 -0.04173084 -0.016883245
0.03661879 0.02786787 -0.043440733 0.0006694209 -0.036498625 -0.012940953 -0.044075552 -0.020814614
0.030992927 -0.04854426 -0.05044302 -0.010910062 -0.013029442 -0.00967631 0.04619999 -0.031856086
-0.032119107 -0.0395473 -0.009847575 -0.03394493 0.0273973 -0.0029707572 0.016895963 -0.042349342
0.022737201 0.044602223 -0.0527163 -0.013597322 -0.06008685 0.022476332 -0.061456352 -0.0455686
0.052863717 -0.050522517 0.01844746 -0.016076185 0.042306773 -0.032170583 0.014238698 0.0063834013
-0.015543202 0.03611018 -0.050289188 -0.055677645 0.046136167 -0.03177145 -0.053361144 -0.017821785
-0.032162316 -0.027804814 -0.05600971 -0.001489261 -0.058659278 -0.01623877 0.010310443 0.010165496
0.0018063182 -0.012710919 -0.030671865 -0.030581754 -0.022310825 -0.050928243 -0.04842207 0.031711258
-0.024007931 0.013275452 0.015999548 -0.0041330326 -0.04369046 -0.056391414 -0.024806708 0.01888449
-0.044556797 -0.021548081 0.02012536 0.02261856 0.015922038 0.005134486 0.015851988 0.02444798
-0.0026373714 -0.031635143 -0.04242716 -0.03200973 -0.030176597 -0.0113428 -0.005818648 0.006247317
0.035159566 -0.026781127 -0.050200995 -0.04713673 -0.030652428 0.009438727 -0.034127902 -0.010298047
-0.031555295 -0.032111317 0.0034358508 -0.042572036 -0.017970784 -0.037198637 -0.025907233 -0.013082657
-0.0021529584 -0.02502949 0.00933408 -0.018922143 -0.029333225 -0.039014533 -0.03172352 -0.07056029
0.043914713 -0.043983914 -0.021926183 0.004890591 0.01371605 -0.025546774 0.015702814 -0.046061236
-0.0016190519 -0.01534363 -0.043039154 -0.020490851 -0.0017622213 0.004836695 0.017883739 0.035393696
-0.028856883 -0.02259302 -0.031749707 -0.03790431 -0.034877058 -0.043295078 0.020123014 0.02219874
0.0041890843 -0.053112768 -0.045414116 -0.041147254 -0.0041261404 -0.019278407 0.0047797468 0.049864456
00000000: bb88 5abd 377c d63c bf6d c9bc 1041 29bd
00000010: 12ac 94bc 2b8c 7dbd a054 133d ba57 03bd
00000020: 4e9b 37bd 792e 78bd 26f1 2a3c 3161 e4bc
00000030: ff22 b6bb e8ed 61bc b3cc 3cbd e86f 893b
00000040: eb63 a53c 5c34 fbbc 5547 36bb 91cf 24bd
00000050: 243a cbbc 876e d63c 286c 113a d6bd fa3c
00000060: b5f1 6ebc ba54 4abd 0ad6 55bd 0b6d d83c
00000070: 4de1 64bd 2274 e33c 169d f2bb 4574 2b3c
00000080: 3c10 c93c 4977 0bbd e2a0 8f3c ec3e 80bd
00000090: 50f2 c1bc 3db5 c03c c4b1 f339 89e1 e6bb
000000a0: b26e 4abc a052 04bd c5fb 8a3c 32a6 b5bc
000000b0: 1ca4 eaba 0ebd 03bc 0eea 1f3d c61e 2cbd
000000c0: 9596 bfbc 7b16 fc3c c5fa 7c3c acff 28bd
000000d0: 784e 95bd 6ec8 2ebc f9ee e33c 42d7 00bc
000000e0: acb6 193d 332f 6abd 8521 cc3b 2d5c 43bd
000000f0: 9962 6e3c 5f85 c53c 38bd cb3a 49e7 b53c
00000100: fbd8 0ebd 4a9a 57bd e6ff 86bd 170e 083d
00000110: eaab 583b 5e3a 34bd 5866 2a3c 895e 073d
00000120: 85b1 55bd 4100 933c 5975 47bc 5fcd 28bc
00000130: 19ff 423d 093f 443d bd31 e03a 4c3b 2b3d
00000140: fc4f b43c 20b7 43bc cc68 89bd 0f2a afbb
00000150: 2354 56bd a56f 853c 6c70 38bc 93c2 9ebc
00000160: e07d 68bd 9cf3 40bd e745 a03c 7aac a73c
00000170: fdb4 f33b b0ea acbc 6744 15bc 7776 e8bc
00000180: f607 153d f139 e6bc 3e7f 083d 9506 ae3c
00000190: 7731 46bd f03a 9bbb 6a52 7abc c49c efbc
000001a0: 511d bb3c 64a2 d2bb 9ebb 3d3d 7b0a 5bbd
000001b0: 45c5 833b a3cf 76bd f5ed 2abd bb4e 8abc
000001c0: 96fd 153d 294b e43c e9ee 31bd 137c 2f3a
000001d0: 957f 15bd 4a06 54bc 9188 34bd 6983 aabc
000001e0: e1e4 fd3c 59d6 46bd 579d 4ebd 1ec0 32bc
000001f0: 7179 55bc 6389 1ebc 333c 3d3d 877b 02bd
00000200: 538f 03bd 5afc 21bd b957 21bc d709 0bbd
00000210: 4d70 e03c 09b1 42bb 6769 8a3c 8176 2dbd
00000220: 5e43 ba3c d2b0 363d 0ced 57bd 4dc7 5ebc
00000230: a11d 76bd 4920 b83c a8b9 7bbd 24a6 3abd
00000240: a087 583d b3f0 4ebd 211f 973c 34b2 83bc
00000250: de49 2d3d 4dc5 03bd 6e49 693c da2b d13b
00000260: eaa8 7ebc 45e8 133d 09fc 4dbd 3e0e 64bd
00000270: 47f9 3c3d c822 02bd 3791 5abd fefe 91bc
00000280: a2bc 03bd ecc6 e3bc 706a 65bd 4f33 c3ba
00000290: b644 70bd 2b07 85bc 22ed 283c 2e8d 263c
000002a0: fbc1 ec3a 7541 50bc 9043 fbbc 9686 fabc
000002b0: 31c5 b6bc 229a 50bd 3856 46bd aae3 013d
000002c0: 48ac c4bc 4881 593c 7c11 833c 646e 87bb
000002d0: c5f4 32bd affa 66bd 7037 cbbc a5b3 9a3c
000002e0: 3081 36bd 9a85 b0bc f0dd a43c 8f4a b93c
000002f0: ef6e 823c 313f a83b 07dc 813c 2147 c83c
00000300: c0d7 2cbb da93 01bd 1ac8 2dbd a21c 03bd
00000310: e934 f7bc 27d7 39bc 5baa bebb 4bb6 cc3b
00000320: 7a03 103d 1864 dbbc 8f9f 4dbd 7212 41bd
00000330: cd1a fbbc e4a4 1a3c b3c9 0bbd 24b9 28bc
00000340: 2040 01bd 2887 03bd 032c 613b 0460 2ebd
00000350: 7737 93bc 995d 18bd 683b d4bc a458 56bc
00000360: a618 0dbb a50a cdbc f8ed 183c 9c02 9bbc
00000370: 3b4c f0bc b4cd 1fbd 86f0 01bd ea81 90bd
00000380: eadf 333d 7a28 34bd 8a9e b3bc 4041 a03b
00000390: 49b9 603c 7847 d1bc 30a3 803c b5aa 3cbd
000003a0: 5e36 d4ba d963 7bbc d349 30bd 6edc a7bc
000003b0: 56fa e6ba 237d 9e3b eb80 923c fbf8 103d
000003c0: 4565 ecbc ff14 b9bc fb0b 02bd 8d41 1bbd
000003d0: 3fdb 0ebd 2e56 31bd 05d9 a43c 22da b53c
000003e0: 9644 893b c68c 59bd 2704 3abd 068a 28bd
000003f0: 9334 87bb c0ed 9dbc 6c9f 9c3b ac3e 4c3d

net.2.bias f4 [256]
-0.061881542 -0.0074749384 0.12201595 0.09438301 -0.0050384495 0.01942187 0.1522299 0.04094346
0.028741002 0.17192991 0.025361605 0.12687705 0.06461623 0.022073776 0.09217315 0.059430216
0.025717666 0.13605285 0.09114227 -0.0377175 -0.014031507 0.14393397 -0.041655626 -0.058748346
0.10508257 0.070555896 0.12085086 0.06637621 -0.02332974 -0.047824334 0.04930308 0.13015641
-0.03588481 0.00847243 0.0061457003 0.14296587 -0.040993124 -0.03711 -0.014738596 -0.043728232
0.09786039 0.10749163 -0.056516204 1.3124663e-05 -0.055022832 0.0095942225 -0.0009243731 -0.02607367
0.07121478 -0.03245109 0.00560777 0.08512839 0.0138591295 0.09019159 -0.020959571 -0.08147548
-0.028836755 -0.0016865813 0.08481196 0.064636156 -0.009856763 -0.022615744 -0.047162842 0.049219083
-0.00707824 -0.020696966 0.028403087 0.09109145 -0.029067475 0.064509675 0.21223348 -0.018103208
0.10991047 -0.035340846 -0.0417087 0.043320887 0.084097154 -0.0033343965 0.03349546 0.15199289
0.05471028 -0.01157074 0.08745824 0.033302154 0.020958409 0.023424193 -0.0005679551 0.094981335
0.053510573 0.10694619 0.05049794 0.14621033 0.14319721 0.004831279 0.13185376 -0.06141388
0.09328059 0.037315033 -0.019730195 0.04815666 -0.038226135 0.016456798 0.0065109306 -0.0005312635
0.1293131 0.0073645543 -0.05591765 0.117174685 -0.1267806 0.08225085 0.091649264 -0.022962762
-0.01341111 -0.040512033 0.0036511256 -0.09214614 -0.050430648 -0.050710086 0.10231975 0.030332487
0.08542215 0.111606374 0.043862626 0.058401726 -0.18378976 0.016044045 0.060933232 0.018039122
0.037766445 0.032528196 0.09519326 0.19038667 0.09153277 -0.006679449 0.0063211913 0.02981851
0.14540565 0.11716775 0.012208732 0.09217056 -0.04086274 0.024420414 -0.0028294795 0.13935173
0.115556315 -0.016650742 0.02408114 -0.046119288 -0.00529896 0.11446626 -0.19545987 0.14088976
-0.045337394 -0.04342218 0.122137114 -0.003180371 -0.07203781 0.04570575 0.01804853 0.07680993
0.1549734 -0.066713855 0.1292075 -0.02305022 0.07706939 -0.01869597 0.1423475 0.08349919
-0.05195574 0.15862669 0.10653386 0.029869536 -0.045431826 0.07382074 0.037268467 0.13960668
0.08789858 -0.036465365 0.09965229 0.12439582 0.02474963 0.05074847 0.07228671 0.15702896
0.076004334 0.18206675 0.10418526 0.13187298 0.09871402 0.05390292 0.030728066 0.099844605
0.033676274 0.065181255 0.020756816 -0.045067903 -0.028315201 -0.016124958 -0.021856401 0.10890921
-0.049835876 0.052767087 0.12240623 0.028893702 -0.05880657 -0.045506813 0.11799599 -0.05762492
0.10455978 0.07258547 -0.039692726 -0.088002495 -0.025943864 0.025695553 0.055788644 0.16748458
0.09391206 0.1319266 0.087789156 0.015476584 0.009666458 -0.043944083 0.077790394 -0.046402946
0.048044898 0.010384304 0.085889615 0.13301481 0.010129798 0.09962678 0.101871826 0.07304015
0.07226132 0.12032405 0.049189996 0.052833997 0.10565818 0.09303667 0.011179781 -0.0018680966
0.12613267 0.06520004 -0.035103086 0.08808258 0.11876739 -0.0723129 0.12933864 0.009781181
0.12370337 0.061716694 0.14328338 -0.019438894 0.13771433 0.07901979 0.044871982 0.0021362565
00000000: 8077 7dbd 54f0 f4bb 80e3 f93d e14b c13d
00000010: 9419 a5bb 9d1a 9f3c 28e2 1b3e 54b4 273d
00000020: 4072 eb3c 650e 303e 24c3 cf3c 0fec 013e
00000030: 8455 843d 10d4 b43c 47c5 bc3d 196d 733d
00000040: dbad d23c 7051 0b3e cca8 ba3d aa7d 1abd
00000050: 68e4 65bc 6d63 133e 179f 2abd 1ba2 70bd
00000060: 8835 d73d 9c7f 903d a880 f73d 40f0 873d
00000070: 031e bfbc 73e3 43bd 07f2 493d b947 053e
00000080: f3fb 12bd f2cf 0a3c df61 c93b a565 123e
00000090: 68e8 27bd a800 18bd 277a 71bc 601c 33bd
000000a0: 076b c83d 9224 dc3d 897d 67bd 0032 5c37
000000b0: 9f5f 61bd 1631 1d3c a151 72ba 7398 d5bc
000000c0: 0ed9 913d 6feb 04bd 62c1 b73b cb57 ae3d
000000d0: 6711 633c 5eb6 b83d 68b3 abbc 9edc a6bd
000000e0: 0f3b ecbc 4710 ddba e5b1 ad3d f65f 843d
000000f0: 437e 21bc a744 b9bc d32d 41bd f399 493d
00000100: 95f0 e7bb af8c a9bc 97ad e83c 278e ba3d
00000110: ea1e eebc a61d 843d bc53 593e 2e4d 94bc
00000120: be18 e13d 90c1 10bd bed6 2abd 3e71 313d
00000130: 213b ac3d e485 5abb 8932 093d 06a4 1b3e
00000140: e317 603d 3393 3dbc 4e1d b33d d767 083d
00000150: f8b0 ab3c 18e4 bf3c d2e2 14ba 9385 c23d
00000160: e72d 5b3d 9b06 db3d eed6 4e3d 29b8 153e
00000170: 4aa2 123e b54f 9e3b ac04 073e 1f8d 7bbd
00000180: e509 bf3d a6d7 183d 38a1 a1bc eb3f 453d
00000190: 0293 1cbd 68d0 863c a559 d53b 7d44 0bba
000001a0: a76a 043e 5c52 f13b e809 65bd 48f9 ef3d
000001b0: c6d2 01be 2273 a83d 9cb2 bb3d 671c bcbc
000001c0: 46ba 5bbc f2ef 25bd b947 6f3b 1eb7 bcbd
000001d0: 5e90 4ebd 61b5 4fbd 048d d13d d67b f83c
000001e0: cff1 ae3d e291 e43d 4ca9 333d a636 6f3d
000001f0: 6233 3cbe cd6e 833c 2095 793d c8c6 933c
00000200: fdb0 1a3d 493c 053d aff4 c23d b9f4 423e
00000210: 8875 bb3d 48df dabb ff21 cf3b f345 f43c
00000220: 38e5 143e a5f5 ef3d 2207 483c ebc3 bc3d
00000230: b05f 27bd 520d c83c ca6e 39bb 38b2 0e3e
00000240: caa8 ec3d 2367 88bc d045 c53c 94e7 3cbd
00000250: e6a2 adbb 496d ea3d a226 48be 6845 103e
00000260: b4b3 39bd 75db 31bd 0623 fa3d c56d 50bb
00000270: 8f88 93bd f435 3b3d 83da 933c 864e 9d3d
00000280: 59b1 1e3e 46a1 88bd f94e 043e d1d3 bcbc
00000290: 8ed6 9d3d 4a28 99bc 8bc3 113e a001 ab3d
000002a0: 8bcf 54bd 096f 223e 6d2e da3d f5b0 f43c
000002b0: b916 3abd 542f 973d d2a6 183d 0ef5 0e3e
000002c0: 2c04 b43d b55c 15bd 8016 cc3d 3cc3 fe3d
000002d0: bcbf ca3c a1dd 4f3d 0e0b 943d 33cc 203e
000002e0: 29a8 9b3d b56f 3a3e 155f d53d b609 073e
000002f0: 932a ca3d 4fc9 5c3d 6db9 fb3c 547b cc3d
00000300: 22f0 093d c07d 853d 330a aa3c 1f99 38bd
00000310: 48f5 e7bc 7d18 84bc 320c b3bc cb0b df3d
00000320: b420 4cbd 4d22 583d 1eb0 fa3d 7cb2 ec3c
00000330: 28df 70bd 5a65 3abd e2a7 f13d 1c08 6cbd
00000340: 7023 d63d b1a7 943d d794 22bd a73a b4bd
00000350: 3a88 d4bc 7b7f d23c a282 643d 1481 2b3e
00000360: f754 c03d c417 073e cdca b33d 8091 7d3c
00000370: 1060 1e3c b6fe 33bd 9250 9f3d 0411 3ebd
00000380: baca 443d ee22 2a3c e5e6 af3d 0935 083e
00000390: 74f7 253c 2009 cc3d 2da2 d03d 1396 953d
000003a0: befd 933d 756c f63d 737b 493d 7668 583d
000003b0: 5163 d83d 028a be3d 662b 373c ecda f4ba
000003c0: ec28 013e 9987 853d 41c8 0fbd a464 b43d
000003d0: 513c f33d c918 94bd 5971 043e 3f41 203c
000003e0: 3158 fd3d a5ca 7c3d e1b8 123e 513e 9fbc
000003f0: fc04 0d3e 21d5 a13d afcb 373d 7000 0c3b

net.4.weight f4 [3, 256]
-0.020231964 0.024261782 -0.34971946 -0.12608305 0.5353786 -0.009090292 -0.10797262 0.0286126
0.1692876 -0.34008703 -0.0034553842 -0.1092086 -0.120138906 -0.05570926 -0.09340216 -0.13637665
0.009817365 -0.14205539 -0.09968811 0.025713451 0.042324454 -0.13848846 -0.1401607 -0.033910774
-0.102988005 -0.10170949 -0.12903835 -0.111534156 -0.022400407 -0.02469271 -0.107040405 -0.25818983
-0.020023746 -0.01382019 -0.015399097 -0.1354117 -0.03716779 -0.005998678 0.20687814 0.016920637
-0.12532677 -0.1504387 0.635344 -0.001712214 -0.024619494 0.0330504 -0.01678219 0.02460978
-0.09862567 -0.58327365 0.037592344 -0.07069887 0.6850703 -0.084877014 -0.026980476 0.49475121
0.011482869 0.012970461 -0.141108 -0.62342674 0.0033052105 -0.9071158 0.5061629 -0.12132785
0.04643215 0.0072135306 -0.04461645 -0.11312291 -0.0010335504 -0.10985832 -0.1737669 0.03303131
-0.11239207 -0.02070006 0.039747816 -0.46455887 -0.15038024 0.01995251 0.61551845 -0.04615582
-0.113486014 -0.02183148 -0.10953676 0.008142494 0.0037956 -0.024689082 0.9249352 0.7231259
-0.09947148 -0.11138602 -0.13077362 -0.13275522 -0.084891096 0.0067981496 -0.37311852 0.0033310566
-0.09082435 0.1654857 0.050278924 -0.096840434 -0.009575226 0.61441845 0.035774045 0.009396461
-0.17897585 -0.016219892 0.01418385 -0.09503017 0.8021947 -0.13081163 -0.123282455 0.39812574
0.039743457 -0.003877664 0.013909937 1.2477854 -0.83212173 -0.010222956 -0.13183466 -0.13782315
-0.14192383 -0.14601897 0.033174437 -0.10047978 -1.0733179 0.040343598 -0.117444076 0.042134706
0.38294694 0.009024736 -0.1340928 -0.3662801 -0.14063227 -0.04184384 0.030607015 -0.0034193108
-0.10026504 -0.13485655 0.80834925 0.073738046 0.0106661115 -0.12011963 0.010946176 -0.062400967
-0.1279519 0.008209897 0.043222826 -0.01617395 0.023869809 -0.110053994 1.0988725 -0.13389763
0.010248969 0.041527152 -0.10292229 0.012780368 -0.028384577 0.5456045 -0.034926906 -0.10589313
-0.09167786 -0.018118443 -0.11237998 0.047948923 -0.16151133 1.1617651 -0.09453846 -0.09478412
0.0052360767 -0.04988939 -0.1250812 -0.03871531 0.03199245 -0.093847334 0.04278663 -0.11336838
-0.12412022 -0.024135243 -0.13825664 -0.10281764 0.037606947 -0.074233204 -0.055024337 -0.11889876
0.8441848 -0.1702733 -0.12498771 -0.08956752 1.3262293 0.8646394 0.50414866 -0.13664821
-0.007955337 -0.11691566 0.030751476 0.32910377 0.027311513 -0.025836999 -0.020923037 -0.12765351
-0.010353891 1.2262303 -0.11370053 0.020239292 0.29628348 -0.00038674322 -0.06518977 0.8945752
-0.07948077 -0.05948452 0.05232525 1.3029107 0.0064269463 0.40963277 -0.12459168 -0.12743117
-0.12958458 -0.07458462 -0.1966372 -0.0304005 0.033519655 0.02847977 -0.13334014 -0.018935677
-0.11284322 -0.04150789 -0.09938412 -0.13245437 0.89227337 -0.11164476 -0.08781213 -0.11124897
-0.10985376 -0.09904349 -0.07048556 -0.12889999 -0.12131146 -0.10931592 0.04793472 -0.038440835
-0.12961282 0.7103055 0.00037305933 -0.19138573 -0.13456525 -0.055905107 -0.10739514 0.011185392
1.2659019 -0.10007795 -0.122283466 0.032724977 -0.07661181 -0.10203484 -0.14007355 0.4579579
00000000: 81bd a5bc a5c0 c63c 6e0e b3be ea1b 01be
00000010: 920e 093f 73ef 14bc c020 ddbd f964 ea3c
00000020: bb59 2d3e e31f aebe ba73 62bb c2a8 dfbd
00000030: 630b f6bd 652f 64bd a249 bfbd 52a6 0bbe
00000040: 03d9 203c f876 11be 4829 ccbd 04a5 d23c
00000050: 685c 2d3d ebcf 0dbe 4986 0fbe 06e6 0abd
00000060: 60eb d2bd 114d d0bd a122 04be 056c e4bd
00000070: 0f81 b7bc 5e48 cabc 0038 dbbd 7531 84be
00000080: d708 a4bc 146e 62bc 7f4c 7cbc 5da9 0abe
00000090: 413d 18bd 8f90 c4bb ddd7 533e 269d 8a3c
000000a0: a955 00be 9a0c 1abe e8a5 223f 5e6c e0ba
000000b0: d2ae c9bc db5f 073d ce7a 89bc 739a c93c
000000c0: 41fc c9bd 6c51 15bf 6efa 193d 92ca 90bd
000000d0: c460 2f3f 00d4 adbd 2906 ddbc 0850 fd3e
000000e0: a522 3c3c 0e82 543c 9e7e 10be e598 1fbf
000000f0: 3b9c 583b be38 68bf e493 013f bc7a f8bd
00000100: a32f 3e3d 7b5f ec3b bdbf 36bd fcac e7bd
00000110: 3278 87ba 66fd e0bd f3ef 31be d74b 073d
00000120: d02d e6bd 2c93 a9bc 9bce 223d a9da edbe
00000130: 47fd 19be 7273 a33c 9e92 1d3f e30d 3dbd
00000140: 5b6b e8bd efd7 b2bc cf54 e0bd 1868 053c
00000150: 9abf 783b c240 cabc 8ec8 6c3f c71e 393f
00000160: b4b7 cbbd 5b1e e4bd 85e9 05be fcf0 07be
00000170: 62db adbd 03c3 de3b 6409 bfbe db4d 5a3b
00000180: 1e02 babd 1575 293e 46f1 4d3d 4754 c6bd
00000190: 69e1 1cbc 874a 1d3f ce87 123d 9df3 193c
000001a0: 7245 37be 94df 84bc 6163 683c 2e9f c2bd
000001b0: a25c 4d3f 7cf3 05be 837b fcbd 23d7 cb3e
000001c0: 09ca 223d 6820 7ebb 81e6 633c 6fb7 9f3f
000001d0: ee05 55bf 2f7e 27bc aaff 06be 8321 0dbe
000001e0: 7b54 11be ff85 15be ebe1 073d 58c8 cdbd
000001f0: 7b62 89bf 543f 253d 8586 f0bd 7195 2c3d
00000200: 9f11 c43e 7cdc 133c 9f4f 09be 1189 bbbe
00000210: e801 10be 7264 2bbd 90bb fa3c 8416 60bb
00000220: c257 cdbd d617 0abe faef 4e3f f903 973d
00000230: eac0 2e3c 4801 f6bd 9757 333c 2898 7fbd
00000240: d305 03be ce82 063c 6b0a 313d 3b7f 84bc
00000250: 9e8a c33c fd63 e1bd dba7 8c3f 761c 09be
00000260: 4beb 273c 6018 2a3d ecc8 d2bd c064 513c
00000270: c686 e8bc bdac 0b3f 840f 0fbd 7fde d8bd
00000280: 9ac1 bbbd 216d 94bc 7a27 e6bd 1766 443d
00000290: 3a63 25be b8b4 943f 619d c1bd 2d1e c2bd
000002a0: 6593 ab3b d158 4cbd 4915 00be f293 1ebd
000002b0: 840a 033d 0833 c0bd 0941 2f3d ae2d e8bd
000002c0: be32 febd 46b7 c5bc 2693 0dbe 0e92 d2bd
000002d0: be09 1a3d 9407 98bd 3361 61bd 3181 f3bd
000002e0: 7f1c 583f 205c 2ebe 8ef9 ffbd 2d6f b7bd
000002f0: e2c1 a93f 0259 5d3f e30f 013f 82ed 0bbe
00000300: 1a57 02bc 7a71 efbd 85ea fb3c 4a80 a83e
00000310: 65bc df3c 1da8 d3bc ca66 abbc 9ab7 02be
00000320: 5ea3 29bc 1df5 9c3f d3db e8bd dfcc a53c
00000330: 78b2 973e ccc3 cab9 3782 85bd e102 653f
00000340: d0c6 a2bd 0aa6 73bd 0053 563d c7c5 a63f
00000350: 2299 d23b 63bb d13e ec29 ffbd 517d 02be
00000360: d2b1 04be d2bf 98bd 435b 49be 780a f9bc
00000370: e84b 093d 684e e93c 518a 08be fe1e 9bbc
00000380: 591a e7bd 2d04 2abd e789 cbbd 1ea2 07be
00000390: 076c 643f 02a6 e4bd d9d6 b3bd 80d6 e3bd
000003a0: 02fb e0bd 50d7 cabd bc5a 90bd 5cfe 03be
000003b0: 2572 f8bd 06e1 dfbd 3257 443d 2374 1dbd
000003c0: 39b9 04be 95d6 353f 2d97 c339 9ffa 43be
000003d0: 79cb 09be c1fc 64bd fcf1 dbbd ef42 373c
000003e0: 1309 a23f abf5 ccbd c16f fabd a00a 063d
000003f0: a7e6 9cbd a4f7 d0bd 716f 0fbe 7579 ea3e

net.4.bias f4 [3]
-0.044776596 -0.10755396 -0.13651843
00000000: aa67 37bd 4045 dcbd 7dcb 0bbe
